model_trained.pt (torch, 202110 bytes, 9 tensors)

rnn1.weight_ih_l0 f4 [128, 1]
0	0xbe06ec6f	-0.1317613
1	0xbb8d2e7a	-0.004308519
2	0xbdf82393	-0.1211616
3	0x3dbc0ca9	0.09182102
4	0x3d70d038	0.058792323
5	0xbd77c0a1	-0.06048644
6	0xbe062d0a	-0.13103119
7	0xbc2d401c	-0.010574367
8	0x3d8a0920	0.06740022
9	0xbdce75ff	-0.100811
10	0xbcdbadeb	-0.026816329
11	0x3b826934	0.0039798263
12	0xbe26f3ec	-0.16303986
13	0xbdbe2ab5	-0.092854895
14	0xbe21196d	-0.15732355
15	0x3c923593	0.017847812
16	0x3e19ca49	0.15018572
17	0xbd9fab7a	-0.077963784
18	0x3d9d0297	0.076665096
19	0x3df187ad	0.11793456
20	0xbe311f64	-0.17297131
21	0xbbd5ebc7	-0.006528351
22	0x3dfd754a	0.12375887
23	0x3e02ede7	0.12786065
24	0x3d865e4a	0.06560953
25	0xbd6d6032	-0.057953067
26	0xbe02d810	-0.12777734
27	0x3be76be2	0.007062421
28	0x3d8a6880	0.06758213
29	0xbe27b706	-0.16378412
30	0xbc121b4e	-0.008917643
31	0x3b614910	0.0034375824
32	0xbdf9345b	-0.12168189
33	0x3de95464	0.11393049
34	0xb9818497	-0.00024703584
35	0x3e07af40	0.13250446
36	0x3d55a0ac	0.05215518
37	0x3b3ade8e	0.0028514
38	0x3e1a607d	0.1507587
39	0x3e09489e	0.13406608
40	0x3a6f46d6	0.0009127682
41	0x3d5f96e7	0.05458727
42	0xbdee9afa	-0.11650653
43	0x3dfd7a3a	0.123768285
44	0x3c0af54a	0.008481333
45	0xbddd4543	-0.10804226
46	0xbb8c0d1b	-0.004274023
47	0x3d2d403a	0.04229758
48	0x3c9a84ee	0.018862214
49	0x3dfbd918	0.12297267
50	0xbe384f0f	-0.17998908
51	0x3c9053f7	0.017618163
52	0x3ba32140	0.004978329
53	0xbde75767	-0.112959675
54	0x3e083e40	0.13304996
55	0xbe21bdb4	-0.15795022
56	0xbd01ebb0	-0.03171891
57	0xbe2ca9d1	-0.16861655
58	0x3e09065a	0.13381329
59	0x3e072fd1	0.13201834
60	0xbde680aa	-0.112550095
61	0xbd840ae4	-0.0644739
62	0x3bb2a87a	0.005452213
63	0xbd4f1798	-0.05055961
64	0x3cab1b4a	0.020887036
65	0xbd9b7abc	-0.07591769
66	0xbcd49bb3	-0.02595315
67	0xbb2027f3	-0.0024437874
68	0xbde30179	-0.11084265
69	0x3d606fd3	0.054794144
70	0xbd7e8c62	-0.0621456
71	0x3cd7ea01	0.026356699
72	0x3e0d6f6f	0.1381204
73	0x3d742ef9	0.05961511
74	0x3dc48548	0.09595734
75	0x3da69fcb	0.08135947
76	0xb9415073	-0.00018435884
77	0x3dd545c1	0.10413695
78	0x3dc5567f	0.096356384
79	0xbdbbb706	-0.09165768
80	0x3dfe27f4	0.12409964
81	0xbe2cb48f	-0.16865753
82	0xbdc2c113	-0.09509482
83	0xbc6124ae	-0.013741655
84	0x3ae5f3d6	0.0017543982
85	0x3d8ce315	0.0687925
86	0xbdfa148a	-0.12210949
87	0xbde4b6e6	-0.111676976
88	0xbc407e85	-0.011748915
89	0xbe13eeed	-0.14446612
90	0xbc2da299	-0.010597848
91	0x3a88b576	0.0010430056
92	0xbb4e3039	-0.0031461848
93	0x39c3b36e	0.00037326984
94	0xbdc028eb	-0.093828045
95	0xbc96a24f	-0.018387942
96	0xbdea4a86	-0.114399955
97	0xbd9af308	-0.07565886
98	0xbc0ef247	-0.008724756
99	0x3de74ffe	0.11294554
100	0x3bde2dd0	0.0067803636
101	0xbdfc050f	-0.12305652
102	0x3ddaefa1	0.10690237
103	0xbd13891d	-0.036019433
104	0xbb96525a	-0.004587454
105	0xbcaa47b8	-0.020786151
106	0xbdd4fcb0	-0.10399759
107	0xbe297dd2	-0.16551903
108	0x3e19b137	0.15009008
109	0x3d9d9aa9	0.07695515
110	0xbdb7e2a7	-0.089787774
111	0xbe23d9b4	-0.16001016
112	0x3df83688	0.12119776
113	0x3dbff141	0.093721874
114	0xbe0cbe8d	-0.13744564
115	0xbbc6ee85	-0.006070914
116	0xbdacbd9e	-0.08434604
117	0xbe00feb4	-0.12597162
118	0x3d1387d5	0.03601821
119	0x3db4adf5	0.08822242
120	0x3d810480	0.062996864
121	0xbd0f8344	-0.035037294
122	0x3d9ec492	0.077523366
123	0x3cdb5b0c	0.026776813
124	0x3d3191b0	0.04335183
125	0x3e063ba2	0.13108686
126	0x3b6da38b	0.003626081
127	0xbdff6955	-0.12471262

rnn1.weight_hh_l0 f4 [128, 128]
0	0xbc53ad98	-0.012919806
1	0xbd94b4ad	-0.07261024
2	0xbdbbbfce	-0.09167443
3	0xbd426db5	-0.047467906
4	0x3b91d7e6	0.004450786
5	0xbd1c85e8	-0.03821364
6	0x3d10090d	0.03516488
7	0xbc0cad7c	-0.008586284
8	0xbd660889	-0.056160484
9	0xbd915f29	-0.070982285
10	0xbd5c2c5e	-0.05375325
11	0xbcbafeaf	-0.02282652
12	0xbd0283ee	-0.0318641
13	0x3de1718b	0.11007985
14	0x3d5d1c78	0.053982228
15	0xbcacf8f4	-0.021114804
16	0x3ccab441	0.024744155
17	0x3cc65e6f	0.024214951
18	0x3c224272	0.009903537
19	0x3d1c5985	0.03817131
20	0xbcd53b85	-0.026029358
21	0xbc8123be	-0.015764114
22	0xbd619124	-0.055070058
23	0x3daf4520	0.085581064
24	0xbce200b5	-0.027588228
25	0x3d809ac8	0.06279522
26	0xbda4bce6	-0.08043842
27	0xbd35110a	-0.044205703
28	0x3d8edce3	0.069757245
29	0xbd118db3	-0.035535526
30	0x3d5487cf	0.05188733
31	0x3d033ee8	0.032042414
32	0xbb12572d	-0.0022329793
33	0x3d03319a	0.032029726
34	0xbcdda6fb	-0.027057162
35	0x3df2bcbe	0.11852406
36	0xbd73ff27	-0.059569504
37	0xbde1efee	-0.11032091
38	0xbd83cfdf	-0.06436133
39	0xbdbca591	-0.09211267
40	0x3db34b22	0.08754565
41	0xbc5a5bdd	-0.013327566
42	0x3d7d89cc	0.06189899
43	0xbdcbccb8	-0.099511564
44	0x3b4ac458	0.0030939784
45	0xbd98366c	-0.07432255
46	0xbc8334d4	-0.016016401
47	0xbced4a76	-0.02896617
48	0x3d11b37c	0.03557156
49	0x3e00d111	0.12579753
50	0x3d8553f1	0.06510151
51	0xbd521947	-0.051293638
52	0x3cc33cae	0.023832645
53	0xbc89e693	-0.01683358
54	0x3d26077d	0.040534485
55	0xbd1b5c12	-0.037929602
56	0x3d97968b	0.07401761
57	0xbd3391a7	-0.043840077
58	0x3d3ed2e4	0.04658784
59	0xbbc8438c	-0.006111568
60	0x3ca81e6f	0.020522324
61	0xbcba0cfb	-0.022711268
62	0xbdc25d6a	-0.094904736
63	0xbdcfdaae	-0.10149132
64	0xbd8d82e8	-0.06909734
65	0xbd2fedaa	-0.042951263
66	0xbd83139b	-0.06400224
67	0xbc296bf8	-0.010340683
68	0xbc3358a9	-0.010946431
69	0x3b723e87	0.0036963539
70	0x3cb95b8c	0.02262666
71	0x3cedf8c5	0.029049287
72	0xbda225e9	-0.07917387
73	0x3c8a97ea	0.016918141
74	0xbc0b693c	-0.008508977
75	0x3dc3d5c9	0.09562261
76	0xbc8232b5	-0.01589332
77	0xbd8a3531	-0.06748427
78	0x3d93d9d5	0.072192825
79	0xbc6cd5fc	-0.014455315
80	0x3ba7592f	0.005107067
81	0x3cfd13aa	0.030893166
82	0x3d1edd01	0.038784984
83	0xbd43293a	-0.04764674
84	0x3d4acf8e	0.049514346
85	0xbdd62a29	-0.1045726
86	0x3da4d01c	0.08047506
87	0x3d10f316	0.035388075
88	0xbd02e26a	-0.031954207
89	0xbc715c2f	-0.014731451
90	0x3cc736ef	0.024318187
91	0xbd3606d7	-0.044440117
92	0xbcab3ca6	-0.020902943
93	0x3d040cfe	0.032238953
94	0x3ce0f8df	0.027462421
95	0x3d9c0675	0.07618419
96	0x3d70b59d	0.05876695
97	0x3c444759	0.011979901
98	0x3d9c5823	0.07633998
99	0xbd843d58	-0.06457013
100	0xbcfe3946	-0.03103317
101	0xbca98b6d	-0.020696366
102	0x3d7a36bd	0.06108736
103	0x3dcfb481	0.1014185
104	0xbd11961e	-0.035543554
105	0x3d4b4863	0.04962958
106	0x3a68d8f1	0.00088824244
107	0x3ced228f	0.028947143
108	0xbd1a9b2d	-0.037745643
109	0x3da890a8	0.08230716
110	0x3d807704	0.062727004
111	0x3d98c99f	0.07460331
112	0x3d45100e	0.048111014
113	0x3b42d8b2	0.0029731211
114	0x3d52123e	0.05128693
115	0x3d73b706	0.059500717
116	0xbd589f34	-0.052886203
117	0x3d16a69d	0.03677999
118	0x3ded495e	0.11586259
119	0x3d26b31a	0.04069815
120	0x3cbf9339	0.02338563
121	0xbc04ae5d	-0.008098212
122	0x3d9197b4	0.07109013
123	0x3c084aca	0.008318612
124	0x3d37c624	0.044866696
125	0x3dc6e837	0.0971226
126	0x3c98db2b	0.018659195
127	0xbdd355a5	-0.1031907
128	0xbbdbdc3f	-0.006709605
129	0xbec22e82	-0.37926108
130	0xbb9133d6	-0.004431228
131	0xbcfde612	-0.030993495
132	0xbbecea1b	-0.007230056
133	0xbda7516b	-0.08169826
134	0xbd7df2f0	-0.06199926
135	0xbd6ddabb	-0.058069926
136	0x3b58261a	0.0032981695
137	0x3dd0e561	0.102000006
138	0xbca9e34b	-0.020738265
139	0xbc96d73f	-0.018413184
140	0x3d44f7b3	0.048087787
141	0x3dcf3200	0.101169586
142	0x3d0006d1	0.0312565
143	0xba81c887	-0.0009901681
144	0x3d502e32	0.050825305
145	0x3c77af64	0.0151175
146	0x3d00728c	0.03135924
147	0x3b274aab	0.0025526683
148	0x3d4a13fe	0.049335472
149	0xbd4a0bae	-0.049327545
150	0x3d087cbc	0.03332208
151	0xbd434531	-0.047673408
152	0xbcfcceb9	-0.030860292
153	0xbcc1986e	-0.023632254
154	0xbd30889b	-0.043099027
155	0x3ccca5c4	0.024981387
156	0xbd388391	-0.045047347
157	0xbde28ecd	-0.11062393
158	0x3df12a79	0.11775679
159	0x3c052ca0	0.008128315
160	0xbd30ef01	-0.043196682
161	0xbdd8fcbd	-0.10595081
162	0xbc96d05e	-0.018409904
163	0x3d4a78a1	0.049431447
164	0xbd6e1bcd	-0.05813198
165	0x3d1395ce	0.036031537
166	0x3c93a70b	0.018023988
167	0xbc893acf	-0.016751675
168	0xbd52b919	-0.051446054
169	0xbc198127	-0.009369171
170	0x3d4c1b7e	0.049830906
171	0xbda6d098	-0.08145255
172	0xbd2bd80c	-0.041954085
173	0x3ccb4e94	0.024817742
174	0x3d75734b	0.059924405
175	0xbca09b6e	-0.019605365
176	0x3cb43a8b	0.022000572
177	0x3d054acb	0.03254203
178	0xbd083d6c	-0.0332617
179	0x3a327596	0.0006807683
180	0x3d83e4c3	0.06440117
181	0xbd929fa4	-0.07159355
182	0xbd8fac62	-0.07015301
183	0x3d2641e7	0.040590193
184	0xbbc9a1fb	-0.006153343
185	0x3cdba67f	0.02681279
186	0x3d5ae925	0.053445
187	0x3d443c35	0.04790898
188	0x3cafe995	0.021473685
189	0x3cd0afcc	0.025474451
190	0xbd208f6c	-0.039199278
191	0xbd5053a1	-0.050861005
192	0x3d13d255	0.03608926
193	0xbd0a299a	-0.03373108
194	0xbd848774	-0.06471148
195	0x3c4f0979	0.012636536
196	0xbd735176	-0.05940386
197	0xbcb5d14d	-0.022194529
198	0x3dda09b6	0.106463835
199	0xbc8e1472	-0.017343733
200	0xbdcb64f5	-0.099313654
201	0x3db27e20	0.08715463
202	0xbd87aa71	-0.06624306
203	0xbd403267	-0.046923067
204	0xbdfd6828	-0.12373382
205	0xbd83c3dc	-0.064338416
206	0x3de5113a	0.11184926
207	0xbdb523bf	-0.08844709
208	0x3d0d79b0	0.03453988
209	0xbbedd4a5	-0.007258015
210	0xbc9e3ed0	-0.01931706
211	0x3c9817c5	0.018566022
212	0xbabe7b29	-0.0014532554
213	0x3d481f4e	0.04885798
214	0x3d323ea9	0.04351679
215	0x3d16bd8a	0.036801852
216	0xbcb68e86	-0.022284757
217	0xbc862fb1	-0.016380163
218	0xbdc13a00	-0.09434891
219	0xbce65a3b	-0.028119197
220	0x3cb26889	0.021778362
221	0xbbd10ad4	-0.0063794646
222	0x3da4bbd3	0.08043637
223	0x3d543648	0.05180958
224	0x3dba4f8c	0.090972036
225	0xbd13bff4	-0.036071733
226	0xbd5b46fd	-0.053534497
227	0x3d64d7c1	0.05586982
228	0xbcff6dca	-0.031180281
229	0x3cf84d5d	0.030310327
230	0x3d69d0fb	0.057084065
231	0xbd9d6ebf	-0.07687139
232	0xbbf1feca	-0.0073851096
233	0xbdb6c833	-0.08924904
234	0x3d044490	0.03229195
235	0x3ccdbc08	0.025114074
236	0x3d19152a	0.0373737
237	0xbd0dc917	-0.034615602
238	0xbdb2763b	-0.08713957
239	0xbc6a77d4	-0.014310796
240	0x3d6b30c3	0.05741955
241	0xbc89afb5	-0.016807416
242	0x3dc4e0c0	0.0961318
243	0xbba1fa4c	-0.004943168
244	0x3d4febaf	0.050761875
245	0x3c445f74	0.011985648
246	0xbc31bde7	-0.010848499
247	0xbb5c2acc	-0.0033594845
248	0x3d450099	0.048096273
249	0xbc835179	-0.01603006
250	0xbc9ace33	-0.018897152
251	0xbcab41f7	-0.020905478
252	0xbd87db46	-0.0663362
253	0x3d8cc8b1	0.06874216
254	0x3c385e6e	0.011252983
255	0xbdb8c49e	-0.09021877

rnn1.bias_ih_l0 f4 [128]
0	0xbd0a7c80	-0.03381014
1	0xbc98f4c4	-0.0186714
2	0xbd056d23	-0.032574784
3	0x3c5ee0e2	0.013603421
4	0x3b866faf	0.004102669
5	0xbce12f0b	-0.027488252
6	0x3d2e2296	0.042513452
7	0x3b9ebf8b	0.004844611
8	0xbb86ae6c	-0.004110148
9	0x3d07bdee	0.033140115
10	0x3d3d78ca	0.04625777
11	0x3d94a9ab	0.07258924
12	0x3be02789	0.0068406505
13	0xbda13156	-0.07870738
14	0x3d8c15f9	0.068401285
15	0xbd563730	-0.052298725
16	0xbdd98ab7	-0.10622161
17	0x3daed524	0.08536747
18	0xbb85f372	-0.004087859
19	0x3cdac054	0.026703037
20	0x3dcc0b74	0.09963122
21	0x3c18cb19	0.009325766
22	0xbce61054	-0.028083958
23	0xbd500f04	-0.05079557
24	0xbdac5590	-0.08414757
25	0x3daa0000	0.08300781
26	0xbd040d92	-0.032239504
27	0xbd099331	-0.03358764
28	0xba1c69a8	-0.0005966672
29	0x3d4baad6	0.04972347
30	0xbcc18c75	-0.023626545
31	0x3c651611	0.013982312
32	0x3d1a4884	0.037666813
33	0x3cd53a8d	0.026028896
34	0x3c87dc1c	0.016584449
35	0xbd81981a	-0.06327839
36	0xbb857e46	-0.004073891
37	0xbd01b498	-0.03166637
38	0x3d29cb8e	0.04145389
39	0xbb651ce5	-0.003495985
40	0xbd202a01	-0.039102558
41	0x3d9728da	0.07380839
42	0xbd00d4c6	-0.031452917
43	0xbd66a061	-0.056305293
44	0x3c8a60e1	0.016891899
45	0x3c43f844	0.011961047
46	0xbd6a2a20	-0.05716908
47	0x3cc5ac32	0.02412996
48	0xbd4e1744	-0.050315157
49	0x3d132d0f	0.035931643
50	0xbc58a1f8	-0.01322221
51	0x3d8eb20b	0.06967553
52	0x3be72ed1	0.0070551415
53	0x3d9d1219	0.076694675
54	0xbd517ab6	-0.051142417
55	0xbc576f1b	-0.013149048
56	0x3c641c29	0.0139227295
57	0x3d811b0c	0.06303987
58	0xbbde4a52	-0.006783762
59	0xbdb10a14	-0.086445004
60	0x3cc255e1	0.02372259
61	0x3ce0556a	0.027384479
62	0xbcd21b23	-0.025647705
63	0x3d2b9271	0.041887704
64	0xbb8177c9	-0.003951047
65	0xbcafa4f9	-0.02144097
66	0xbcdc462c	-0.02688893
67	0xbc89be3c	-0.016814344
68	0x3cc691fb	0.02423953
69	0xbda34f6f	-0.07974135
70	0x3d8aeed7	0.06783836
71	0x3cfa5e52	0.030562554
72	0xbd411fd5	-0.047149498
73	0x3becf261	0.0072310423
74	0xbc8cb8e1	-0.017178
75	0xbcaf1e21	-0.021376671
76	0xbbf5341a	-0.0074830176
77	0xbd8d1a8d	-0.0688983
78	0x3d25788b	0.04039816
79	0x3c2674a1	0.010159642
80	0xbd93eede	-0.07223295
81	0xbb5c1906	-0.003358425
82	0x3d129264	0.03578414
83	0xbd2b9172	-0.041886754
84	0xbd3be390	-0.045871317
85	0xbcd87514	-0.026423015
86	0x3cf38dbc	0.02973067
87	0x3ca48a21	0.020085396
88	0x3db1e1c0	0.086856365
89	0xbcf0b9f2	-0.02938554
90	0xbd603e61	-0.05474699
91	0x3d2b2ab7	0.041788783
92	0xbd1f9fcb	-0.03897075
93	0x3cdb1ec4	0.026748069
94	0x3cc80ebd	0.02442109
95	0x3bda50c4	0.00666246
96	0x3d89b806	0.06724553
97	0x3d9801bf	0.07422208
98	0xbce4ed8c	-0.027945302
99	0x3ccadffc	0.024765007
100	0xbc1a4c4a	-0.009417603
101	0xbc9ba9bb	-0.019001832
102	0xbd838d51	-0.06423438
103	0x3d33b13f	0.043870207
104	0x3d0ab9e5	0.03386869
105	0xbbe3f58a	-0.006956761
106	0x3c18159e	0.009282498
107	0xbcc694a4	-0.0242408
108	0xbc32e006	-0.010917669
109	0x3c6d0870	0.014467344
110	0xbd28bebf	-0.041197535
111	0xbb37eee6	-0.0028065979
112	0xbbc0160a	-0.0058620023
113	0x3c1de9a4	0.009638224
114	0xbd26764e	-0.040640168
115	0x3c3c2aa6	0.011484778
116	0xbd4c9c4c	-0.049953744
117	0x3c458c70	0.012057409
118	0xbd12b8df	-0.035820838
119	0x3d5d6d00	0.05405903
120	0x3d79e8c8	0.061013013
121	0x3cb7d20f	0.02243903
122	0xbc8a4a32	-0.016881082
123	0x3d6211e0	0.05519283
124	0xbc5bd484	-0.013417367
125	0x3cd52853	0.026020205
126	0x3d901b90	0.07036507
127	0x3d015b55	0.03158124

rnn1.bias_hh_l0 f4 [128]
0	0x3d9d3cea	0.07677634
1	0x3c98847b	0.01861786
2	0x3d8c9647	0.06864601
3	0xbcb705b8	-0.022341594
4	0xbd280855	-0.04102357
5	0x3d5ce815	0.05393227
6	0xbc3b893a	-0.011446292
7	0x3b28d765	0.002576315
8	0xbc91682b	-0.017749866
9	0x3b5f3289	0.003405722
10	0xbd19d0e5	-0.037552733
11	0xbda39b78	-0.07988638
12	0x3bc675ea	0.006056537
13	0x3d99db74	0.075125605
14	0xbc94dc63	-0.018171495
15	0x3cdc2335	0.026872257
16	0x3d71ad35	0.059003074
17	0xbd99d57d	-0.07511423
18	0xbce8d3b9	-0.02842127
19	0xbcb17286	-0.021661054
20	0xbd72314c	-0.059129044
21	0xbb4847b1	-0.003056031
22	0x3ca7ed4b	0.020498892
23	0x3b3cc7e0	0.0028805658
24	0x3d045e63	0.032316577
25	0xbd2b5341	-0.041827444
26	0x3da0c3e6	0.07849865
27	0x3ce9689c	0.028492264
28	0xbd442497	-0.047886457
29	0xbc7f8c37	-0.015597395
30	0x3d2b9b04	0.04189588
31	0xbcab8b66	-0.020940494
32	0xbadc2269	-0.0016794923
33	0xbd782a80	-0.060587406
34	0xbc99e779	-0.018787133
35	0x3d0940bf	0.033509012
36	0xbcfab8bf	-0.030605672
37	0x3ceb7bdd	0.028745586
38	0xbd6af2d2	-0.057360478
39	0xbcee40dc	-0.029083662
40	0x3d217c30	0.039425075
41	0xbdae6b74	-0.08516589
42	0x3d67c7d9	0.056587074
43	0x3cbbf4dd	0.022943908
44	0xbcd25a3d	-0.025677795
45	0x3cb9a311	0.022660764
46	0x3d531e9f	0.051542874
47	0xbd640fb3	-0.055679034
48	0x3cd7c822	0.026340548
49	0xbd9e57fd	-0.07731626
50	0x3d036389	0.032077346
51	0xbda3f01e	-0.08004783
52	0xbc17cf9a	-0.009265805
53	0xbd1eccef	-0.03876966
54	0x3c6a4d03	0.014300588
55	0x3d3430fd	0.04399203
56	0xbbe0bc01	-0.0068583493
57	0xbc8a2ec3	-0.016868
58	0xbcdf4249	-0.027253287
59	0x3d1928c4	0.037392393
60	0x3be4a2ce	0.0069774156
61	0xbb50cfec	-0.0031862212
62	0x3c9a21c5	0.01881493
63	0xbae5745d	-0.0017505992
64	0xbca5e538	-0.020250902
65	0x3d5d7b0f	0.054072436
66	0x3ce83c9a	0.02834921
67	0x3cc1b323	0.02364499
68	0x3bc63944	0.006049307
69	0x3d0dc504	0.034611717
70	0xbd3823a4	-0.044955865
71	0xbd7e08bf	-0.06202006
72	0x3b975519	0.0046182987
73	0xbd23d48d	-0.039997626
74	0xbc0ffb1f	-0.008787899
75	0xbb11f67a	-0.0022272156
76	0x3c0b50cf	0.008503153
77	0x3d10ed14	0.035382345
78	0xbd875c39	-0.06609387
79	0x3c3e2488	0.011605389
80	0x3d76543b	0.060138922
81	0x3d4e2c71	0.05033535
82	0xbc8d1fc0	-0.017227054
83	0x3d4400ae	0.04785221
84	0x3d41dfc1	0.04733253
85	0xbc0245d0	-0.007951215
86	0xbc3e4276	-0.011612525
87	0x3d02cc4a	0.031933106
88	0xbd98c5db	-0.07459613
89	0x3da87fb5	0.08227483
90	0x3d7ba6c0	0.061438322
91	0xbd22478f	-0.039619025
92	0x3d23ed8c	0.040021464
93	0xbcc2df24	-0.023788042
94	0x3c49594d	0.012289357
95	0x3c7319b5	0.014837672
96	0xbca679cf	-0.020321755
97	0xbd6fdccd	-0.05856018
98	0x3cf850cd	0.030311966
99	0xbd4fb6ee	-0.050711565
100	0xbae7c333	-0.0017682075
101	0x3d5c7a19	0.05382738
102	0x3cc4fc9d	0.024046237
103	0xbcafc2af	-0.021455137
104	0xbd06bc42	-0.03289438
105	0x3c664ff5	0.014057149
106	0x3cebf207	0.028801931
107	0x3d5e2938	0.054238528
108	0xbcd7fb0b	-0.026364824
109	0xbc868025	-0.016418526
110	0x3d6d94ca	0.058003224
111	0x3cbee945	0.023304591
112	0xbd1d7a7d	-0.038446892
113	0xbd0b8f2a	-0.03407208
114	0x3d99b40c	0.07505044
115	0xbb31493b	-0.0027051705
116	0x3d68280a	0.05667881
117	0x3c4d1d19	0.012519144
118	0x3d02282f	0.031776603
119	0xbd4c9cb0	-0.049954116
120	0xbdb000e2	-0.085939184
121	0xbc30624c	-0.010765623
122	0x3b79c433	0.0038111329
123	0xbd5417eb	-0.051780622
124	0xbbb32248	-0.005466733
125	0xbd5d4bc5	-0.054027338
126	0xbd9770c0	-0.07394552
127	0x3c6f5464	0.014607523

rnn1.weight_ih_l1 f4 [128, 128]
0	0xbc173e7f	-0.009231209
1	0xbe1fc96d	-0.15604182
2	0x3dd87d32	0.10570754
3	0xbdcd8058	-0.10034245
4	0x3c685a9e	0.014181761
5	0x3d516c7f	0.05112886
6	0xbbf610e8	-0.0075093396
7	0x3c8108de	0.015751299
8	0x3d229dd3	0.039701294
9	0x3e33aeb8	0.17547119
10	0x3d973d9d	0.07384799
11	0x3d7880a7	0.060669567
12	0xbd9874d9	-0.07444162
13	0x3d03c771	0.032172624
14	0x3d8e10c1	0.06936789
15	0x3bdcb82c	0.006735822
16	0xbc73422c	-0.01484732
17	0x3e07891c	0.13235897
18	0xbcef3862	-0.02920169
19	0xbd76d729	-0.060263786
20	0x3da395f8	0.07987589
21	0x3ae5f7eb	0.0017545199
22	0xbd7d7286	-0.061876796
23	0xbd5d2933	-0.05399437
24	0xbd181077	-0.037125077
25	0xbca00726	-0.019534659
26	0x3c84e73d	0.016223544
27	0x3d0dd5b2	0.034627624
28	0xbe223cad	-0.15843458
29	0x3d63f53a	0.05565379
30	0x3d21d3e7	0.039508726
31	0xbcf410a1	-0.029793086
32	0x3d7cda97	0.0617319
33	0x3c2c9b80	0.010535121
34	0x3de5cc2e	0.11220585
35	0xbda7ca95	-0.08192936
36	0xbe086fa5	-0.13323839
37	0xbc1a48b2	-0.009416746
38	0xbdc29040	-0.0950017
39	0xbd529903	-0.051415455
40	0x3d890159	0.0668971
41	0xbc0e5c34	-0.008688975
42	0x3d3c2cba	0.045941092
43	0xbda5dff5	-0.08099357
44	0x3d81c487	0.06336313
45	0x3d89abb4	0.06722203
46	0x389fe143	7.623669e-05
47	0xbc953bf6	-0.018217068
48	0xbd79022b	-0.060793083
49	0x3c334a05	0.010942941
50	0x3d9d731f	0.07687973
51	0xbc94a2ae	-0.018143978
52	0x3c9f62fb	0.019456377
53	0x3dd4c62b	0.1038936
54	0xbcd863b7	-0.026414735
55	0x3ca86482	0.020555738
56	0x3dc280ff	0.0949726
57	0x3d2a942a	0.041645207
58	0xbdc4b4dc	-0.09604809
59	0xbdee7240	-0.11642885
60	0x3da43207	0.080173545
61	0x3c9f2d1d	0.019430691
62	0x3d086264	0.033296958
63	0x3d82d92b	0.06389078
64	0xbccc24b8	-0.024919853
65	0xbbd83b4c	-0.0065988656
66	0x3d221544	0.03957106
67	0xbcf2671b	-0.02959018
68	0x3d2a4772	0.04157204
69	0xbdab8722	-0.08375384
70	0x3df6e0ee	0.12054621
71	0x3bc6cad5	0.00606666
72	0xbe1172ba	-0.14203921
73	0x3d6eaad0	0.05826837
74	0xbda33700	-0.07969475
75	0xbdf11385	-0.11771301
76	0x3cc44bce	0.023961928
77	0xbe098d92	-0.13432911
78	0xbce98624	-0.028506346
79	0x3bd2757c	0.0064226966
80	0xbd662007	-0.056182887
81	0x3ba8d4f2	0.005152338
82	0x3d1487be	0.036262266
83	0xbd810873	-0.0630044
84	0xbcde7eaa	-0.027160008
85	0xbd5173d9	-0.05113587
86	0x3dd8c708	0.10584837
87	0x3db001d7	0.08594101
88	0x3c1d1db9	0.009589606
89	0x3bb0108d	0.0053730668
90	0x3d561ffa	0.05227659
91	0xbd7d4492	-0.061832972
92	0x3c452610	0.012033001
93	0xbd9696d2	-0.073529854
94	0xbd13f23f	-0.036119696
95	0x3ddf6e02	0.10909654
96	0x3e2c989e	0.16855094
97	0x3e294b1d	0.1653256
98	0xbd436605	-0.047704715
99	0xbdc1d268	-0.0946396
100	0x3d85b7f1	0.06529225
101	0xbd010f4a	-0.03150872
102	0xbd01a2e0	-0.03164947
103	0x3dc130a8	0.094331086
104	0x3dc621a8	0.09674388
105	0x3db29ee9	0.08721716
106	0x3d8fb876	0.07017605
107	0x3d5fdef0	0.05465597
108	0xbd1963b4	-0.0374486
109	0xbc956540	-0.018236756
110	0x3d09fc36	0.033687793
111	0x3dccbf89	0.0999747
112	0xbd7aa6c1	-0.061194185
113	0xbd317460	-0.043323874
114	0x3dacc713	0.08436408
115	0xbc63c804	-0.013902668
116	0xbc83444e	-0.016023781
117	0x3d05ab89	0.03263429
118	0x3d38888e	0.045052104
119	0xbe12ad33	-0.14323883
120	0xbdc9902d	-0.098419525
121	0x3d390bdd	0.04517733
122	0xbbf0aee5	-0.007345068
123	0x3d9368b8	0.07197708
124	0xbcf28088	-0.029602304
125	0xbda19491	-0.07889665
126	0xbd51e571	-0.051244203
127	0xbccc5372	-0.024942134
128	0x3d5be414	0.05368431
129	0x3c9e5102	0.019325737
130	0x3d7d3781	0.06182051
131	0x3e05170f	0.12997077
132	0xbd44b16a	-0.048020758
133	0xbd862415	-0.06549851
134	0x3d1b0298	0.03784427
135	0x3d808247	0.062748484
136	0x3d727b7a	0.059199788
137	0x3cc3664f	0.023852495
138	0xbd2fb468	-0.04289666
139	0x3cdcb25f	0.026940523
140	0x3d3c13db	0.045917373
141	0x3d48d806	0.04903414
142	0x3b240d6b	0.0025032412
143	0x3dee05c8	0.116221964
144	0x3b8966f3	0.0041931807
145	0x3daaad75	0.083338656
146	0xbd12bafa	-0.035822846
147	0x3b83f0ff	0.0040265317
148	0xbd0e8e24	-0.034803525
149	0xbca3a14a	-0.01997437
150	0x3d98c08b	0.074586
151	0x3db5d25f	0.08878016
152	0x3de2dfa0	0.11077809
153	0x3ceb432e	0.028718557
154	0x3c677c11	0.014128701
155	0xbdd9696e	-0.10615812
156	0x3b976ff6	0.004621501
157	0xbc841afd	-0.01612615
158	0xbd5f3213	-0.054491114
159	0x3cb077cd	0.0215415
160	0xbd595c5f	-0.053066608
161	0xbd1cd938	-0.038293093
162	0xbaa4d060	-0.0012574308
163	0xbd3ddaca	-0.04635123
164	0xbd538bb9	-0.05164692
165	0xbd0a5e9c	-0.033781633
166	0xbbee2f64	-0.007268833
167	0x3dd5d92f	0.10441815
168	0xbd63ef88	-0.055648357
169	0xbd8c19b4	-0.0684084
170	0xbcf853e8	-0.030313447
171	0xba91668b	-0.0011093182
172	0x3d570980	0.052499294
173	0x3b86c337	0.004112627
174	0xbcfe36b6	-0.031031948
175	0x3dc4e49d	0.09613917
176	0x3abe19b5	0.0014503511
177	0xbd921e0b	-0.071346365
178	0xbdd32ad5	-0.10310904
179	0xbc85208a	-0.016250867
180	0x3d8f459b	0.06995698
181	0x3cd4f8c9	0.025997536
182	0x3d4fab46	0.05070045
183	0xbd083459	-0.033253048
184	0xbd51f420	-0.051258206
185	0xbdcadaad	-0.0990499
186	0x3cd4260e	0.025897052
187	0xbc72f3b7	-0.014828614
188	0x3d24bab8	0.04021713
189	0x3bbeb16e	0.005819491
190	0x3bb0b78a	0.0053929733
191	0xbbc1532c	-0.0058998074
192	0xbd92d81b	-0.07170125
193	0x3d5a26ea	0.053259768
194	0x3d14b940	0.03630948
195	0xbc884fda	-0.016639639
196	0x3cb6af30	0.022300333
197	0x3de09cf6	0.10967438
198	0xbd8424ea	-0.06452353
199	0x3ddacec8	0.10683972
200	0xbc58d47a	-0.013234252
201	0x3cb451e5	0.022011707
202	0x3d53ffc9	0.051757608
203	0xbcea1f01	-0.028579237
204	0x3da08c53	0.07839265
205	0x3c9a89b3	0.018864488
206	0xbcc478b8	-0.023983344
207	0xbdb0c906	-0.08632092
208	0x3c6072d9	0.013699257
209	0xbd6680a5	-0.05627503
210	0x3ba059f9	0.004893538
211	0xbd94df27	-0.072691254
212	0x3bffe621	0.007809416
213	0x3daecd53	0.08535256
214	0x3ca448e9	0.020054298
215	0x3c18a7c3	0.009317341
216	0x3cb1dedf	0.021712719
217	0x3d778858	0.060432762
218	0x3d54b2fd	0.05192851
219	0x3db23128	0.08700782
220	0xbda0c22a	-0.07849534
221	0xbde62e00	-0.112392426
222	0xbbaf36d7	-0.0053471136
223	0x3de2c9ae	0.110736236
224	0xbe0d6d9f	-0.13811348
225	0x3c1d8f2f	0.009616657
226	0x3cd51a44	0.026013501
227	0xbd8ad07e	-0.06778048
228	0xbbc24adb	-0.0059293336
229	0xbcd3a1d9	-0.02583401
230	0xbda472dd	-0.08029721
231	0x3e1189c6	0.14212713
232	0x3d50049d	0.05078565
233	0xbd146e37	-0.03623792
234	0xbda774ce	-0.081765756
235	0x3d91d141	0.0711999
236	0x3d26b09e	0.04069578
237	0x3da32a89	0.07967097
238	0x3da702e2	0.08154847
239	0xbd7e7356	-0.06212171
240	0xba32805e	-0.00068092893
241	0xbce5328e	-0.027978208
242	0xbd00c999	-0.03144226
243	0xbd32b066	-0.043625258
244	0x3d840687	0.064465575
245	0x3d94e642	0.07270481
246	0xbcdf7812	-0.027278934
247	0xbbea047c	-0.007141648
248	0xbd1a1d63	-0.03762568
249	0x3c25e2df	0.010124891
250	0x3d3ef9ac	0.046624824
251	0xbde9719b	-0.11398622
252	0xbd379886	-0.044823192
253	0x3c8ed544	0.017435677
254	0xbd8656b2	-0.065595046
255	0xbdb71a37	-0.08940547

rnn1.weight_hh_l1 f4 [128, 128]
0	0x3db2b4e4	0.087259084
1	0x3dde05aa	0.10840924
2	0x3d8f3dd8	0.06994218
3	0x3d8c1ccc	0.0684143
4	0x3d3c8980	0.046029568
5	0x3c7f090a	0.01556612
6	0x3db0b54a	0.08628328
7	0x3db83350	0.08994162
8	0xbc89be2c	-0.016814314
9	0xbe2bfac2	-0.16794875
10	0xbda52024	-0.08062771
11	0x3cb6dba5	0.022321532
12	0xbc84b539	-0.016199695
13	0x393d3e24	0.00018047594
14	0xbd5887e6	-0.052863978
15	0xbc819a4f	-0.01582065
16	0xbb32c4d6	-0.0027277968
17	0x3dcba86e	0.09944235
18	0x3e1dc24a	0.15406147
19	0xbcd56126	-0.0260473
20	0x3de648c8	0.11244351
21	0x3b5ec201	0.0033990147
22	0x3e1ed62b	0.15511386
23	0x3c46486b	0.012102227
24	0xbdcb4b5e	-0.099264845
25	0x3d5c7866	0.05382576
26	0xbcd3eb4d	-0.025869036
27	0x3cb65e3c	0.022261731
28	0xbd966ddf	-0.07345175
29	0xbdcc17cc	-0.099654764
30	0x3e147245	0.14496715
31	0x3cccca56	0.024998825
32	0xbbda5aa8	-0.006663639
33	0xbd87a705	-0.06623653
34	0x3dd75044	0.10513356
35	0xbcda9adc	-0.02668517
36	0xbe2435a2	-0.16036084
37	0x3ca56edf	0.020194469
38	0x3d546af4	0.05185981
39	0x3d179664	0.037008658
40	0x3cefac34	0.029256918
41	0xbe22c179	-0.15894116
42	0x3dbee509	0.09321029
43	0x3c748a98	0.014925621
44	0xbd1fd292	-0.039019175
45	0x3dcd78a3	0.10032775
46	0xbda5af92	-0.08090128
47	0x3d38282b	0.044960182
48	0xbd40f9e0	-0.0471133
49	0xbded55bb	-0.115886174
50	0xbe3e5dec	-0.18590516
51	0xbc5e081c	-0.013551738
52	0xbdbe4fe9	-0.092925854
53	0x3e07364d	0.13204308
54	0xbbbbb6ab	-0.005728563
55	0x3db11b89	0.0864783
56	0x3d8b48a8	0.068009675
57	0xbd44c445	-0.04803874
58	0xbd3c0069	-0.04589883
59	0x3d9cdb47	0.07659011
60	0x3d0ef2e6	0.034899615
61	0x3bc88c09	0.006120209
62	0xbcdbb59d	-0.026819998
63	0xbd69a5d2	-0.057042904
64	0xbe460fc9	-0.19341959
65	0x3b0e2af1	0.0021693076
66	0x3caeea76	0.021352034
67	0xbd56d135	-0.05244561
68	0x3c828ed2	0.015937243
69	0xbd877f64	-0.06616095
70	0xbd709998	-0.05874023
71	0xbe07c85e	-0.13260028
72	0x3d3a4924	0.04547991
73	0xbda3711f	-0.079805605
74	0x3cfe3ba3	0.031034296
75	0x3db6690e	0.08906756
76	0xbd2ea2a3	-0.04263557
77	0x3c4c86a5	0.012483274
78	0x3c930e6f	0.017951218
79	0xbdd60472	-0.104500666
80	0x3d522f17	0.05131444
81	0x3d540d15	0.05177029
82	0x3d89f395	0.06735913
83	0x3caa1661	0.020762624
84	0x3d9fc4fd	0.078012444
85	0x3c2429af	0.010019704
86	0xbbff0a75	-0.007783229
87	0xbba3341f	-0.0049805786
88	0x3dcb9a05	0.09941486
89	0x3d3818cf	0.044945534
90	0xbd9794a3	-0.07401397
91	0xbcbaf58a	-0.02282216
92	0x3b548a62	0.0032431115
93	0x3d3f9ade	0.046778552
94	0x3e084bac	0.13310117
95	0xbd047d7d	-0.032346237
96	0x3d845d8e	0.06463157
97	0xbd32a14a	-0.04361085
98	0x3d8dddd0	0.06927073
99	0x3ca7cb85	0.020482788
100	0x3d8650e4	0.065583974
101	0x3ddb4f49	0.10708482
102	0x3d74f36b	0.059802454
103	0xbdc68b39	-0.09694523
104	0x3d33beb7	0.04388305
105	0x3c96af41	0.018394114
106	0x3d445607	0.047933605
107	0x3ca27cb8	0.019834861
108	0xbddd0c41	-0.10793353
109	0xbba7d890	-0.005122252
110	0xbdeff89b	-0.117173396
111	0x3d8d2eef	0.068937175
112	0x3d4a4d9e	0.049390428
113	0x3d8127d7	0.06306427
114	0xbcb95aee	-0.022626366
115	0xbdaba5c4	-0.08381227
116	0x3c9b06fa	0.018924225
117	0x3e0bca9f	0.13651513
118	0xbe10f8f4	-0.14157468
119	0x3db50969	0.088396855
120	0x3d4ae1fa	0.049531914
121	0xbbb4082d	-0.0054941387
122	0x3ce87c21	0.028379502
123	0xbdf0e975	-0.117632784
124	0xbcbdf428	-0.023187712
125	0xbcfb7634	-0.030696012
126	0x3cfa93c6	0.030588042
127	0xbe3a5c1d	-0.18199201
128	0xbcfb872e	-0.030704107
129	0xbe2858cb	-0.16440122
130	0x3d80533f	0.06265878
131	0xbcb9f9e0	-0.022702157
132	0xbdc440d8	-0.095826805
133	0x3d5f3318	0.054492086
134	0xbcbef663	-0.023310846
135	0xbd4ee754	-0.05051358
136	0xbc3ce03b	-0.01152807
137	0x3d1f63d2	0.038913555
138	0xbcc4dd0b	-0.024031183
139	0xbd831a13	-0.06401458
140	0x3cb86881	0.022510769
141	0xbdf12646	-0.11774878
142	0xbd625563	-0.055257212
143	0xbdc7439d	-0.09729693
144	0x3d78271d	0.060584176
145	0x3de41b43	0.11138012
146	0x3da61481	0.081093796
147	0xbccab29d	-0.024743373
148	0xbd3731bc	-0.044725165
149	0xbde41e69	-0.11138613
150	0xbdbd60e5	-0.09246997
151	0xbe2f76c7	-0.17135154
152	0xbdf743cf	-0.1207348
153	0xbcee5376	-0.029092532
154	0x3dd7fbda	0.10546084
155	0x3cfe1d89	0.031019943
156	0xbb70fcf4	-0.0036771866
157	0xbcd84764	-0.02640123
158	0x3df6d10c	0.12051591
159	0xbd67793e	-0.05651211
160	0xbc7683b0	-0.015046045
161	0x3d5a9eea	0.05337421
162	0xbc18b7a4	-0.009321127
163	0xbd231877	-0.039818253
164	0x3d1f27c5	0.038856287
165	0xbce11400	-0.027475357
166	0x3dfe29a3	0.12410285
167	0x3bc222a9	0.005924542
168	0xbd59bb57	-0.053157177
169	0x3b87c534	0.0041433815
170	0xbc272c47	-0.010203428
171	0x3cad7656	0.021174591
172	0xb9874de5	-0.00025807242
173	0xbd368b0a	-0.04456619
174	0xbb734948	-0.0037122536
175	0xbe0c71dc	-0.13715309
176	0xbb9b587e	-0.0047407737
177	0x3d896616	0.067089245
178	0x3dbd58ef	0.09245478
179	0xbd5e92f8	-0.05433938
180	0xbc8a8acc	-0.016911887
181	0x3d5b6bbc	0.05356954
182	0xbd6bc07c	-0.057556614
183	0x3e2f44d8	0.17116106
184	0xbd2fb169	-0.0428938
185	0x3b1a56aa	0.002355019
186	0xbdf4d36f	-0.1195439
187	0x3d5814a7	0.05275407
188	0xbd843e8c	-0.06457242
189	0x3e45d3b0	0.19319034
190	0xbded274f	-0.11579763
191	0x3c95ec90	0.018301278
192	0xbb75f3fe	-0.0037529464
193	0xbe01bb66	-0.12669143
194	0x3d803b63	0.06261327
195	0xbd056af2	-0.032572694
196	0xbd99e455	-0.07514254
197	0xbdecbf71	-0.11559952
198	0x3dc72170	0.097231746
199	0x3d048ce2	0.03236092
200	0x3c93334f	0.017968802
201	0xbce719bf	-0.028210519
202	0xbd7d0216	-0.061769567
203	0xbbbe905c	-0.005815549
204	0xbe01c44b	-0.12672536
205	0x3dd96368	0.10614663
206	0x3e21e283	0.15809064
207	0xbce1815c	-0.027527504
208	0x3c1dc2dd	0.009628979
209	0xbb7be07b	-0.0038433361
210	0xbd3060d2	-0.043061085
211	0xbcf873df	-0.03032869
212	0x3ded0b73	0.115744494
213	0x3d6ecbff	0.058300015
214	0x3d8ece53	0.06972947
215	0xbd561dc4	-0.05227448
216	0xbd319756	-0.043357216
217	0xba804746	-0.0009786866
218	0xbd25e51b	-0.040501695
219	0x3dd941aa	0.106082276
220	0x3e2a1ddb	0.16612951
221	0xbcf2a50b	-0.029619714
222	0x3d315ca8	0.043301255
223	0xbd32afe2	-0.043624766
224	0x3d41945c	0.047260627
225	0xbd0f712e	-0.035020046
226	0xbb88099e	-0.004151537
227	0x3ca594ad	0.020212496
228	0x3dc1b426	0.09458189
229	0xbda36932	-0.07979049
230	0xbc89291d	-0.016743237
231	0x3c08b8f2	0.008344876
232	0x3d08a9d7	0.033365097
233	0xbdb0c00e	-0.086303815
234	0xbd2cede9	-0.042219076
235	0x3dcb72a0	0.09933972
236	0x3c4830d7	0.012218676
237	0xbdbe65d2	-0.092967644
238	0x3c87a14a	0.0165564
239	0x3c742955	0.014902432
240	0x3cbb223e	0.022843476
241	0x3e020b96	0.12699732
242	0x3d491549	0.049092565
243	0xbd821d23	-0.06353214
244	0x3daac61f	0.0833857
245	0xbc11ca67	-0.008898354
246	0xbdb77e19	-0.08959598
247	0x3e05001a	0.1298832
248	0xbc9bc5d1	-0.019015225
249	0x3d47ec85	0.048809547
250	0x3d525c97	0.05135783
251	0xbdeb379a	-0.114852145
252	0x3e45b8bf	0.19308756
253	0xbd6ef3a5	-0.058337826
254	0xbd963bc3	-0.073356174
255	0xbdd102cd	-0.10205612

rnn1.bias_ih_l1 f4 [128]
0	0xbdb9a7ab	-0.09065183
1	0x3d58d3f1	0.052936498
2	0xbd09442d	-0.033512283
3	0xbc994e9b	-0.01871424
4	0xbd96a0f8	-0.07354921
5	0x3d33af1a	0.04386816
6	0x3c0da170	0.008644447
7	0x3da6ce6f	0.08144843
8	0xbc63e1e0	-0.013908833
9	0x3dedc61b	0.11610051
10	0xbd95a89f	-0.073075525
11	0x3cb5d591	0.022196563
12	0x3da8a455	0.08234469
13	0x3aeb76a6	0.0017964437
14	0x3d2eebfa	0.042705514
15	0x3ce1b572	0.02755234
16	0x3d2166a4	0.039404526
17	0xbae525cc	-0.0017482578
18	0xbb14dc67	-0.0022714378
19	0x3cb3ce14	0.021948852
20	0xbd87486d	-0.06605611
21	0x3d955670	0.07291877
22	0xbb0efda1	-0.0021818655
23	0x3d35166c	0.044210836
24	0x3d8a0ef6	0.06741135
25	0xbc6a48db	-0.014299597
26	0xbd1e45ee	-0.03864091
27	0xbdbd7714	-0.09251228
28	0xbc55683f	-0.0130253425
29	0xbbcb0dc9	-0.0061967117
30	0xbd5bb60a	-0.053640403
31	0x3bbd2cc0	0.005773157
32	0x3c4eece5	0.012629722
33	0x3ceb370e	0.028712776
34	0xbd8da434	-0.06916085
35	0x3ce893f3	0.02839086
36	0x3d12220e	0.03567701
37	0xbced6150	-0.028977066
38	0xbdad2558	-0.084543884
39	0xbdb2122c	-0.08694872
40	0xbe20d824	-0.15707451
41	0x3d655706	0.055991195
42	0xbd335c5a	-0.043789245
43	0xbc9637e8	-0.018337205
44	0x3d5a7599	0.053334806
45	0x3cae9594	0.021311559
46	0xbc9978ed	-0.01873442
47	0x3d0acf6b	0.033889215
48	0xbca73e47	-0.020415438
49	0xbd61b721	-0.055106286
50	0x3da5d048	0.08096367
51	0x3d40cd60	0.04707086
52	0x3ca1e88e	0.019764211
53	0x3d132a7c	0.035929188
54	0xbc221289	-0.009892114
55	0xbbb7ed8b	-0.005613034
56	0xbcf57085	-0.02996088
57	0x3d021a1a	0.031763174
58	0x3cde9858	0.027172253
59	0x3d549b56	0.051905952
60	0xbbccd204	-0.0062506218
61	0xbc9599d1	-0.018261822
62	0xbd319634	-0.043356135
63	0x3c827ecf	0.015929608
64	0x3d66868b	0.056280654
65	0xbbe39db7	-0.0069462913
66	0xbac27096	-0.0014834579
67	0x3b12a0f9	0.002237378
68	0x3d3f605b	0.04672275
69	0x3d211461	0.039326075
70	0x3d419320	0.04725945
71	0xbc4f906d	-0.012668711
72	0xbc695073	-0.014240372
73	0xbd27cefe	-0.040968888
74	0x3d06d32d	0.032916237
75	0xbd4fb0f6	-0.050705872
76	0xbd4dbb09	-0.0502272
77	0xbba5ba44	-0.005057605
78	0x3c6545e7	0.013993717
79	0x3d775fc4	0.060394064
80	0xbdbf93ad	-0.09354339
81	0x3b3fbce4	0.0029256875
82	0xbce47b97	-0.027890963
83	0xbca080da	-0.019592691
84	0xbd100a03	-0.035165798
85	0xbdca9f8d	-0.09893713
86	0x3bfa5867	0.007639933
87	0x3b8d012a	0.0043031173
88	0x3d3eb0b1	0.046555225
89	0x3b3cafb1	0.0028791244
90	0x3c0e14cd	0.0086719515
91	0xbd468b06	-0.048472427
92	0xbd548e40	-0.051893473
93	0xbdb6e870	-0.08931053
94	0xbdc65ed3	-0.09686055
95	0x3c8dd9b7	0.017315729
96	0x3cd796c7	0.026317013
97	0xbc3c8221	-0.0115056345
98	0x3cadaff2	0.021202061
99	0xbdca0cb5	-0.09865705
100	0xbd1e3f28	-0.03863445
101	0xbd7c91d6	-0.061662517
102	0x3cfc9680	0.030833483
103	0xbd9e0266	-0.07715301
104	0xbd4ce8c5	-0.050026674
105	0x3ce8531b	0.02835994
106	0xbd53d848	-0.051719934
107	0x3d450883	0.04810382
108	0x3c266dd5	0.010158022
109	0x3b1daed6	0.002406051
110	0xbd27066a	-0.0407776
111	0x3c441712	0.011968391
112	0xba9a4040	-0.0011768416
113	0xbe00de57	-0.12584816
114	0xbdae10d5	-0.08499304
115	0xbc8f680f	-0.017505674
116	0xbd515f8e	-0.05111652
117	0xbd538ad9	-0.051646087
118	0xbd318953	-0.043343853
119	0x3d24a30c	0.040194556
120	0x3d57f454	0.052723244
121	0x3aeadba6	0.0017918244
122	0xbd8d96e4	-0.06913546
123	0x3dad9d29	0.084772415
124	0xbc08995b	-0.008337344
125	0x3c27221f	0.010201006
126	0x3c9aa924	0.01887948
127	0x3cb68636	0.022280794

rnn1.bias_hh_l1 f4 [128]
0	0xbddfcc7e	-0.10927676
1	0xbdea3ff8	-0.11437982
2	0xbd183530	-0.0371601
3	0x3d8304a4	0.063973695
4	0x3ab9d316	0.0014177288
5	0x3dcca365	0.099921025
6	0x3d16581c	0.03670512
7	0xbd8fb5fd	-0.070171334
8	0x3d5a74de	0.05333411
9	0xbcb2d5fa	-0.021830548
10	0x3cbf0ad6	0.023320597
11	0x3c18105f	0.009281247
12	0xbd86e9f2	-0.0658759
13	0xbcdb0b43	-0.026738768
14	0x3dbe57cf	0.09294092
15	0x3cd2c03a	0.025726426
16	0x3d5d4f67	0.054030802
17	0xbe10e1a0	-0.14148569
18	0x3c13c5c0	0.009019315
19	0x3d80465e	0.062634215
20	0x3db7b4b7	0.089700155
21	0xbd4cba9c	-0.049982652
22	0xbda619e8	-0.0811041
23	0x3d699df1	0.05703539
24	0x3d954ddd	0.07290242
25	0xb9ccd5e0	-0.0003906926
26	0x3ad15e4f	0.0015973541
27	0x3d59e18c	0.053193614
28	0xbdcc3fc2	-0.09973098
29	0xbdd54c8f	-0.10414993
30	0xbbeba795	-0.007191608
31	0x3c527451	0.012845115
32	0x3dcd246f	0.10016715
33	0x3caaf01d	0.020866448
34	0xbd9e017d	-0.077151276
35	0xbd61d7b4	-0.05513735
36	0xbd381460	-0.044941306
37	0xbcfa48a6	-0.03055222
38	0xbbc58148	-0.0060273744
39	0x3d522140	0.05130124
40	0xbc91bbd8	-0.017789766
41	0x3bcec073	0.006309563
42	0xbd6770f3	-0.0565042
43	0x3d03ae82	0.032148845
44	0xbd9fc7d6	-0.078017876
45	0x3d4bafb5	0.049728114
46	0xbcd88a80	-0.02643323
47	0x3b3d30f0	0.002886828
48	0xbd4f216c	-0.050568983
49	0x3d02a6fd	0.031897534
50	0xbd2e1868	-0.042503744
51	0xbd22bdb2	-0.03973169
52	0x3cbe1c29	0.023206787
53	0x3ad9a328	0.001660441
54	0xbcb02024	-0.0214997
55	0xbda824c5	-0.08210138
56	0x3c3d0147	0.011535949
57	0xbd74f695	-0.05980547
58	0x3c3daeb6	0.011577299
59	0x3d6009f9	0.05469701
60	0x3d7ee55d	0.062230457
61	0xbc8d8f0f	-0.01728013
62	0xbc74cbdd	-0.014941183
63	0x3c378b70	0.011202678
64	0xbd2385c7	-0.039922502
65	0xbdf1439b	-0.11780473
66	0x3d55a738	0.052161425
67	0x3d18c520	0.037297368
68	0x3e171fd4	0.14758235
69	0x3da896d1	0.08231891
70	0xbd5f831a	-0.054568388
71	0xbd1204d7	-0.035649147
72	0x3d3a7e00	0.04553032
73	0x3c6cda69	0.01445637
74	0xbd8fe7b9	-0.070266195
75	0x3cb72320	0.022355616
76	0xbc31e989	-0.010858902
77	0x3c0b9649	0.0085197175
78	0xbc555363	-0.013020369
79	0xbd59e175	-0.05319353
80	0xbd951c4b	-0.07280787
81	0x3dea7540	0.11448145
82	0xbc3f96fd	-0.011693713
83	0x3da5a943	0.08088925
84	0x3cace02f	0.021102993
85	0x3c3e2ef6	0.011607876
86	0x3d2bc1c1	0.041932825
87	0x3cd9acb9	0.026571618
88	0xbd03fc97	-0.03222331
89	0x3d2c0256	0.041994415
90	0xbcc1648a	-0.023607511
91	0x3dafc193	0.08581843
92	0xbc01908c	-0.007907998
93	0x3d1fd8eb	0.03902523
94	0xbbd4c078	-0.0064926706
95	0x3c4c09a5	0.012453471
96	0x3e0af3d7	0.1356958
97	0xbd695079	-0.05696151
98	0x3dd2876b	0.10279735
99	0xbd38e8b5	-0.0451438
100	0xbd5a4342	-0.0532868
101	0x3b05b4c7	0.002040194
102	0xbcedcf66	-0.02902956
103	0xbd6e8a0f	-0.05823713
104	0xbce5e850	-0.028064877
105	0x3d845684	0.06461814
106	0x3d8ce188	0.06878954
107	0xbdc154b6	-0.094399855
108	0x3b816e16	0.003949891
109	0xbd2f07b0	-0.04273194
110	0xbd0b460f	-0.03400236
111	0x3da35bf0	0.0797652
112	0xbc12b449	-0.008954116
113	0x3cc5fd82	0.024168734
114	0x3c1129d0	0.0088600665
115	0xbc0c71b8	-0.008572035
116	0x3d86f2b9	0.065892644
117	0xbcc64dd4	-0.024207033
118	0x3d5d7f88	0.0540767
119	0x3d24fe4f	0.04028159
120	0xbd156973	-0.036477517
121	0xbcaf92ed	-0.021432364
122	0x3cf581a8	0.029969051
123	0xbd0fd799	-0.03511772
124	0xbd7ec821	-0.062202577
125	0xbcce6b29	-0.025197582
126	0x3d35806c	0.044311926
127	0x3d826591	0.063670285

fc.weight f4 [1, 128]
0	0xbd1f978d	-0.03896289
1	0x3c9927de	0.018695768
2	0xbc6a4952	-0.0142997075
3	0x3d0ce26f	0.03439563
4	0x3b41a5dc	0.0029548323
5	0xb9e6d688	-0.00044028857
6	0xbcaae55d	-0.020861322
7	0xbbbc03af	-0.005737744
8	0x3d036f94	0.03208883
9	0x3c9cf1f2	0.019158337
10	0xbc99361c	-0.01870256
11	0x3d1ea2cc	0.038729474
12	0xbd11bac4	-0.035578504
13	0x3d078a85	0.033091087
14	0x3d211348	0.03932503
15	0xbd49565e	-0.04915463
16	0x3cb85364	0.022500701
17	0xbd037729	-0.03209606
18	0xbb83bd23	-0.0040203496
19	0x3c5ddb44	0.0135410465
20	0xbc995495	-0.01871709
21	0x3c6340d1	0.013870434
22	0xbd27f694	-0.04100664
23	0x3d4eb214	0.050462797
24	0x3cedacda	0.029013086
25	0xb8317718	-4.2311003e-05
26	0xbcefa91b	-0.02925544
27	0xbab0c04c	-0.0013485043
28	0x3b45c48c	0.0030176966
29	0xba6355df	-0.00086721586
30	0xbd0823e6	-0.03323736
31	0x3d9089fb	0.07057568
32	0x3d06df9f	0.032928105
33	0xb97871e2	-0.00023693548
34	0xbc40d676	-0.0117698815
35	0x39cb39a8	0.00038762134
36	0x3bf2524b	0.007395064
37	0xbd28f105	-0.04124548
38	0xbd5c923a	-0.05385039
39	0xbaa3a278	-0.0012484333
40	0xbd02e643	-0.031957876
41	0x3d466aba	0.048441626
42	0x3d4564a7	0.048191693
43	0xba6bf6cd	-0.0009001315
44	0xbd2f10de	-0.042740695
45	0x3d833295	0.06406132
46	0x3dd3f3a5	0.10349206
47	0x3cb7c443	0.022432452
48	0xbd0c76cf	-0.034292992
49	0xbcf8e369	-0.030381875
50	0x3ce9a049	0.028518813
51	0x39e29d01	0.00043223056
52	0xbd230540	-0.03979993
53	0xbde9665e	-0.11396478
54	0x39cebf39	0.00039433854
55	0xbcd529b5	-0.026020864
56	0xb994d904	-0.0002839045
57	0x3c2e2069	0.010627844
58	0xb7472e06	-1.187204e-05
59	0xbac2944d	-0.0014845222
60	0x3d21186f	0.039329942
61	0xbc381c27	-0.011237181
62	0x3cd74ed5	0.026282707
63	0xbcc591ea	-0.024117429
64	0x3cb09855	0.021557013
65	0xbcf9681d	-0.030445153
66	0x3bfcb457	0.007711928
67	0x3c65e057	0.014030538
68	0x3cfbc86b	0.030735215
69	0x3cd1e4fc	0.025621884
70	0xbbe47225	-0.006971615
71	0xbd1340d7	-0.035950508
72	0x3d0fda29	0.035120163
73	0x3ab576ee	0.0013844648
74	0xbc4110fe	-0.011783836
75	0xbd83dc45	-0.064384975
76	0x3bda3d10	0.0066601112
77	0xbca88fdf	-0.020576416
78	0xbd10df94	-0.03536947
79	0x39ff094d	0.0004864432
80	0xbd409e03	-0.04702569
81	0xbb901a07	-0.004397634
82	0xbcf1b80c	-0.029506706
83	0x3cb25898	0.02177076
84	0xbcc6d810	-0.024272949
85	0xbdb60edb	-0.08889552
86	0xb906ecad	-0.00012867404
87	0x3b5f6bdb	0.0034091386
88	0xbd207ddf	-0.03918254
89	0xbbb8f797	-0.0056447494
90	0x3c911f31	0.017715069
91	0x3cdfbeb6	0.027312618
92	0xbce2d65d	-0.027690107
93	0xbc56fd5f	-0.013121932
94	0xbcd89c91	-0.026441844
95	0x3cddb997	0.027066035
96	0x3d015756	0.03157743
97	0x3c325b26	0.010885989
98	0x3cfb1618	0.030650184
99	0xbceab7be	-0.028652068
100	0xbd891926	-0.0669425
101	0xbc61b7e4	-0.013776753
102	0xbcbf2b55	-0.023336092
103	0xbcb1c984	-0.021702535
104	0xbca91607	-0.020640386
105	0x3dc30de0	0.09524131
106	0x39acb41e	0.00032940594
107	0xbc561ac5	-0.013067906
108	0xbccb8506	-0.024843704
109	0xbcfcb9e8	-0.030850366
110	0x3d0c0630	0.03418559
111	0x3b8b3c50	0.004249133
112	0xba475fe1	-0.00076055346
113	0xbcd0b6ec	-0.025477849
114	0xbc47b684	-0.012189511
115	0x3d2fd862	0.042930968
116	0xbb344a6b	-0.0027510177
117	0x3cc3e5a2	0.023913208
118	0x3b90b986	0.0044166474
119	0xbce1a1f2	-0.027543042
120	0x3cf6db5e	0.0301339
121	0xbce91f22	-0.028457228
122	0xbcd21862	-0.025646392
123	0x3d4c8fd0	0.049941838
124	0xbc09fcd9	-0.0084221
125	0xbcbc9890	-0.023021966
126	0x3d221448	0.039570123
127	0x3cca2731	0.024676891
