model_trained.pt (torch, 202110 bytes, 9 tensors)

rnn.weight_ih_l0 f4 [128, 1]
0	0x3cc4788e	0.023983266
1	0x3d926045	0.07147268
2	0x3cf3865d	0.029727155
3	0x3da5d91c	0.08098051
4	0x3dac6790	0.084181905
5	0x3d64322a	0.055711903
6	0x3d949a8b	0.07256039
7	0x3c4d70fe	0.0125391465
8	0xbd9ddc8a	-0.0770808
9	0xbd9e14f3	-0.077188395
10	0x3d8d29a7	0.0689271
11	0xbd8b2a94	-0.067952305
12	0x3d5f2ac0	0.05448413
13	0xbcdcca68	-0.026951984
14	0xbbe8657b	-0.0070921755
15	0xbd22a335	-0.039706428
16	0xbd811f6d	-0.06304822
17	0x3d82ab33	0.0638031
18	0x3c607ad7	0.013701162
19	0x3d47a52b	0.0487415
20	0x3d92ee32	0.071743384
21	0xbc2a431b	-0.010391976
22	0xbcf77af8	-0.030210003
23	0x3d96453a	0.07337423
24	0xbc20f5e0	-0.009824246
25	0x3bda62c9	0.006664608
26	0xbd99c69f	-0.07508587
27	0xbd8cd19c	-0.06875917
28	0x3cc8cf8d	0.02451303
29	0xbdb4bea0	-0.08825421
30	0xbd1dc665	-0.038519282
31	0xbd79bd19	-0.060971353
32	0xbb1eac18	-0.0024211463
33	0x3cd7c9b4	0.026341297
34	0x3dc93caf	0.098260276
35	0x3d54009e	0.0517584
36	0x3c086206	0.008324152
37	0x3d183a85	0.037165184
38	0xbd512aeb	-0.05106632
39	0xbd8eb651	-0.06968368
40	0xbdb05c23	-0.08611324
41	0x3da4812c	0.0803245
42	0xbc8f171c	-0.017467074
43	0x3d9a1497	0.075234585
44	0x3da6396b	0.0811642
45	0x3d849369	0.06473429
46	0xbd6f5dc8	-0.058439046
47	0xbdc63f21	-0.0968001
48	0x3cb9de4d	0.02268901
49	0xbdada47b	-0.08478638
50	0xbdbb4586	-0.0914412
51	0xbd12fba6	-0.035884522
52	0xbcd48f6a	-0.025947291
53	0x3d71cf1a	0.059035398
54	0xbd4b8e6a	-0.049696364
55	0x3d1be2a4	0.03805794
56	0xbda38da0	-0.07985997
57	0xbd6ee470	-0.058323324
58	0x3d1e37f6	0.038627587
59	0x3db9c4a5	0.0907071
60	0xbcbd931e	-0.02314144
61	0x3b1d187d	0.0023970895
62	0x3cda1ce8	0.026625112
63	0x3c6d9b48	0.014502354
64	0xbd0431dd	-0.032274116
65	0x3ceefebf	0.029174207
66	0xbc1c8189	-0.009552368
67	0x3cb62e4d	0.022238875
68	0x3d9bf2ef	0.07614695
69	0x3dca1780	0.098677635
70	0x3d3546a1	0.04425681
71	0x3cf1952a	0.029490072
72	0xbc83db92	-0.01609591
73	0x3d131aca	0.03591422
74	0x3cf071f7	0.029351218
75	0xbd59297a	-0.05301807
76	0xbd80c462	-0.06287457
77	0x3c864509	0.01639034
78	0xbdbc5931	-0.091966994
79	0x3da69278	0.081334054
80	0x3d96a792	0.0735618
81	0xbd104738	-0.03522417
82	0x3cda0ece	0.026618388
83	0x3d5b60d8	0.053559154
84	0xbd91491a	-0.07094021
85	0xbd671964	-0.0564207
86	0xbcb7a6a9	-0.022418337
87	0xbdbb6228	-0.09149581
88	0x3d807334	0.06271973
89	0xbd597824	-0.05309309
90	0x3d72a298	0.059237093
91	0x3d9fbf3b	0.07800146
92	0xbcc87302	-0.024468902
93	0xbd887a59	-0.06663961
94	0x3d8b2112	0.06793417
95	0x3d107b51	0.035273854
96	0x3c8df17b	0.01732706
97	0x3da2d3ea	0.07950576
98	0xbd9e794c	-0.07737979
99	0xbc2eb481	-0.010663153
100	0xbd09a5c9	-0.03360537
101	0xbcdc191f	-0.026867447
102	0xba58492b	-0.0008250649
103	0xb9d0a2a5	-0.0003979403
104	0x3c5ad827	0.013357199
105	0x3cd9894d	0.026554728
106	0xbc4e97e0	-0.012609452
107	0xbdaabc98	-0.08336753
108	0xbd015238	-0.03157255
109	0xbd9e5b75	-0.07732288
110	0xb9a3da04	-0.00031252217
111	0xbcdbcd6f	-0.026831357
112	0xbd888748	-0.06666428
113	0xbd2eb3d0	-0.04265195
114	0xbd8b8db8	-0.0681414
115	0x3d091786	0.0334697
116	0xbdbc0646	-0.09180884
117	0xbb6541fb	-0.0034981954
118	0xbd505d98	-0.050870508
119	0xbc7362c4	-0.0148550905
120	0x3da6bfa4	0.08142021
121	0x3bc079ac	0.0058738794
122	0x3c1c50ec	0.009540778
123	0xbacef64a	-0.0015789953
124	0xbb289187	-0.0025721507
125	0xbd0779af	-0.03307503
126	0xbd45a08d	-0.048248816
127	0x3cc2e907	0.023792757

rnn.weight_hh_l0 f4 [128, 128]
0	0xbbe1de90	-0.0068929866
1	0xbd637f0b	-0.05554108
2	0x3d1a0662	0.037603743
3	0x3ccc3db8	0.024931774
4	0x3dbc60f3	0.09198179
5	0x3c37894a	0.011202166
6	0x3daebabf	0.08531713
7	0xbd94dad8	-0.07268304
8	0x3da2bfc7	0.07946735
9	0x3a8ca2ce	0.0010729672
10	0xbd8e07e6	-0.069351
11	0x3a49c2e8	0.0007696585
12	0x3d9fb42f	0.07798039
13	0xbd0cdcf5	-0.03439041
14	0xbd11beea	-0.03558246
15	0xbdab2ad0	-0.08357775
16	0xbd5867b0	-0.05283326
17	0x3c91e0f6	0.017807465
18	0x3d52be13	0.0514508
19	0x3ceffb80	0.02929473
20	0xbd90ec9b	-0.07076379
21	0xbd533216	-0.051561438
22	0x3863e8b0	5.4337725e-05
23	0xbd68cca9	-0.056835804
24	0xbd7760bf	-0.060395
25	0xbd87cb2b	-0.06630548
26	0x3d8f4492	0.069955006
27	0x3d7a620d	0.061128665
28	0x3d3f079d	0.04663812
29	0xbd27956f	-0.040913995
30	0xbd296886	-0.041359447
31	0xbd3f5711	-0.046713892
32	0x3da435cf	0.08018076
33	0x3cc6e7b9	0.024280416
34	0xbcc6400e	-0.024200466
35	0xbceeb0c9	-0.029137032
36	0xbd483c97	-0.048885908
37	0x3c56efb0	0.013118669
38	0xbdb40e0a	-0.0879174
39	0x3cc9e262	0.02464408
40	0xbc6b8a82	-0.014376285
41	0x3d98fa88	0.0746966
42	0x3d88c30f	0.066778295
43	0x3d4a3ca2	0.04937423
44	0xbd86aeea	-0.06576331
45	0xbd5c2481	-0.05374575
46	0x3d08902b	0.033340614
47	0x3ceb592f	0.02872905
48	0xbc05517f	-0.008137106
49	0xbc88010e	-0.016602065
50	0xbd197df5	-0.037473638
51	0xbc64ef6a	-0.013973096
52	0xbd964677	-0.07337659
53	0xbd2b0cdc	-0.04176031
54	0x3c241199	0.010013961
55	0xbc7e6410	-0.015526786
56	0x3cd3b875	0.025844792
57	0x3cc61976	0.024182063
58	0xbd9e32eb	-0.077245556
59	0x3db22d51	0.0870005
60	0x3d2929fc	0.041299805
61	0x3d251d95	0.040311415
62	0xbce1fe57	-0.027587099
63	0xbdb8470f	-0.08997928
64	0xbb433803	-0.0029788024
65	0xbc780780	-0.015138507
66	0x3cb2137f	0.021737812
67	0xbc806abd	-0.015675897
68	0x3c64bacb	0.013960551
69	0xbd70044c	-0.058597848
70	0x3d8ac4cf	0.067758195
71	0x3d989110	0.074495435
72	0x3d4619f4	0.048364595
73	0x3c13903b	0.009006555
74	0xbc67936a	-0.014134267
75	0xbd459df2	-0.04824633
76	0x3ca001fd	0.019532198
77	0x3d9ff825	0.07811002
78	0x3cb29f3a	0.02180444
79	0x3d90deb4	0.07073727
80	0xbc9b6552	-0.018969212
81	0x3d9819f5	0.07426826
82	0xbcf3d080	-0.029762506
83	0x3d47a1e5	0.04873838
84	0x3daecfff	0.08535766
85	0xbcd5235a	-0.026017834
86	0x3a47ba85	0.0007619041
87	0x3d1bb637	0.03801557
88	0xbda5b5ae	-0.08091293
89	0xbd979a02	-0.074024215
90	0xbc9b0918	-0.018925235
91	0x3cbe2a17	0.02321343
92	0x3d918225	0.07104901
93	0x3c06e1aa	0.008232513
94	0xbc7fde1f	-0.015616923
95	0xbd444dda	-0.047925808
96	0x3d97b847	0.07408195
97	0x3d3fda0a	0.046838798
98	0xbd060cfd	-0.03272723
99	0xbd7599d2	-0.059961148
100	0xbc9f154c	-0.019419335
101	0xbd35c235	-0.044374663
102	0x3d51f904	0.05126287
103	0xbd4a2dd4	-0.04936011
104	0xbc18959e	-0.009313015
105	0x3c7f853d	0.015595731
106	0x3bfc8754	0.007706562
107	0x3d2813d8	0.04103455
108	0x3d0a80fa	0.033814408
109	0x3c668336	0.014069369
110	0xbd39c9c8	-0.04535845
111	0xbd8e6840	-0.06953478
112	0x3cdcaabc	0.026936881
113	0xbbd7547a	-0.0065713497
114	0xbd800274	-0.06250468
115	0xbd8d78b6	-0.069077894
116	0xbd92d6fe	-0.07169913
117	0xbd384ab0	-0.044993103
118	0x3d92c263	0.071659826
119	0x3d20eff1	0.039291326
120	0x3d9c1e84	0.07623008
121	0x3d6a7342	0.057238825
122	0x3d225d0b	0.039639514
123	0xbc6e2c1d	-0.014536885
124	0x3b2f3d56	0.002673944
125	0xbcb3eedd	-0.021964485
126	0xbd3a2ac7	-0.045450952
127	0xbd23d2d4	-0.039995983
128	0x3d4190de	0.047257297
129	0xbd667791	-0.05626637
130	0x3dae1eec	0.08501992
131	0x3d68f22a	0.05687157
132	0x3d6394f5	0.05556198
133	0xbd203c34	-0.039119914
134	0x3da4bd72	0.08043946
135	0x3a91d360	0.0011125617
136	0x3d79f1c2	0.061021574
137	0x3d505240	0.05085969
138	0xbd8d5359	-0.06900663
139	0x3c5293e5	0.012852644
140	0xbc443b52	-0.011977034
141	0xbd8832e7	-0.06650334
142	0xbcf98f50	-0.030463845
143	0xbbfa1367	-0.0076317075
144	0x3c109b18	0.00882604
145	0xbcbfb433	-0.023401355
146	0xbc309c90	-0.010779515
147	0x3d9e691b	0.07734891
148	0xbafdf29d	-0.0019374673
149	0xbd9e2127	-0.07721167
150	0x3d13c734	0.036078647
151	0x3d9d6343	0.07684948
152	0x3c3e1be3	0.011603328
153	0x3d973d4f	0.073847406
154	0xbd4d7fdd	-0.050170768
155	0xbcf6723c	-0.030083768
156	0x3d832d4a	0.064051226
157	0xbbfc6029	-0.007701893
158	0x3d45c2b8	0.0482814
159	0xbd03c1d9	-0.03216729
160	0xbd56f6d9	-0.052481506
161	0xbc97dc94	-0.018537797
162	0xbd96a9eb	-0.07356628
163	0x3d242c1b	0.040081125
164	0xbdaf0ac9	-0.08546979
165	0x3d452f88	0.048141032
166	0xbda201f8	-0.07910532
167	0xbc4077b2	-0.011747288
168	0xbd8966b1	-0.0670904
169	0xbdb9e460	-0.09076762
170	0xbb5e54dd	-0.0033925094
171	0xbd9bd0c8	-0.07608181
172	0xbd9221f5	-0.07135383
173	0x3d604a20	0.05475819
174	0xbc0cab33	-0.008585739
175	0xbc99c535	-0.018770793
176	0x3d60e4dc	0.054905757
177	0x3cf0883a	0.029361833
178	0xbdab0e45	-0.08352331
179	0xbcc5dd61	-0.024153413
180	0x3831e0b6	4.2409367e-05
181	0x3c906e2d	0.01763066
182	0x3d5873b4	0.052844718
183	0xba6b3094	-0.0008971777
184	0x3db6fbb0	0.08934724
185	0x3cf0b0f1	0.029381247
186	0x3d6baee0	0.05753982
187	0x3af7e910	0.0018914063
188	0x3c3e08d9	0.011598789
189	0x3d0a893e	0.03382229
190	0xbd11b374	-0.03557153
191	0x3dab078d	0.083510496
192	0x3d7443ed	0.05963509
193	0xbaf5673c	-0.0018722783
194	0x3d989e86	0.07452111
195	0xbd86625c	-0.06561729
196	0xbd19b2fa	-0.0375242
197	0x3d869ab1	0.06572474
198	0xbd5bcd17	-0.053662386
199	0xbda96a6e	-0.08272253
200	0x3d9e80cc	0.0773941
201	0x3da6b775	0.081404604
202	0x3d814111	0.063112386
203	0xbdb52ca7	-0.088464074
204	0x3d6085ad	0.054814983
205	0xbd1e943d	-0.03871559
206	0xbd857c5e	-0.06517862
207	0xbb26fb9a	-0.0025479556
208	0xbd9a4744	-0.07533124
209	0xbc865ba5	-0.016401121
210	0xbd6e8142	-0.05822874
211	0xbd38403a	-0.044983126
212	0xbd32746e	-0.043568067
213	0xbc25f91c	-0.010130193
214	0xbd71e205	-0.05905344
215	0x3d9c5a03	0.07634356
216	0xbd9c5698	-0.07633704
217	0x3c028724	0.00796679
218	0x3dacba9f	0.08434033
219	0xbcde8c67	-0.027166558
220	0x3d7b6f2b	0.061385315
221	0xbc260ef4	-0.010135401
222	0x3b395b89	0.002828332
223	0xbd5001a3	-0.05078281
224	0xbd6ea706	-0.058264755
225	0x3dab8e8c	0.08376798
226	0xbdab5f1c	-0.0836775
227	0x3c354590	0.011063948
228	0x3d54d30d	0.051959086
229	0xbd978e49	-0.074001856
230	0x3ca77fa6	0.02044661
231	0xbd049f23	-0.032378327
232	0x3d967ef2	0.07348432
233	0xbdaaa86b	-0.083329044
234	0x3d51c8c5	0.05121686
235	0x3cc12023	0.023574894
236	0xbcadecaf	-0.021231024
237	0x3d332627	0.043737557
238	0x3d523bc1	0.051326517
239	0x3cef511a	0.029213477
240	0x3d426e29	0.04746834
241	0xbd4ba234	-0.049715236
242	0xbd2c41fd	-0.04205512
243	0xbd8768ec	-0.06611809
244	0xbd6c9fba	-0.057769515
245	0xbd879a41	-0.066212185
246	0xbd0faf94	-0.035079554
247	0xbd08aff1	-0.033370916
248	0xbd587129	-0.052842293
249	0xbd87589e	-0.06608699
250	0x3c832b50	0.016011864
251	0x3c938202	0.018006328
252	0x3c1bbf12	0.009506004
253	0x3d1e8659	0.038702343
254	0xbc94fa30	-0.018185705
255	0x3cca8f91	0.02472666

rnn.bias_ih_l0 f4 [128]
0	0x3d177785	0.036979217
1	0xbda4711f	-0.08029389
2	0xbd11e334	-0.03561707
3	0x3bed32a1	0.0072387015
4	0xbdb88cfd	-0.090112664
5	0x3d7725e8	0.060338885
6	0x3d45df38	0.04830858
7	0xbd83ee25	-0.06441907
8	0xbcd599c4	-0.026074298
9	0xbc608459	-0.013703429
10	0x3d2b2289	0.041780982
11	0xbb77e9b4	-0.0037828507
12	0x3cde839e	0.02716237
13	0xbda4be6c	-0.080441326
14	0x3d7deac2	0.06199146
15	0x3cc24086	0.023712408
16	0xbd5a5fe4	-0.053314105
17	0xbd610ed5	-0.054945786
18	0xbd8af2ec	-0.06784615
19	0x3be5171c	0.0069912802
20	0xbdaef675	-0.08543102
21	0x3ce7b899	0.028286265
22	0x3d805b8a	0.0626746
23	0xbc86a0ab	-0.016434034
24	0xbd5a49ce	-0.053293042
25	0xbd56634b	-0.052340787
26	0xbd3ebe2d	-0.046568085
27	0x3d7b97ed	0.061424185
28	0xbd346026	-0.044037007
29	0x3d5201c3	0.05127121
30	0xbb56a6d3	-0.0032753244
31	0xbd590208	-0.052980453
32	0x3cfbe3a2	0.030748192
33	0x3d4b2529	0.049595986
34	0xbda7c006	-0.081909224
35	0xbdb2aec3	-0.087247394
36	0xbda9c109	-0.08288772
37	0x3ac8f9ab	0.0015333196
38	0xb9b3cb3d	-0.00034292965
39	0xbaf29e02	-0.0018510225
40	0x3c09e1ea	0.0084156785
41	0x3cb31d3c	0.021864526
42	0xbcf2ca4e	-0.029637482
43	0x3d8fe312	0.07025732
44	0xbda9a5e6	-0.08283596
45	0x3da3e657	0.08002918
46	0x3d8ee471	0.069771655
47	0x3d93628d	0.071965314
48	0xbd09728f	-0.033556517
49	0xbce192c4	-0.027535804
50	0xbd7628ed	-0.060097624
51	0x3d2d33e7	0.042285826
52	0x3d8ccd1c	0.06875059
53	0xbd88703d	-0.06662033
54	0xbd5ad9f1	-0.0534305
55	0xbcc551d4	-0.02408687
56	0x3c7a15ed	0.015264017
57	0xba8bbd5f	-0.0010661295
58	0xbc8c0e78	-0.017096743
59	0xbc693539	-0.014233881
60	0x3db527a3	0.08845451
61	0x3c9acc6f	0.01889631
62	0xbb81fa46	-0.0039666025
63	0x3c688d33	0.014193821
64	0x3cfe36bf	0.031031964
65	0xbbd3f98b	-0.006468957
66	0xbce023a4	-0.027360745
67	0xbdae2104	-0.08502391
68	0xbcc4fe5f	-0.024047075
69	0xbcc076a7	-0.023494078
70	0x3c8e661b	0.017382672
71	0xbd9b90fc	-0.07596013
72	0x3c7c9a58	0.015417658
73	0x3c249971	0.010046349
74	0xbb782b38	-0.0037867557
75	0xbd5d3858	-0.05400881
76	0xbd29e7b7	-0.041480746
77	0xbd85c09d	-0.06530879
78	0xbcbf7f45	-0.023376117
79	0x3be4fc20	0.0069880635
80	0x3bc24e51	0.005929746
81	0xbcccbe37	-0.024993045
82	0x3c9a5831	0.018840881
83	0x3d814cd4	0.06313482
84	0x3d10b737	0.035330977
85	0x3bd3fe7d	0.0064695464
86	0xbd05f2d6	-0.03270229
87	0x3daa073c	0.08302161
88	0xbd809ed7	-0.06280296
89	0xbda42dfa	-0.08016582
90	0xbd4956b8	-0.049154967
91	0xbcbb0527	-0.022829605
92	0x3c144acb	0.009051035
93	0x3d1fcb21	0.03901208
94	0x3d824529	0.063608475
95	0xbd295305	-0.04133894
96	0x3cac1632	0.021006677
97	0x3d63dc40	0.05562997
98	0x3d733f70	0.05938667
99	0xbbfafe62	-0.0076597193
100	0x3c1ecc1e	0.00969222
101	0xbc800285	-0.015626201
102	0xbd2e38c4	-0.042534605
103	0xbcc49a68	-0.023999408
104	0x3d04f98b	0.032464545
105	0x3d1084b7	0.035282817
106	0xbd8cceb0	-0.0687536
107	0x3da899c1	0.08232451
108	0x3d5163d3	0.05112059
109	0xbd1678cf	-0.036736306
110	0xbccba864	-0.024860568
111	0xbd4f19b9	-0.05056164
112	0xbcb64151	-0.022247942
113	0x3bafd83b	0.005366353
114	0xbd8a65b1	-0.06757677
115	0x3c72cfaf	0.014820023
116	0x3c9037c0	0.017604709
117	0xbccd27a7	-0.025043322
118	0xbd442609	-0.047887836
119	0xbd16c984	-0.036813274
120	0x3d1c1bcb	0.038112443
121	0xbd891e01	-0.06695176
122	0x3d9579bc	0.072986096
123	0xbc520b2e	-0.012820048
124	0x3ccd4783	0.025058514
125	0xbd6923c8	-0.05691889
126	0xbca8db7c	-0.02061247
127	0x3bbda8af	0.005787931

rnn.bias_hh_l0 f4 [128]
0	0xbd795128	-0.060868412
1	0x3ce7312e	0.028221693
2	0xbd3d74be	-0.046253912
3	0x3d9d10ac	0.076691955
4	0xba81f252	-0.0009914136
5	0xbd42ed37	-0.047589507
6	0x3d3a14d2	0.045430012
7	0x3d2b85f6	0.041875802
8	0x3c947d07	0.018126024
9	0x3d16fbb5	0.03686114
10	0xbc9e7e39	-0.019347297
11	0x3d899ca1	0.06719328
12	0xbda4b788	-0.08042818
13	0x3daaafac	0.08334288
14	0x3d12f440	0.035877466
15	0xbd452d49	-0.04813889
16	0x3d57f882	0.05272723
17	0xbd83f486	-0.064431235
18	0x3d9a99f0	0.075488925
19	0xbdaaabfa	-0.08333583
20	0x3d454b75	0.048167665
21	0x3d856cc6	0.065148875
22	0xbda414c1	-0.08011771
23	0xbc44043e	-0.011963902
24	0xbd1f1904	-0.038842216
25	0xbd83bcea	-0.06432517
26	0x3d8587ca	0.0652004
27	0x3d28e32f	0.041232284
28	0x3ac5a306	0.0015078492
29	0x3d7d336f	0.06181663
30	0x3d3228df	0.04349601
31	0xbd35aedc	-0.044356212
32	0xbd44261f	-0.047887918
33	0xbd5a0d65	-0.05323543
34	0x3d968f02	0.07351495
35	0x3d28636a	0.041110434
36	0x3d4a4767	0.0493845
37	0xbc2c3901	-0.010511638
38	0x3c7b4a62	0.015337558
39	0xbb8762d0	-0.0041316524
40	0xbd8e1eca	-0.06939466
41	0xbc83f573	-0.01610825
42	0x3d6f01c5	0.058351297
43	0x3d353455	0.04423936
44	0xba6bc0e5	-0.0008993282
45	0x3ca232ce	0.019799616
46	0xbd812295	-0.06305424
47	0x3d68b908	0.056817085
48	0xbd7d5951	-0.061852757
49	0x3ca8bb3a	0.02059709
50	0x3d98d4d2	0.07462467
51	0xbd6c0cf3	-0.057629537
52	0x3cdfb887	0.02730967
53	0xbd20cf8c	-0.039260432
54	0xbd0674d9	-0.03282628
55	0xbd2c5f6a	-0.04208318
56	0xbcf281ca	-0.029602904
57	0x3da49613	0.08036437
58	0x3cc6e910	0.024281055
59	0x3dace4ad	0.08442054
60	0x3c8213f7	0.01587866
61	0xbcafbd05	-0.021452436
62	0x3c222e02	0.009898664
63	0x3da56eb5	0.08077756
64	0x3da23e38	0.079220235
65	0x3be542bf	0.006996482
66	0x3b35fa27	0.002776751
67	0x3da04089	0.07824809
68	0xbdaf6da7	-0.085658364
69	0x3d650a42	0.055917986
70	0x3d6e0949	0.058114324
71	0xbca8401e	-0.020538386
72	0x3c90a5d2	0.017657194
73	0xbd0f2125	-0.03494372
74	0xbd59283d	-0.05301689
75	0x3d29910e	0.0413981
76	0xbd6cda05	-0.057825107
77	0x3c716339	0.014733129
78	0x3d155741	0.036460165
79	0xbd7a182b	-0.061058205
80	0x3cd87bd4	0.026426233
81	0x3c7023a9	0.01465694
82	0xbd18f632	-0.037344165
83	0xbd2911a8	-0.041276604
84	0xbd5ce8c3	-0.053932916
85	0x3dae4480	0.08509159
86	0x3a59c1ca	0.000830677
87	0x3d657849	0.056022916
88	0x3ccc974f	0.024974493
89	0x3d6cb47e	0.05778932
90	0xbcf83e92	-0.030303273
91	0x3d95af97	0.07308882
92	0xbd7f7e35	-0.06237622
93	0xbc84e69c	-0.016223244
94	0x3d20141d	0.03908168
95	0x3c93caf4	0.018041112
96	0xbce2684c	-0.027637623
97	0x3d921e8d	0.07134733
98	0xbc102adc	-0.008799281
99	0xbc418fa1	-0.011814029
100	0xbd420f18	-0.047377676
101	0x3d3bdc58	0.045864433
102	0xbd740fd4	-0.059585407
103	0xbcdf6208	-0.027268425
104	0x3d7732a7	0.06035104
105	0x3ca40be6	0.020025205
106	0x3d3a7baf	0.04552811
107	0xbc878de6	-0.016547155
108	0xbd90732b	-0.070532165
109	0x3aaa9fa0	0.0013017543
110	0xbd3938d6	-0.04522022
111	0xbbc9e07f	-0.006160795
112	0xbc453ec3	-0.012038889
113	0xbd52bbce	-0.051448636
114	0x3d800295	0.062504925
115	0x3d095028	0.03352371
116	0x3d16817d	0.036744583
117	0x3d234389	0.03985933
118	0x3d5aa186	0.053376697
119	0xbcfcc01f	-0.03085333
120	0x3da9f383	0.08298399
121	0x3d6383d6	0.05554565
122	0xbca759e4	-0.020428605
123	0xbd689603	-0.056783687
124	0xbd1ebaf5	-0.038752515
125	0x3d187f37	0.037230697
126	0x3a238505	0.0006237778
127	0xbd71f92c	-0.05907552

rnn.weight_ih_l1 f4 [128, 128]
0	0x3d190cbf	0.03736567
1	0xbc9115a3	-0.017710513
2	0x3c90e79f	0.01768857
3	0xbc141357	-0.009037814
4	0xbd845c6c	-0.064629406
5	0xbd4cb5b6	-0.04997798
6	0xbcf14e0b	-0.02945616
7	0xbc9e1d89	-0.019301193
8	0x3c36906d	0.011142832
9	0xb98cd8d0	-0.0002686442
10	0x3d7c7d45	0.061642904
11	0x3c703e29	0.014663258
12	0xbd3c1ce0	-0.045925975
13	0xbd874310	-0.06604588
14	0xbcba5bf5	-0.022748927
15	0xbd0da68a	-0.034582652
16	0x3d81e63b	0.06342741
17	0xba9beab9	-0.0011895514
18	0x3cab0ccb	0.020880124
19	0x3cce3404	0.025171287
20	0xbd77e6ff	-0.06052303
21	0x3d9096cf	0.070600145
22	0x3dacf957	0.08445995
23	0xbd9d0272	-0.07666482
24	0xbd25e77b	-0.04050396
25	0x3cf7be8f	0.030242233
26	0xbd672a84	-0.05643703
27	0x3da20172	0.07910432
28	0x3c993867	0.018703653
29	0x3d950617	0.07276552
30	0x3c225998	0.009909056
31	0x3d317c79	0.043331597
32	0xbccbdd21	-0.024885716
33	0x3d88b6e1	0.066755064
34	0x3be43995	0.006964872
35	0xbd9952b4	-0.074864775
36	0x3d60725d	0.054796565
37	0x3c923273	0.017846322
38	0x3da97880	0.08274937
39	0x3c52833e	0.012848673
40	0x3d88e63d	0.066845395
41	0x3d6bb5b1	0.05754632
42	0x3cd91af7	0.026502116
43	0xbdca5e41	-0.09881259
44	0x3d8b9b8e	0.06816779
45	0xbcc02110	-0.023453265
46	0x3cecf459	0.028925108
47	0x3d972e72	0.073819056
48	0x3cea042f	0.028566448
49	0xbc7bfcfb	-0.015380139
50	0x3da674e6	0.08127765
51	0x3d3876a0	0.045035005
52	0x3cd3b758	0.025844261
53	0xbd83e51e	-0.06440185
54	0x3d6534fa	0.055958726
55	0xbd845368	-0.06461221
56	0xbd2ea6a7	-0.0426394
57	0x3d89d95e	0.067309126
58	0x3d246761	0.040137652
59	0x3cf36efc	0.029716007
60	0x3c715596	0.014729878
61	0xbd387ab1	-0.045038883
62	0x3a19da6e	0.00058690354
63	0x3d75747d	0.059925545
64	0xbd8595f0	-0.06522739
65	0xba02f9ec	-0.00049963477
66	0x3d8a7ca5	0.06762055
67	0xbd122e84	-0.035688892
68	0x3d328d8a	0.043592013
69	0x3c8a97fa	0.016918171
70	0x3d5d5232	0.054033466
71	0xbda74460	-0.08167338
72	0x3d33b759	0.043876026
73	0xbdcd512f	-0.1002525
74	0xbd9b6be0	-0.07588935
75	0x3d9dd593	0.07706752
76	0x3c5f1483	0.01361573
77	0x3db06d53	0.08614602
78	0x3d232446	0.039829515
79	0xbd1c2a14	-0.038126066
80	0xbd119a27	-0.0355474
81	0x3d40b5e8	0.04704848
82	0xbc48912e	-0.012241645
83	0x3cd99eb9	0.026564943
84	0x3d9588e5	0.07301501
85	0xbc7c5381	-0.015400768
86	0xbd5445d7	-0.051824417
87	0x3db5760b	0.088604055
88	0x3d4cdeb9	0.050017092
89	0x3d0391cd	0.03212147
90	0x3b6ae04d	0.003583926
91	0xbd1800e6	-0.03711023
92	0xbd44530c	-0.047930762
93	0xbd9adf2a	-0.075620964
94	0xbdb7a112	-0.089662686
95	0x3d90a553	0.07062783
96	0xbd055a62	-0.0325569
97	0xbd010374	-0.031497434
98	0xbc3a6701	-0.011377097
99	0x3ce7ca7c	0.028294794
100	0x3da39d81	0.07989026
101	0x3dae8704	0.08521846
102	0x3aded05a	0.001699935
103	0xbd20f0ed	-0.039292265
104	0x3db2304b	0.087006174
105	0x3d864d16	0.06557672
106	0x3d5231c5	0.051316995
107	0x3b8466ce	0.0040405756
108	0x3cd82401	0.026384356
109	0xbd876666	-0.06611328
110	0x3c757b47	0.014983005
111	0xbd8ba909	-0.0681935
112	0xbd0812e4	-0.03322114
113	0xbcdfcf0d	-0.02732041
114	0x3d437451	0.04771835
115	0xbd62d519	-0.055379007
116	0x3cfa2964	0.030537315
117	0xbc1e534b	-0.009663413
118	0x3d82cc20	0.0638659
119	0x3d7fae44	0.062422052
120	0x3d531909	0.051537547
121	0x3d83cc9b	0.0643551
122	0xbdb31cde	-0.0874574
123	0xbd821a85	-0.063527144
124	0x3c641642	0.013921322
125	0xbda20bc5	-0.07912401
126	0x3d29f87f	0.04149675
127	0x3c8531c8	0.01625909
128	0x3d8b1809	0.06791694
129	0xbbbad887	-0.0057020816
130	0x3d11862f	0.035528358
131	0x3d8ed03f	0.069733135
132	0x3daf77fb	0.08567806
133	0x3ce9eb03	0.028554445
134	0xbd9af812	-0.07566847
135	0x3c4be31b	0.012444283
136	0x3d26386d	0.040581156
137	0x3aa13805	0.001230002
138	0x3cce6775	0.025195817
139	0x3d7f178f	0.062278327
140	0xbcf2acb0	-0.02962336
141	0x3c19ed95	0.009395023
142	0xbd60ab77	-0.05485102
143	0xbd6e2b61	-0.058146838
144	0xbcd6fbd2	-0.026243124
145	0x3c55363a	0.013013417
146	0xbd54ceec	-0.05195515
147	0xbd081596	-0.03322371
148	0x3d73a56e	0.059483938
149	0x3d8fe41c	0.0702593
150	0xbd970d97	-0.07375639
151	0xbb09e9b7	-0.0021043846
152	0xbc1211da	-0.008915389
153	0xbd7457e7	-0.059654143
154	0x3d620e35	0.05518933
155	0xbd619dc8	-0.055082113
156	0xbbcaab0f	-0.0061849426
157	0xbdae202c	-0.0850223
158	0x3d73ac16	0.059490286
159	0xba754fb5	-0.00093578856
160	0xbdae0b98	-0.08498305
161	0x3ba3d839	0.005000141
162	0x3d3e9fa4	0.046538964
163	0x3d91362e	0.07090412
164	0x3d51a302	0.051180847
165	0x3cb5459c	0.022127919
166	0xbdc882af	-0.09790551
167	0xbd358070	-0.04431194
168	0xbdac837b	-0.084235154
169	0xbc063b11	-0.0081927935
170	0x3bf4a6e2	0.007466183
171	0x3d3c9803	0.046043407
172	0x3d68c62c	0.056829616
173	0xbbb10371	-0.0054020216
174	0x3cd64c3b	0.026159396
175	0xbda2efd2	-0.07955898
176	0xbd4beafe	-0.049784653
177	0xbdaca1e3	-0.08429315
178	0xbd513ccd	-0.051083375
179	0xbcc77e40	-0.024352193
180	0xbd91fbf1	-0.07128132
181	0x3daaed35	0.08346025
182	0x3d73ae96	0.05949267
183	0x3c174fad	0.009235305
184	0xbd39583b	-0.04525016
185	0x3c5e7f54	0.013580162
186	0xbda22148	-0.07916504
187	0x3d83f540	0.06443262
188	0xbdaab533	-0.08335342
189	0xbc782623	-0.015145811
190	0x3c12e15e	0.008964865
191	0x3c0adb40	0.008475125
192	0xbca18d82	-0.019720796
193	0x3da241f4	0.07922736
194	0x3d7d025e	0.061769836
195	0x3d7b7bb7	0.06139728
196	0xbceb3853	-0.02871338
197	0x3d976ab5	0.073933996
198	0xbc8400b3	-0.016113615
199	0x3d9893f7	0.07450097
200	0x3d3457fd	0.044029225
201	0x3d73c08e	0.059509806
202	0xbd66e56a	-0.05637113
203	0x3c34e658	0.011041246
204	0x3d23af5c	0.039962158
205	0xbbec96c8	-0.007220123
206	0x3d3bfd56	0.045895897
207	0xbd40f018	-0.04710397
208	0x3a936dd7	0.0011247945
209	0xbd49eb2e	-0.04929655
210	0xbb141495	-0.0022595276
211	0xbc396639	-0.011315876
212	0x3cc73edf	0.024321971
213	0xbb955adb	-0.00455795
214	0xbdb707bf	-0.08937024
215	0x3cc61a99	0.024182605
216	0x3d54e95d	0.051980365
217	0xbc14014b	-0.009033511
218	0xba4a7540	-0.000772316
219	0x3d6abfbe	0.057311766
220	0xbc87701b	-0.016532948
221	0x3d2f6a1b	0.0428258
222	0xbd96fcf6	-0.07372467
223	0xbb998667	-0.0046852115
224	0x3d5f9aa6	0.054590844
225	0x3b42ffb3	0.002975446
226	0xbcda8a67	-0.026677324
227	0x3d8caa6c	0.06868443
228	0xbc14ed6d	-0.00908981
229	0x3d1077eb	0.035270613
230	0xbd85c1ac	-0.065310806
231	0x3d389a48	0.04506901
232	0xbd60b995	-0.054864485
233	0xbd9ce9bc	-0.07661769
234	0xbd2753d5	-0.040851433
235	0x3cd426b0	0.025897354
236	0xbccf4dfb	-0.025305739
237	0xbcc50dc6	-0.02405442
238	0x3c07f12b	0.008297245
239	0xbd3a91bd	-0.045549143
240	0x3ba36c74	0.004987294
241	0xbd2c8f60	-0.04212892
242	0x3d9d1584	0.076701194
243	0x3d172249	0.03689793
244	0xbd1b2953	-0.037881207
245	0x3d9670fc	0.07345769
246	0xbc8f325d	-0.01748007
247	0xbd7b119d	-0.061296094
248	0x3d997429	0.07492859
249	0xbd3840ef	-0.0449838
250	0x3d40b296	0.047045313
251	0x3d178f7e	0.03700208
252	0x3d7ac6c0	0.0612247
253	0xbc9b3297	-0.018945022
254	0x3d7e0c4c	0.062023446
255	0xbd8a51bc	-0.06753871

rnn.weight_hh_l1 f4 [128, 128]
0	0x3d8ad479	0.06778807
1	0xbd49bafa	-0.04925058
2	0xbc8250d8	-0.01590769
3	0xbd9b6936	-0.07588427
4	0x3d2e53de	0.04256045
5	0xbcf74ad9	-0.030187057
6	0xbd7960d7	-0.06088337
7	0xbc899ecf	-0.016799359
8	0xbd00b0e1	-0.031418685
9	0x3d582d36	0.05277749
10	0xbda3c34a	-0.07996233
11	0xbd71726d	-0.058947016
12	0x3d79d82c	0.060997173
13	0x3d61af3a	0.05509875
14	0xbdb39140	-0.087679386
15	0x3d88f0ab	0.06686529
16	0x3da46e01	0.08028794
17	0xbd1ddfbd	-0.03854345
18	0xbdae0a3c	-0.08498046
19	0x3c675ec3	0.014121714
20	0x3b8ca389	0.004291956
21	0xbcbb8b03	-0.022893434
22	0x3d4787ac	0.04871337
23	0x3daf9bb6	0.085746214
24	0xbd317f0b	-0.04333405
25	0xbdbcd858	-0.09220952
26	0xbda4d0b4	-0.080476195
27	0xbd9e4908	-0.07728773
28	0x3ae479e2	0.0017431343
29	0xbd14576f	-0.036216196
30	0x3d9be3f1	0.07611836
31	0x3ca306b4	0.019900657
32	0xbd93acb8	-0.07210678
33	0xbd886c47	-0.06661277
34	0x3d665c36	0.056240283
35	0x3b3b7123	0.002860137
36	0xbc38fe74	-0.011291135
37	0x3d39cb6e	0.04536002
38	0x3d9ac3ee	0.07556902
39	0x3db24aa9	0.087056465
40	0x3d0d1442	0.034443147
41	0xbda50074	-0.08056727
42	0x3cd771ff	0.026299475
43	0x3cd34f8b	0.025794765
44	0xbc401817	-0.0117244935
45	0x3cf1fa9a	0.029538441
46	0x3d10312b	0.03520314
47	0xbc94894c	-0.018131875
48	0xbd5b1f6e	-0.05349677
49	0xbd545b78	-0.051845044
50	0x3d4c71bc	0.049913153
51	0x3d41aaec	0.047282144
52	0xbd2b1741	-0.041770224
53	0xbca2df5d	-0.019881899
54	0xbd602028	-0.054718167
55	0xbda3291e	-0.07966827
56	0xbcfabf9b	-0.030608943
57	0x3c83f00d	0.016105676
58	0x3cbac262	0.022797767
59	0x3ccd88f8	0.025089726
60	0x3da77fa3	0.08178642
61	0xbd97b58e	-0.07407676
62	0x3cef4852	0.02920929
63	0x3cca75b9	0.024714338
64	0x3c63104e	0.013858868
65	0xbd6ea23a	-0.05826018
66	0x3c2939af	0.010328694
67	0xbd8b5349	-0.06802995
68	0x3c5de4eb	0.013543348
69	0xbd3db835	-0.04631825
70	0xbd5b357e	-0.05351781
71	0xbd1ea341	-0.03872991
72	0x3d318480	0.043339252
73	0x3d3ce12c	0.046113178
74	0x3d21ffa4	0.03955044
75	0x3d7bc4a3	0.061466824
76	0x3da5d486	0.08097176
77	0xbd1e64ec	-0.038670465
78	0x3d9525f4	0.072826296
79	0x3bd9b68e	0.0066440767
80	0xbda7645f	-0.08173441
81	0x3d80b9ad	0.06285415
82	0xbd4a926a	-0.049456038
83	0x3cdd0c44	0.026983388
84	0x3dbbb1f5	0.09164802
85	0xbcc00b6d	-0.023442948
86	0xbd64f5f8	-0.055898637
87	0x3d90fde1	0.070796736
88	0x3c5b357e	0.013379453
89	0xbd861131	-0.06546248
90	0x3cdccd74	0.026953436
91	0xbc6c491b	-0.014421727
92	0x3d922972	0.07136811
93	0xbd2171a2	-0.03941501
94	0xbd0e8688	-0.034796268
95	0xbc83e5b4	-0.016100742
96	0xbcb7c221	-0.022431435
97	0xbc89f306	-0.016839515
98	0x3c182221	0.009285481
99	0xbd20aeb7	-0.03922912
100	0x3c935466	0.01798458
101	0xbc26f83e	-0.0101910215
102	0x3db8d7fd	0.090255715
103	0xbd465356	-0.04841932
104	0xbd5de297	-0.05417117
105	0x3d773f68	0.060363203
106	0x3db874ec	0.09006676
107	0x3d811803	0.06303408
108	0x3cb5a22d	0.022172058
109	0xbd648c98	-0.055798143
110	0xbda0033c	-0.07813117
111	0xbd990aa6	-0.07472734
112	0xbdb80238	-0.08984798
113	0xbd9fb981	-0.07799054
114	0x3c3101de	0.010803668
115	0xbce5871a	-0.028018523
116	0x3d90d8b0	0.0707258
117	0x3d282fd2	0.04106123
118	0x3d105fc2	0.03524757
119	0x3d8297f6	0.063766405
120	0xbd9d48d4	-0.076799065
121	0x3d50fc08	0.051021606
122	0xbda25b57	-0.07927578
123	0x3d9dc640	0.07703829
124	0xba15cb7d	-0.0005714221
125	0x3d93a6ef	0.072095744
126	0xbd110a23	-0.035410058
127	0xbcc25d5a	-0.023726154
128	0xbd142cbc	-0.036175475
129	0x3dba9563	0.091105245
130	0xbd7b4622	-0.06134618
131	0x3c4bf981	0.012449623
132	0xbda3608d	-0.079774
133	0x3d47fbf1	0.048824254
134	0xbd0e566b	-0.034750383
135	0xbdb50cf7	-0.088403635
136	0xbdaac1b9	-0.08337731
137	0x3d98c61f	0.074596636
138	0xbd79ac41	-0.06095529
139	0xbda7191c	-0.08159086
140	0xbcdddcfc	-0.027082913
141	0x3c6fcef3	0.014636743
142	0xbba9cc70	-0.0051818416
143	0x3c86154f	0.016367583
144	0xbda4eb30	-0.08052671
145	0x3d0aff7c	0.033935055
146	0x3cc17501	0.023615362
147	0xbd3e144b	-0.04640607
148	0xbd963801	-0.07334901
149	0xb89f04ef	-7.58263e-05
150	0xbca20f73	-0.019782757
151	0x3d2aacaa	0.04166857
152	0x3caa2599	0.020769881
153	0x3d3f5b0c	0.04671769
154	0xbdb5a66a	-0.088696316
155	0x3d3c80a0	0.046021104
156	0x3c1961e2	0.009361716
157	0x3c06624a	0.008202145
158	0x3d2a4254	0.04156716
159	0xbd80c2f9	-0.06287188
160	0xbd0c51cb	-0.03425769
161	0x3d32cb07	0.043650653
162	0xbd0f8888	-0.035042316
163	0x3c034b35	0.008013536
164	0xbc042b02	-0.0080668945
165	0x3d867f95	0.06567303
166	0x3c05eef4	0.008174647
167	0xbd0bb8d0	-0.034111798
168	0xbd7fa467	-0.062412646
169	0x3c6e263d	0.014535484
170	0x3d1e36eb	0.038626593
171	0xbc734074	-0.01484691
172	0xbc8260db	-0.015915325
173	0x3d3df12d	0.04637258
174	0xbd3df263	-0.046373736
175	0x3c556667	0.013024903
176	0x3d906195	0.07049862
177	0xbd9534f2	-0.07285489
178	0xbda827cb	-0.08210715
179	0xba8de23f	-0.0010824873
180	0xbc16166b	-0.009160618
181	0xbd5fccf8	-0.054638833
182	0x3d29ccd6	0.041455112
183	0xbd933a03	-0.07188799
184	0xbd3faaac	-0.046793625
185	0x3c00ab2d	0.0078533115
186	0x3ca0aa53	0.019612467
187	0x3d99f9fd	0.075183846
188	0x3d6c1d02	0.05764485
189	0x3db6e080	0.08929539
190	0xbd6b04a7	-0.057377484
191	0xbc3ed1a7	-0.011646665
192	0xbce5fc03	-0.02807427
193	0xbc74cbd8	-0.014941178
194	0xbd71d95a	-0.059045173
195	0x3d847a93	0.06468692
196	0xbd2da117	-0.042389955
197	0x3c084999	0.008318328
198	0x3cd6097d	0.026127571
199	0x3d9dac76	0.0769891
200	0xbda74518	-0.081674755
201	0xbd6ef4b2	-0.05833883
202	0x3d7d53ff	0.061847683
203	0xbcf92495	-0.030412951
204	0x3da11850	0.07865965
205	0x3d5d5c9f	0.05404341
206	0xbd99ba65	-0.07506255
207	0xbd7454fe	-0.059651367
208	0x3d844f9a	0.06460495
209	0xbd8cf1d9	-0.06882066
210	0xbb3638cb	-0.0027804847
211	0x3c41c7da	0.0118274335
212	0xbd833fb1	-0.064086325
213	0x3da1f5e3	0.07908227
214	0xbd5b0d57	-0.05347952
215	0x3c3a707e	0.011379359
216	0xbcd16dd1	-0.02556506
217	0xbdbb69e6	-0.09151058
218	0x3c97d542	0.018534306
219	0x3db6fe3c	0.0893521
220	0x3cb1d411	0.021707566
221	0xbc862c73	-0.016378617
222	0xbd43e5b1	-0.047826473
223	0x3d46fb78	0.048579663
224	0xbcde8ea5	-0.027167628
225	0x3d8ce2c7	0.06879192
226	0xbd9cf744	-0.0766435
227	0x3d004437	0.031315055
228	0xbaf89f08	-0.0018968293
229	0x3d91adf2	0.071132556
230	0xbc55077c	-0.013002273
231	0xbcaf63ac	-0.021409832
232	0x3b3de168	0.0028973464
233	0x3d945486	0.07242684
234	0x3d46faae	0.04857891
235	0xbd9d4659	-0.076794334
236	0xbd716256	-0.05893167
237	0x3d1e5fc8	0.038665563
238	0x3cf3a51a	0.029741812
239	0x3d9fdc30	0.07805669
240	0xbb7c26d5	-0.0038475294
241	0xbd040c5e	-0.032238357
242	0xbcba2e1f	-0.02272707
243	0xbd516554	-0.051122025
244	0xbd79774d	-0.06090479
245	0xbbe58225	-0.00700404
246	0x3daefebc	0.085446805
247	0x3d29f632	0.041494556
248	0xbd74047b	-0.059574585
249	0x3ca74e7a	0.020423163
250	0xbd8cc874	-0.06874171
251	0xbc9bcc22	-0.019018237
252	0x3cb1022f	0.021607487
253	0xbd80a136	-0.062807485
254	0xbcbe77c3	-0.023250466
255	0x3d9dc0ac	0.07702765

rnn.bias_ih_l1 f4 [128]
0	0x3becf2a2	0.0072310725
1	0xbadc6841	-0.0016815738
2	0x3ce25544	0.027628548
3	0x3d35d32c	0.044390842
4	0x3d3abe0f	0.04559141
5	0x3d0d20d8	0.03445515
6	0x3bd4827c	0.0064852815
7	0x3bc7f33d	0.0061019943
8	0xbc835bd6	-0.016035002
9	0xbcb98ece	-0.022651102
10	0x3d5a56e2	0.053305514
11	0x3d6781fb	0.056520443
12	0xbb50f936	-0.0031886823
13	0x3d351564	0.044209853
14	0x3cc4c0c5	0.0240177
15	0x3d51ac6b	0.05118982
16	0xbdb30e33	-0.08742943
17	0x3d3d8adf	0.046275016
18	0xbdaa31d7	-0.083102874
19	0x3d5d9371	0.05409569
20	0xbd94281e	-0.07234214
21	0xbc4f7bb8	-0.012663774
22	0xbc170693	-0.009217876
23	0xbd8734c6	-0.066018626
24	0xbd78d07d	-0.060745705
25	0x3c765f4e	0.015037371
26	0xbcb19f70	-0.021682471
27	0x3d4d4bcd	0.050121117
28	0xbd3b72f5	-0.04576393
29	0xbd1a35f6	-0.037649117
30	0xbbc99e77	-0.0061529237
31	0xbd96c63f	-0.07362031
32	0x3d68ebdc	0.056865558
33	0x3d1e8d39	0.0387089
34	0x3d1a54a9	0.037678394
35	0xbd9c12f0	-0.076207995
36	0x3c92ae49	0.017905371
37	0x3da8c221	0.08240152
38	0x3d54b236	0.051927768
39	0xbc84e248	-0.01622118
40	0xbd99f8d1	-0.07518161
41	0xbd8f4779	-0.06996054
42	0x3c9a23f5	0.018815974
43	0x3d203a4e	0.039118104
44	0xbcdcf2c6	-0.026971232
45	0xbd397e3a	-0.045286395
46	0xbc876a62	-0.01653022
47	0xbd498a65	-0.04920425
48	0x3c657ecc	0.0140072815
49	0xbd939468	-0.072060406
50	0xbd894056	-0.06701724
51	0x3c89e32d	0.016831959
52	0xbd9cb535	-0.0765175
53	0xbd78c368	-0.06073323
54	0x3d16e747	0.036841657
55	0xbd7ae1e6	-0.06125059
56	0xbc1ba863	-0.009500596
57	0xbd99f936	-0.07518236
58	0xbd7afe32	-0.061277576
59	0x3d5e9b9f	0.05434763
60	0xbbb89841	-0.0056333845
61	0xbd4c62f0	-0.04989904
62	0xbdb712c7	-0.08939128
63	0xbca2547b	-0.019815674
64	0xbd8f2732	-0.06989898
65	0xbc33c0e8	-0.010971285
66	0x3d0fc340	0.035098314
67	0xbc449900	-0.011999369
68	0xbd08df14	-0.03341587
69	0x3c8e238a	0.01735093
70	0xbd3313ba	-0.043719985
71	0xbd8a23b7	-0.06745093
72	0xbccd2642	-0.025042657
73	0xbd1f8f8c	-0.038955256
74	0xba8749ea	-0.0010321711
75	0x3d115774	0.035483792
76	0xbd59d8dd	-0.053185333
77	0x3c082778	0.008310191
78	0xbd158ca4	-0.03651108
79	0xbd4952b0	-0.049151123
80	0x3c1790b0	0.009250805
81	0xbc26aee8	-0.010173537
82	0xbd3bded8	-0.045866817
83	0xbd53699a	-0.05161438
84	0xbd0f3d14	-0.034970358
85	0x3c808714	0.01568941
86	0xbd305c30	-0.043056667
87	0x3d0025df	0.031286117
88	0xbc3c6963	-0.0114997355
89	0xbd6c9582	-0.05775977
90	0x3d982678	0.07429212
91	0xbcafc5ed	-0.021456683
92	0x3d91241d	0.07086966
93	0xbc60dc09	-0.0137243355
94	0xbd19123c	-0.037370905
95	0xbd7f774c	-0.06236963
96	0xbb8b33ac	-0.004248103
97	0x3bdbedba	0.006711689
98	0xbcb954c5	-0.02262343
99	0x3d09f31b	0.03367911
100	0x3ca8068c	0.020510934
101	0x3c71a9ac	0.014749926
102	0xbd960586	-0.07325272
103	0xbc957281	-0.018243076
104	0x3cdc1836	0.026867013
105	0x3c230b5a	0.009951437
106	0x3b240421	0.0025026875
107	0xbc42df4b	-0.0118940575
108	0xbd86a60b	-0.06574639
109	0x3d7ba12f	0.061433014
110	0x3d917b43	0.071035884
111	0xbd8bd6bd	-0.068280675
112	0x3d83bfb3	0.06433048
113	0xbd4c0aee	-0.04981511
114	0x3d9a7667	0.07542115
115	0x3d981c45	0.07427267
116	0xbd7ba7a5	-0.061439175
117	0xbdae6a6f	-0.08516394
118	0x3d5f0665	0.054449458
119	0xbd8610a9	-0.065461464
120	0xbc6f4c18	-0.0146055445
121	0x3d89a95e	0.06721757
122	0x3d892e1b	0.06698247
123	0x3d3105a4	0.04321827
124	0x3da858c4	0.08220056
125	0x3c40b08b	0.011760841
126	0xbc9e1e4a	-0.019301552
127	0xbd3803c4	-0.044925466

rnn.bias_hh_l1 f4 [128]
0	0x3d4954b0	0.04915303
1	0x3d1be736	0.038062297
2	0x3d9c2481	0.0762415
3	0x3c779d62	0.015113207
4	0xbc6e4b45	-0.014544313
5	0x3d8ca9af	0.06868302
6	0x3d4a7f96	0.04943808
7	0xbd322d14	-0.04350002
8	0xbd576fda	-0.052596904
9	0xbd763f3d	-0.060118902
10	0x3db0da96	0.08635442
11	0xbd3af101	-0.045639995
12	0xbd8585f6	-0.06519692
13	0xbca219c5	-0.019787678
14	0x3d0378d0	0.032097638
15	0xbb2af0c3	-0.0026083447
16	0xbd80481c	-0.06263754
17	0x3c9f59ae	0.019451942
18	0xbd48e650	-0.049047768
19	0x3d3bdcc0	0.04586482
20	0x3d07b3df	0.033130523
21	0xbd29c301	-0.041445736
22	0x3d420514	0.047368124
23	0x3a1b10e9	0.00059153006
24	0x3c55cbf8	0.013049118
25	0x3d093528	0.03349796
26	0x3d4802f9	0.04883096
27	0x3da4b4df	0.08042311
28	0xbbbc636d	-0.005749157
29	0x3d878089	0.06616313
30	0xbcf985d9	-0.030459331
31	0xbc449166	-0.011997556
32	0x3cb39f35	0.021926502
33	0x3b6ffbd2	0.0036618602
34	0x3d3c9e62	0.046049483
35	0x3c118b68	0.008883335
36	0x3d030a5f	0.031992313
37	0x3d0306c1	0.031988863
38	0x3cef132c	0.029183947
39	0x3d9d9749	0.07694871
40	0x3daaf824	0.0834811
41	0x3c625df9	0.01381635
42	0xbd443968	-0.04790631
43	0x3d7b08c9	0.061287675
44	0x3c91382f	0.017726986
45	0xbce4c44d	-0.027925635
46	0x3da63ef0	0.08117473
47	0xbda9bb0d	-0.0828763
48	0xbd934e0e	-0.07192622
49	0xbd078bb1	-0.033092204
50	0xbc310093	-0.01080336
51	0x3d87abde	0.06624578
52	0x3d825a50	0.06364882
53	0xbd593cde	-0.053036563
54	0x3d0024da	0.031285144
55	0xbc59846f	-0.013276204
56	0x3d2ad2ad	0.041704822
57	0x3cb79b9d	0.02241307
58	0xbd14cd10	-0.036328375
59	0xbda2a772	-0.07942094
60	0xbd52edc4	-0.051496282
61	0x3d1dd823	0.038536202
62	0x3dabbb30	0.083853126
63	0x3cc52d77	0.02406953
64	0x3d8a6e68	0.067593396
65	0xbd114e8d	-0.035475302
66	0xbc361e97	-0.011115692
67	0x3c522962	0.012827249
68	0xbd845188	-0.06460863
69	0x389d3f2c	7.49811e-05
70	0xbc1b0323	-0.009461197
71	0xbcc19a9b	-0.023633292
72	0xbc24ae19	-0.010051274
73	0xbc40bd6b	-0.011763911
74	0xbd68f916	-0.05687817
75	0xbd730d1b	-0.05933867
76	0xbd79f648	-0.061025888
77	0xbc07a205	-0.008278375
78	0xbca72226	-0.020402025
79	0x3c7b6e8d	0.015346182
80	0xbdabbc6e	-0.083855495
81	0x3cf43b75	0.029813508
82	0x3d51bf90	0.05120808
83	0xbd8417ae	-0.06449829
84	0x3d1354cc	0.03596954
85	0x3d903c26	0.070427224
86	0x3d980de2	0.07424523
87	0x38eeb49c	0.000113823655
88	0xbc690c99	-0.014224195
89	0x3d616715	0.055029947
90	0xbd2830b5	-0.041062076
91	0xbce454be	-0.02787244
92	0x3d6ae6fa	0.057349183
93	0x3d2249a3	0.039621007
94	0x3d73c078	0.059509724
95	0xbc7cf1a6	-0.015438473
96	0xbb087796	-0.0020823232
97	0xbbb14095	-0.00540931
98	0x3c49c4ee	0.012315018
99	0xbdaa084f	-0.08302366
100	0x3d60d354	0.05488904
101	0x3c9f4b03	0.019444948
102	0xbd755a25	-0.05990042
103	0x3c8e2ff7	0.017356856
104	0x3d53a340	0.05166936
105	0x3d844332	0.06458129
106	0xbdaf8e6b	-0.08572086
107	0xbc898045	-0.016784796
108	0x3d35d0d1	0.044388596
109	0xbd88ea85	-0.06685356
110	0xbd98aaa4	-0.07454422
111	0x3d428e3e	0.047498934
112	0xbc8e2fcf	-0.017356781
113	0x3d9215e2	0.0713308
114	0xbd2d9f2b	-0.042388123
115	0xbaa293dd	-0.0012403686
116	0x3d4e9f37	0.050444808
117	0xbd5eb585	-0.05437233
118	0xbdbbf969	-0.091784306
119	0x3d2c7b2e	0.04210966
120	0xbdac3a35	-0.084095396
121	0xbba3c5bc	-0.004997937
122	0xbd09ee00	-0.03367424
123	0xbd6003f1	-0.05469126
124	0x3c41056f	0.011781081
125	0xbda1c019	-0.07897968
126	0xbd8c165f	-0.068402044
127	0xbd9d8e14	-0.07693115

fc.weight f4 [1, 128]
0	0xbd116e55	-0.03550561
1	0x3db1ed71	0.086878665
2	0xbd5eb31d	-0.054370034
3	0xbd582637	-0.05277082
4	0x3d571fb7	0.05252048
5	0x3d9ac112	0.075563565
6	0x3bb4d268	0.0055182464
7	0x3c8a13e6	0.016855191
8	0x3d417cc8	0.04723814
9	0x3c4384ee	0.011933548
10	0x3d131fab	0.035918873
11	0x3c82e4b9	0.015978204
12	0x3d643f11	0.055724207
13	0x3d9383cd	0.072028734
14	0x3d794b59	0.060862873
15	0x3d2bcbe3	0.04194249
16	0xbd5b4540	-0.05353284
17	0x3da70622	0.081554666
18	0x3d5bc4dd	0.05365454
19	0x3d1a01cb	0.037599366
20	0x3d00494a	0.031319894
21	0xbd4862e6	-0.048922442
22	0x3c39fd5f	0.011351912
23	0x3d08c977	0.033395257
24	0x3d4cf51e	0.05003845
25	0x3dab60a6	0.083680436
26	0x3a38eae3	0.0007054044
27	0xbdadba73	-0.08482828
28	0x3c1816d0	0.009282783
29	0x3db54e1a	0.08852787
30	0xbc70f482	-0.014706733
31	0xbbcbba3c	-0.006217269
32	0x3d6e6c81	0.058208946
33	0x3b69445b	0.0035593722
34	0xbca6e61f	-0.020373402
35	0xbd8fbf80	-0.070189476
36	0xbd35685d	-0.04428898
37	0xbc8f623d	-0.017502898
38	0xbcee9563	-0.029123968
39	0x3d22700c	0.039657637
40	0x3c8cf744	0.01720775
41	0xbd91c31b	-0.071172915
42	0xbbef4e3c	-0.0073030274
43	0xbd00efed	-0.03147881
44	0x3cc2a398	0.023759648
45	0xbd33ebad	-0.04392593
46	0xbd149bd1	-0.03628141
47	0x3d473d89	0.04864267
48	0xbcfb633b	-0.030686965
49	0x3ccf9edb	0.025344303
50	0x3c381665	0.011235808
51	0x3c5ec644	0.013597075
52	0x3db8f17d	0.09030435
53	0x3cd97db0	0.02654919
54	0x3b763e38	0.0037573706
55	0xbd0c95fa	-0.034322716
56	0xbce600de	-0.028076585
57	0x3b885974	0.0041610543
58	0x3d2172c7	0.0394161
59	0xbd13f48f	-0.0361219
60	0x3c7a681d	0.015283612
61	0x3a9dfa4e	0.0012052746
62	0xbcea77c8	-0.02862157
63	0x3b022260	0.0019856915
64	0x3c50c33b	0.012741859
65	0x3d33de59	0.04391322
66	0xbc0f0d72	-0.008731233
67	0xbd97eb67	-0.07417946
68	0x3dbd02d6	0.092290565
69	0x3d5afaa3	0.053461682
70	0x3d077984	0.03307487
71	0xbd95d652	-0.07316269
72	0x3ca39b12	0.019971404
73	0x3d7a465e	0.061102264
74	0xbd941a08	-0.072315276
75	0xbc0ce100	-0.008598566
76	0xbd28e47c	-0.041233525
77	0x3d542270	0.051790655
78	0xbd10093f	-0.035165068
79	0x3d88a6d8	0.06672448
80	0xbd942e75	-0.072354235
81	0x3bb43c08	0.0055003203
82	0xbc1ab726	-0.00944308
83	0x3bc6fb2f	0.006072424
84	0x3cbac4e0	0.022798955
85	0x3b81d6b2	0.0039623613
86	0xbca638ba	-0.020290721
87	0xbbbe6783	-0.0058106794
88	0x3d3add27	0.045621064
89	0xbd848545	-0.06470732
90	0xbd7f5d68	-0.06234494
91	0xbc069239	-0.008213573
92	0x3d44c132	0.048035808
93	0xbd37ef69	-0.044906054
94	0xbcb391b6	-0.021920066
95	0xbd1445b5	-0.03619929
96	0xbce2968e	-0.02765968
97	0xbd4dfd45	-0.050290365
98	0x3cab21c6	0.020890128
99	0x3bac19ff	0.0052521224
100	0x3d4b2275	0.049593408
101	0xbc1d36d7	-0.009595594
102	0xbd792e2b	-0.060835045
103	0xbd350313	-0.044192385
104	0xbcc95d00	-0.024580479
105	0xbd24fda5	-0.040280957
106	0x3bc1931c	0.0059074294
107	0xbd618dae	-0.055066757
108	0x3d9b4ba1	0.075827844
109	0xbd2f3bf9	-0.042781804
110	0x3c3e99a7	0.011633313
111	0x3d7faea7	0.06242242
112	0xbc87b75c	-0.016566925
113	0xbcab335d	-0.020898515
114	0x3d6fd251	0.058550183
115	0xbd01c1d2	-0.031678982
116	0xbd19c5d2	-0.03754217
117	0xbd48af9c	-0.0489956
118	0xbd0de5d4	-0.03464301
119	0x3cfb16c4	0.030650504
120	0x3c66f735	0.014097025
121	0x3d770385	0.06030609
122	0x3c48f5c5	0.012265627
123	0xbd6f90e8	-0.058487803
124	0x3d9ccbdf	0.07656073
125	0xbcf654b5	-0.030069688
126	0xbb9f469d	-0.0048607127
127	0x3d06d1da	0.032914974
