model_trained.pt (torch, 202174 bytes, 9 tensors)

rnn1.weight_ih_l0 f4 [128, 1]
0	0x3b3f865c	0.0029224372
1	0xbe2284ef	-0.15871023
2	0xb85118f7	-4.9852733e-05
3	0xbcd30487	-0.025758995
4	0xbd044f2e	-0.032302074
5	0xbc87f21c	-0.016594939
6	0x3c1cb381	0.009564281
7	0x3cd598eb	0.026073894
8	0x3d0a7726	0.033805035
9	0xbb5faa6f	-0.0034128686
10	0x3d16042b	0.03662507
11	0xbca6bfd9	-0.020355152
12	0x3dba1390	0.090857625
13	0xbbb270ed	-0.0054455907
14	0x3cde7d74	0.02715943
15	0x3cbaa8d2	0.022785578
16	0xbbd794fe	-0.0065790405
17	0xbce24999	-0.027622985
18	0x3cdbf413	0.026849782
19	0x3e25ecc6	0.16203603
20	0xbcdff7e1	-0.027339878
21	0xbc856134	-0.016281702
22	0xbc627a3f	-0.013823091
23	0xbc03c504	-0.008042578
24	0x3e3d11cf	0.18463825
25	0xbc770bf0	-0.01507853
26	0xbc5cb24a	-0.013470242
27	0x3cf8ec7c	0.030386202
28	0x3c11e3d6	0.008904418
29	0xbc0a0f15	-0.008426447
30	0xbcbb0f97	-0.022834582
31	0x3c3ebf79	0.01164233
32	0xbe040a66	-0.12894592
33	0xbd32e437	-0.043674674
34	0xbd31f1eb	-0.0434436
35	0xbc02bf8a	-0.007980237
36	0xbca5490a	-0.02017643
37	0x3c818bb4	0.015813686
38	0xbbfd428b	-0.00772888
39	0x3df2e008	0.11859137
40	0x3d326310	0.043551505
41	0x3c52f02b	0.012874643
42	0x3be63572	0.007025414
43	0xbc8fbbd8	-0.017545626
44	0xbd037ea6	-0.032103203
45	0xbc94098c	-0.018070959
46	0xbe172cf2	-0.14763239
47	0xbc647d49	-0.013945886
48	0x3dbc267e	0.09187029
49	0xbcbecc2a	-0.023290712
50	0x3c0707b4	0.008241583
51	0xbc23f2cd	-0.010006619
52	0xbdfff7fc	-0.12498471
53	0x3d03d445	0.032184858
54	0xbde91cc6	-0.11382441
55	0x3c0e4cd1	0.008685307
56	0xbcc5657c	-0.024096243
57	0x3c8ffc6d	0.01757642
58	0x3c9cac11	0.019125016
59	0xbc00374e	-0.007825686
60	0xbe27ef70	-0.16399932
61	0xbd40e430	-0.047092617
62	0x3c6b5bc9	0.014365145
63	0x3e156022	0.14587453
64	0x3c769b1f	0.015051632
65	0x3d505ae5	0.050867934
66	0x3cc662b9	0.024216997
67	0xbc54607b	-0.012962456
68	0x3c517afa	0.012785668
69	0xbc8dbc4c	-0.017301701
70	0x3c74bd02	0.014937641
71	0x3b3f6104	0.0029202113
72	0x3bdcf070	0.0067425296
73	0x3c9bbef8	0.01901196
74	0xbba7cb83	-0.005120696
75	0xbe0db224	-0.13837487
76	0x3c895e71	0.016768666
77	0xbb94561a	-0.0045268657
78	0xbd03254b	-0.032017987
79	0xbcbc93ec	-0.023019753
80	0x3caaba86	0.020840894
81	0x3d1a96f3	0.037741613
82	0x3b85ef3a	0.004087356
83	0x3cc8a850	0.02449432
84	0x3ceadcff	0.028669832
85	0xbcf99134	-0.030464746
86	0xbaeb72a4	-0.0017963243
87	0x3d22a586	0.039708637
88	0xbccae8bc	-0.02476918
89	0xbe293d33	-0.16527252
90	0xbcf240e1	-0.029571952
91	0xbcce36b5	-0.02517257
92	0xba885b42	-0.0010403174
93	0x3cf8da00	0.030377388
94	0xbc20bca2	-0.009810599
95	0xbce03d62	-0.02737302
96	0xbc01350a	-0.007886181
97	0xbc117969	-0.008879044
98	0x3d1bdd5c	0.0380529
99	0x3c0a147f	0.008427738
100	0xbbeb5df8	-0.007182833
101	0x3d3b3e32	0.04571361
102	0x3cb0e767	0.021594716
103	0x3c4ec152	0.012619333
104	0xbbf2a4db	-0.007404906
105	0xbc13b7f8	-0.00901603
106	0x3c41a973	0.011820185
107	0xbccdff78	-0.025146231
108	0x3da7d545	0.08194975
109	0xbce12953	-0.027485525
110	0xbcf0e4d4	-0.029405989
111	0xbb03e7b5	-0.0020127122
112	0xbc715dae	-0.014731808
113	0xbce22954	-0.027607597
114	0x3c8433a0	0.016137898
115	0x3d0652c5	0.03279378
116	0x3a76be6f	0.0009412532
117	0x3b9cd55c	0.0047861766
118	0xbc9ce57d	-0.019152397
119	0xbc4225e9	-0.011849859
120	0xbd3ff579	-0.04686496
121	0x39d43ee8	0.0004048266
122	0x3c7b9e03	0.015357497
123	0x3e22c2cc	0.15894622
124	0xbc0356f0	-0.008016333
125	0xbc5179b6	-0.012785366
126	0xbc532be1	-0.0128888795
127	0xbd140e2e	-0.036146335

rnn1.weight_hh_l0 f4 [128, 128]
0	0xbdf9e71b	-0.12202283
1	0xbc7e5576	-0.015523305
2	0x3d7a8859	0.061165188
3	0xbd2caec4	-0.042158857
4	0xbd896773	-0.067091845
5	0x3d188396	0.037234865
6	0xbdb66005	-0.08905033
7	0xbb5e51cb	-0.0033923264
8	0x3bc7a783	0.006092967
9	0x3c6d082c	0.01446728
10	0x3d89bc28	0.06725341
11	0xbe023139	-0.1271409
12	0xbd754879	-0.05988357
13	0xbc18c552	-0.009324389
14	0xbc04c74d	-0.008104158
15	0x3d2d6cb2	0.042339988
16	0xbc0c82d2	-0.008576112
17	0x3d00e433	0.031467628
18	0x3ce9be05	0.028532991
19	0xbcb37b37	-0.02190934
20	0x3dbeae88	0.09310633
21	0xbd5af3c2	-0.05345512
22	0x3c69526d	0.014240843
23	0x3d81a1bc	0.063296765
24	0x3d9e2d74	0.07723513
25	0x3d90b492	0.07065691
26	0xbdafc567	-0.085825734
27	0x3d87176a	0.06596263
28	0x3b6c9142	0.0036097323
29	0xbdcbc877	-0.09950345
30	0xbd82368e	-0.06358062
31	0xbd2f0bf5	-0.042736012
32	0xbd39e937	-0.045388427
33	0xbcdbec28	-0.026846007
34	0xbcaf82c6	-0.021424662
35	0xbdbe8fd1	-0.093047746
36	0xbd443f03	-0.047911655
37	0xbdb41c25	-0.08794431
38	0xbd7c2d54	-0.061566666
39	0x3d4f48eb	0.05060665
40	0x3dc469ca	0.0959049
41	0x3c30c617	0.010789416
42	0x3d620744	0.05518271
43	0x3cedae63	0.029013818
44	0xbda07f5f	-0.07836794
45	0x3ae84498	0.0017720638
46	0x3c83ff4d	0.016112948
47	0x3da2380f	0.079208486
48	0xbd3dc88b	-0.04633383
49	0xbd0d366d	-0.034475733
50	0x3bb08510	0.005386956
51	0x3d25395b	0.0403379
52	0x3da406ef	0.08009135
53	0x3caa645e	0.020799812
54	0xbcb42208	-0.021988884
55	0x3dc178af	0.09446847
56	0xbd8db666	-0.06919555
57	0x3ce89b53	0.028394377
58	0xbd0033f2	-0.03129954
59	0x3c2ae90a	0.010431537
60	0xbd897af5	-0.06712905
61	0xbc87c8ad	-0.016575182
62	0xbcf81171	-0.030281754
63	0x3da4b994	0.08043209
64	0x3d010b68	0.03150502
65	0xbc5baaf0	-0.013407454
66	0xbd31b52b	-0.043385666
67	0x3cd0a4e9	0.02546926
68	0x3d6c0bc0	0.057628393
69	0xbd9b0f5c	-0.07571289
70	0xbd03b1a0	-0.03215182
71	0xb9983efb	-0.00029038623
72	0x3de9741d	0.113991
73	0x3d7fede9	0.06248275
74	0xbbb73f88	-0.0055922903
75	0xbd86237d	-0.065497376
76	0x3d7b551c	0.061360464
77	0xbd273465	-0.04082145
78	0x3c8b2643	0.016986018
79	0xbd5a4411	-0.05328757
80	0xbc0d339f	-0.008618264
81	0x3d4a24b4	0.04935141
82	0x3d55db5e	0.052211158
83	0x3a7f10d6	0.0009729987
84	0x3c19b3b6	0.009381225
85	0xbc32d865	-0.01091585
86	0xbc1f8e2a	-0.009738484
87	0x3cbda5cc	0.023150347
88	0xbd998788	-0.07496554
89	0x3d71781f	0.058952447
90	0x3d815033	0.06314125
91	0xbd57e203	-0.052705776
92	0xbd10f271	-0.03538746
93	0x3d4b17c9	0.04958323
94	0x3d0db280	0.03459406
95	0xbd413b1c	-0.04717551
96	0x3d0f4a71	0.034983102
97	0x3d124e95	0.035719473
98	0x3dd874c2	0.10569145
99	0xbd119e43	-0.03555132
100	0xbcfb2b21	-0.030660214
101	0x3b9262aa	0.004467328
102	0xbae9d41a	-0.00178397
103	0xbc8bc297	-0.017060561
104	0xbd393257	-0.045214023
105	0xbd8a2518	-0.06745356
106	0xbd35c648	-0.04437855
107	0x391e23fd	0.00015081461
108	0xbc3dff90	-0.011596575
109	0x3d4fcc69	0.05073205
110	0x3daf988d	0.085740186
111	0x3d39ad78	0.04533145
112	0xbd1ec8fc	-0.038765892
113	0xbb9a3493	-0.0047059744
114	0x3c0fdd78	0.00878083
115	0xbd9e06f0	-0.07716167
116	0xbd409010	-0.04701239
117	0x3b1d6448	0.002401607
118	0x3c790f02	0.015201332
119	0xbd62cb11	-0.05536944
120	0x3bc65aa6	0.0060532866
121	0xbd54842e	-0.05188387
122	0x3d142b09	0.036173854
123	0x3d980ded	0.07424531
124	0x3db3e7cf	0.08784448
125	0x3c6d92a7	0.014500297
126	0x3d6c8f1e	0.057753675
127	0x3d9f154f	0.07767736
128	0x3d365894	0.04451807
129	0x3ca3e224	0.020005293
130	0x3d8e6a7b	0.06953903
131	0x3d028494	0.031864718
132	0xbd542586	-0.051793598
133	0xbd3cfbc1	-0.04613853
134	0x3db20ecc	0.086942285
135	0xbda9dad1	-0.08293689
136	0x3b6eeccf	0.0036457067
137	0x3d8aae96	0.06771581
138	0x3d3d7b7a	0.046260335
139	0x3c8cad33	0.017172432
140	0xbd873f0a	-0.066038206
141	0xbd954e68	-0.072903454
142	0x3dad8283	0.08472159
143	0xbde537e1	-0.11192299
144	0x3d4fb8fa	0.050713517
145	0xbcf8138e	-0.030282762
146	0x3c0fb36f	0.008770808
147	0xbdf820b4	-0.121156126
148	0xbc90f179	-0.017693268
149	0xbcd8c49c	-0.026460938
150	0x3cd55b79	0.026044594
151	0x3c5ef06e	0.013607128
152	0xbdbd8716	-0.09254281
153	0xbd8260e4	-0.06366137
154	0x3ddb0860	0.10694957
155	0x3cff7a1a	0.031186152
156	0xbca362e2	-0.019944612
157	0xbd3d53b1	-0.046222392
158	0xbdaee019	-0.08538837
159	0xbd7fde97	-0.062468138
160	0x3c575076	0.013141742
161	0xbb47f9a0	-0.0030513778
162	0x3c32d85f	0.010915845
163	0xbd62a543	-0.055333387
164	0xbd267582	-0.040639408
165	0x3d246c02	0.040142067
166	0x3d90df69	0.07073862
167	0x3a990fd2	0.0011677688
168	0xbcf24948	-0.029575959
169	0xbd81d54a	-0.0633951
170	0x3c8b69dc	0.017018251
171	0x3d117e9f	0.035521146
172	0x3d08b867	0.033378985
173	0xbd14ec33	-0.03635807
174	0x3ccf88d0	0.025333792
175	0x3c9d9aa5	0.01923878
176	0xbd0d0396	-0.034427248
177	0x3d1cd707	0.038291004
178	0xbd78ff03	-0.060790073
179	0xbd7a29b5	-0.06107493
180	0x3bc74300	0.006080985
181	0xbd38bfa2	-0.04510463
182	0xbd16f13e	-0.03685116
183	0x3cefc571	0.029268952
184	0x3d41de28	0.047331005
185	0x3d7e23cf	0.06204587
186	0xbcf9893e	-0.03046095
187	0x3cc0bbca	0.023527045
188	0x3df3b8ec	0.119005054
189	0x3d838722	0.06422259
190	0xbd870fe8	-0.06594831
191	0xbcf36e03	-0.029715544
192	0x3d3afdb5	0.04565211
193	0x3d5ebf49	0.054381642
194	0xbd52a3b1	-0.05142564
195	0x3cba60cd	0.022751236
196	0x3d59ddd6	0.053190075
197	0x3dc28b26	0.09499197
198	0x3d668a27	0.056284096
199	0xbd7d58d2	-0.061852284
200	0x3c6c187b	0.0144101335
201	0x3ca95bf1	0.020673724
202	0x3c1e1171	0.009647713
203	0x3dc58510	0.0964452
204	0x3ca53247	0.020165576
205	0xbbaef7b5	-0.0053395876
206	0xbca9aa0b	-0.020710966
207	0xbcbe316f	-0.023216931
208	0xbd2440ad	-0.040100742
209	0x3d72f2f1	0.05931372
210	0x3c397472	0.011319267
211	0xbd26de72	-0.040739484
212	0xbd76220c	-0.060091063
213	0x3d8a07b5	0.06739751
214	0xbd2fbdfb	-0.04290579
215	0x3d04e56e	0.032445364
216	0x3d1d0968	0.03833905
217	0x3d8f35de	0.06992696
218	0xbc866535	-0.016405681
219	0x3d3622bd	0.044466723
220	0x3d9fd374	0.07804003
221	0x3d199f1a	0.037505247
222	0xbd23334d	-0.039843846
223	0x3d9a983a	0.07548566
224	0x3d41a552	0.047276802
225	0xbd8ce4cd	-0.06879578
226	0x3d06a77a	0.03287456
227	0x3c330355	0.010926087
228	0x3dad9362	0.08475377
229	0xbc1ad280	-0.009449601
230	0xbd314735	-0.0432808
231	0x3d83dd46	0.06438689
232	0x3d8b7718	0.06809825
233	0x3daa4c63	0.08315351
234	0xbdd3cba9	-0.103415795
235	0xbd8d7d8d	-0.069087125
236	0xbdb6aa46	-0.08919196
237	0xbc93f774	-0.01806233
238	0xbd1ceda5	-0.038312573
239	0xbdbf3f35	-0.09338228
240	0x3d89ccd6	0.067285225
241	0xbd96517c	-0.07339761
242	0x3d7a0b5b	0.061045986
243	0x3d839c82	0.06426336
244	0xbae281ae	-0.0017281079
245	0x3b4a43c2	0.003086314
246	0xbce082b0	-0.027406067
247	0x3c55532c	0.013020318
248	0xbd1cb457	-0.038257923
249	0x3cd047c7	0.025424851
250	0xbd975432	-0.07389106
251	0xbc4b29e1	-0.012400121
252	0x3c3ec261	0.011643023
253	0xbd92c0b8	-0.071656644
254	0x3bcf8724	0.0063332487
255	0xbd33c41e	-0.043888204

rnn1.bias_ih_l0 f4 [128]
0	0x3c8eb9c9	0.017422574
1	0xbc14f57b	-0.00909173
2	0xbd88438f	-0.06653511
3	0x3d5babb2	0.05363054
4	0x3d5496e9	0.05190173
5	0x3d3694e5	0.04457559
6	0x3cc322ff	0.023820398
7	0x3cfa35f3	0.030543303
8	0x3c4e2cfc	0.012583967
9	0xbd03fc83	-0.032223236
10	0x3d79c5c4	0.06097962
11	0xbd541625	-0.05177893
12	0x3cd37a5f	0.025815187
13	0xbbed1b08	-0.0072358884
14	0xbd9b3fe5	-0.07580546
15	0xbbc7c518	-0.0060964935
16	0x3d2587f7	0.04041287
17	0x3cd9dde1	0.026595058
18	0xbbfc51d9	-0.0077001867
19	0x3c30bbfb	0.010787006
20	0xbc762d71	-0.0150254825
21	0x3d32204a	0.043487824
22	0xbce1584f	-0.02750793
23	0x3d2c053c	0.04199718
24	0xbdacfaaa	-0.08446248
25	0xbd767183	-0.060166847
26	0xbdbab64f	-0.09116804
27	0xbb95807f	-0.004562437
28	0xbc903128	-0.017601565
29	0x3d0c8bab	0.034312885
30	0x3d912ae6	0.0708826
31	0x3d93a2ee	0.07208811
32	0x3d7b49ac	0.061349556
33	0xbd4d9a7e	-0.050196163
34	0xbcd2808a	-0.025696058
35	0x3ba2e79b	0.004971457
36	0x3d7bdc51	0.061489407
37	0xbcf3f330	-0.029779047
38	0xbd89ee0e	-0.067348585
39	0xbddaff95	-0.1069328
40	0xbd02b342	-0.031909235
41	0xbbb92f2e	-0.005651376
42	0x3b619236	0.0034419424
43	0xbceeacac	-0.02913507
44	0x3d37b760	0.044852614
45	0x3dae77fd	0.0851898
46	0xbc0766ac	-0.008264225
47	0x3d32ed90	0.04368359
48	0xbd2927e9	-0.041297827
49	0x3d8b9b83	0.06816771
50	0x3caefca6	0.021360707
51	0x3d5cc1e7	0.053895857
52	0x3d292439	0.04129431
53	0x3c991474	0.01868651
54	0x3d903687	0.0704165
55	0x3da0adf8	0.07845682
56	0x3c4b054e	0.012391401
57	0x3cabfc79	0.020994412
58	0x3d60eab7	0.05491134
59	0x3a7f1153	0.00097300595
60	0x3cfcc8d7	0.030857487
61	0x3ce485f9	0.027895914
62	0xbc655819	-0.013998055
63	0x3c88ab8c	0.016683362
64	0x3d16ab28	0.03678432
65	0xbd1a2c4f	-0.037639912
66	0xbdc2fe92	-0.09521212
67	0x3b448d23	0.002999135
68	0xbb4a6598	-0.0030883309
69	0x3b75a288	0.003748091
70	0xbc974ae2	-0.018468324
71	0xbd889872	-0.06669702
72	0x3ced5fa3	0.028976267
73	0xbd44fcdb	-0.048092704
74	0x3dbbbca4	0.0916684
75	0x3d0f1cb5	0.034939487
76	0xbd3dd3da	-0.046344616
77	0x3d6cd8c0	0.057823896
78	0xbd39d162	-0.0453657
79	0xbba36e58	-0.0049875192
80	0x3d646009	0.05575565
81	0x3d1ae25c	0.03781353
82	0x3ba50bad	0.0050367923
83	0x3dc01f44	0.093809634
84	0xbcf77184	-0.030205496
85	0xbd3dc1ed	-0.04632752
86	0x3d249846	0.04018428
87	0xbbe51bfa	-0.0069918605
88	0x3d743a25	0.059625763
89	0xbd5d672c	-0.05405347
90	0x3c1c77d9	0.009550058
91	0xbd52885f	-0.051399585
92	0xbc90690e	-0.017628219
93	0xbd097b9b	-0.033565145
94	0x3a857824	0.00101829
95	0xbccd18ce	-0.025036242
96	0xbd8fa1d3	-0.070132874
97	0x3c8aa8da	0.016926218
98	0xbc77dd2c	-0.015128415
99	0x3cad142d	0.021127785
100	0x3ccdef63	0.025138563
101	0xbd946859	-0.07246465
102	0x3cbb9f52	0.022903118
103	0xbda5dd2d	-0.080988266
104	0x3c0570ef	0.008144601
105	0xbd30726d	-0.043077875
106	0x3dbafb80	0.09130001
107	0xbca5ae40	-0.02022469
108	0x3c7088ce	0.014681054
109	0xbdc5ed45	-0.09664396
110	0x3cefa18c	0.029251836
111	0x3c491f28	0.012275495
112	0x3d57afd3	0.052657913
113	0x3c94e7a3	0.01817686
114	0xbc893d7f	-0.016752956
115	0x3d0b6d18	0.034039587
116	0xbd8615d7	-0.06547134
117	0xbdb8fdd6	-0.0903279
118	0x3c8e7739	0.017390834
119	0x3d5da8cf	0.054116067
120	0xbacb7083	-0.0015521202
121	0x3d20e61b	0.039281946
122	0xbc130ecd	-0.008975697
123	0xbdc85175	-0.09781162
124	0xbd5d9d11	-0.05410487
125	0x3daad049	0.083405085
126	0x3cc64389	0.024202125
127	0x3bf26947	0.007397804

rnn1.bias_hh_l0 f4 [128]
0	0x3ca84b2a	0.020543654
1	0x3d87aac5	0.066243686
2	0xbae32e4d	-0.0017332524
3	0xbd1113ce	-0.035419278
4	0x3c92a2be	0.017899867
5	0xbdbae2b5	-0.09125272
6	0xbdbe02dc	-0.09277889
7	0x3c53799b	0.012907411
8	0xbd1388d2	-0.036019154
9	0x3d332b7b	0.043742638
10	0xbcab0587	-0.02087666
11	0xbcd40506	-0.025881302
12	0xbd92ed44	-0.07174161
13	0xbdc73a20	-0.09727883
14	0x3c81b7c3	0.015834695
15	0xbbf71c6d	-0.0075412304
16	0xbd30f996	-0.043206774
17	0xbc9b3710	-0.018947154
18	0xbd340316	-0.043948255
19	0xbd300222	-0.042970784
20	0x3d80175a	0.06254454
21	0xbc9faf3d	-0.01949274
22	0xbcb40e6c	-0.021979533
23	0xbcb80c0a	-0.022466678
24	0x3c70d1c3	0.014698449
25	0x3b94d168	0.0045415647
26	0x3d0059ae	0.031335525
27	0x3d87cba9	0.06630642
28	0x3dbfd908	0.09367567
29	0x3ccfd8cb	0.02537193
30	0x3da40c4e	0.080101594
31	0xbcd64bc9	-0.026159184
32	0xbbee0dde	-0.0072648367
33	0xbd05ac9a	-0.03263531
34	0x3da0c7d9	0.07850618
35	0x3d690335	0.056887824
36	0xbb9b25e5	-0.004734742
37	0x3cc36d05	0.023855696
38	0x3d0f587b	0.03499649
39	0x3d54a0c2	0.051911123
40	0x3dc07227	0.09396773
41	0x3d8925cb	0.066966616
42	0xbca41abe	-0.020032283
43	0xbd7c357a	-0.061574437
44	0x3be7a5b3	0.0070693134
45	0xbc48e171	-0.012260781
46	0x3da67c87	0.081292205
47	0x3c5349f6	0.012896052
48	0xbca47ba1	-0.020078482
49	0xbd1ff31f	-0.039050218
50	0xbc772bd6	-0.015086135
51	0xbca434ac	-0.020044647
52	0x3add8a7c	0.0016902233
53	0x3b69e766	0.0035690903
54	0xbc3f47c6	-0.011674827
55	0x3d61699a	0.05503235
56	0xbb4349ba	-0.0029798583
57	0x3d1f7cee	0.0389375
58	0x3d6de9ce	0.0580843
59	0xbdae74b0	-0.0851835
60	0x3d999315	0.07498757
61	0x3ce92417	0.028459592
62	0x3d933f76	0.071898386
63	0xbd5b3325	-0.053515572
64	0xbd35f667	-0.04442444
65	0xbd95e808	-0.07319647
66	0xbc91db65	-0.01780481
67	0x3d762ff6	0.060104333
68	0xbd432532	-0.047642894
69	0xbd0fa6fc	-0.035071358
70	0xbd4600d4	-0.048340634
71	0xbd63afd4	-0.055587605
72	0x3d8e1f16	0.06939523
73	0xbc28650e	-0.010278
74	0x3cfccdab	0.030859789
75	0x3c2c189d	0.010503915
76	0xbc311479	-0.010808104
77	0x3d580a4f	0.052744206
78	0x3d77cea9	0.06049982
79	0x3b94fbb7	0.0045466083
80	0xbbc6e3b4	-0.006069625
81	0x3c23447d	0.009965059
82	0x3d10a502	0.035313614
83	0xbcbbf8f1	-0.022945853
84	0x3daedf0c	0.085386366
85	0x3c32e71f	0.010919361
86	0x3d3a96dd	0.04555403
87	0x3d8059e7	0.062671475
88	0x390d04c8	0.00013448589
89	0x3dd801b2	0.10547198
90	0x3c9a7831	0.01885614
91	0x3c97b0ff	0.018517016
92	0x3cac203a	0.02101146
93	0x3d7c1c04	0.061550155
94	0xbd4337a4	-0.047660485
95	0xbc383177	-0.011242262
96	0x3d20d8c7	0.039269235
97	0xbd54fc02	-0.051998146
98	0xbc1d68eb	-0.009607534
99	0xba46f617	-0.0007589771
100	0x3d33f423	0.043934
101	0xbc1eadc2	-0.009684982
102	0x3d35e41b	0.04440699
103	0x3d2dbde6	0.04241743
104	0xbbde3648	-0.006781373
105	0xbd9e5208	-0.0773049
106	0xbc43df23	-0.011955055
107	0xbd01a919	-0.031655405
108	0xbd92d368	-0.07169229
109	0x3d4788d9	0.048714492
110	0xbd47f582	-0.04881812
111	0x3b84b649	0.0040500504
112	0xbcd4fa17	-0.025998158
113	0xbd2cf7ea	-0.042228617
114	0xbce5758a	-0.028010149
115	0xbd9a4d28	-0.07534248
116	0x3d6e4851	0.058174435
117	0x3d82eff0	0.06393421
118	0x3c603913	0.013685483
119	0x3ceccce7	0.028906299
120	0x3d36cd04	0.044629112
121	0x3d887a0e	0.06663905
122	0xbc8c5162	-0.01712865
123	0x3d36e199	0.04464874
124	0x3bd338b8	0.0064459704
125	0xbd5bdff8	-0.05368039
126	0xbc326ec2	-0.0108906645
127	0xbd0a49a9	-0.033761654

rnn1.weight_ih_l1 f4 [128, 128]
0	0x3d999c88	0.07500559
1	0x3db33d97	0.08751982
2	0x3d7346fe	0.059393875
3	0x3cafbc28	0.021452025
4	0xbc443deb	-0.011977653
5	0x3c2b6f32	0.010463523
6	0x3c4854ca	0.012227247
7	0x3d9b34fe	0.07578467
8	0x3ca81fe3	0.020523017
9	0x3dfc6687	0.12324243
10	0x3d08d41c	0.03340541
11	0x3d16c6ac	0.036810562
12	0x3bd34a4d	0.0064480663
13	0xbd7d9e6a	-0.061918654
14	0xbc73d5c6	-0.0148825105
15	0xbcde8328	-0.02716215
16	0xbcb49911	-0.022045644
17	0x3b8ad5c8	0.0042369105
18	0xbd767904	-0.060174003
19	0x3d0c6d22	0.034283765
20	0x3cba4ad5	0.02274076
21	0xbc6603f1	-0.014039026
22	0x3cff7ebe	0.031188365
23	0x3d09e802	0.033668526
24	0xbd821b2e	-0.0635284
25	0x3c56f7e2	0.013120623
26	0xbbe21c13	-0.0069003194
27	0x3d0e8901	0.034798626
28	0xbcfbb5d0	-0.030726343
29	0x3dc9fbce	0.09862481
30	0x3e0df32c	0.13862294
31	0xbd74f840	-0.059807062
32	0xbbfec282	-0.007774652
33	0xbe022402	-0.12709048
34	0x3d474cd1	0.048657242
35	0xbdda02ab	-0.1064504
36	0xbd2a79ed	-0.041620184
37	0xbcd50e91	-0.026007922
38	0xbcaa7331	-0.02080688
39	0xbd5d468d	-0.05402236
40	0xbd1e0592	-0.03857953
41	0x3d3787d5	0.044807274
42	0x3d7cb8ec	0.061699793
43	0x3d14e42f	0.036350425
44	0x3d9032ca	0.07040937
45	0xbd3cd451	-0.04610092
46	0xbc533bc0	-0.0128926635
47	0xba9f1859	-0.0012137993
48	0x3b3df236	0.002898348
49	0x3c75ab0b	0.014994393
50	0x3e074314	0.13209182
51	0xbd413d5b	-0.047177654
52	0x3d393497	0.04521617
53	0x3cab178e	0.020885255
54	0xbd2d5067	-0.042313006
55	0x3d97abcb	0.07405814
56	0xbdacfc27	-0.08446532
57	0x3c8f7f1f	0.01751667
58	0x3b6e5e14	0.0036371993
59	0x3c93a580	0.018023252
60	0x3d8effec	0.06982407
61	0xbd2aca33	-0.04169674
62	0xbc49a3d5	-0.012307127
63	0xbd884009	-0.06652839
64	0xbd669be6	-0.05630102
65	0x3c9a231f	0.018815575
66	0xbd0038a4	-0.031304017
67	0xbc9aa6c1	-0.018878343
68	0xbd0c51c5	-0.03425767
69	0xbd0a62fa	-0.033785798
70	0xbc386eaa	-0.011256853
71	0xbd7a6058	-0.061127037
72	0xbdac4330	-0.084112525
73	0xbdef4381	-0.11682797
74	0xbd044638	-0.03229353
75	0x3db95a8f	0.09050476
76	0xbd01cdf9	-0.03169057
77	0xbb21e0fe	-0.0024700756
78	0x3d222f19	0.039595697
79	0xbba2aec8	-0.004964683
80	0x3dd25d54	0.10271707
81	0xbd2f7b4a	-0.042842187
82	0xbd7e9cb7	-0.062161174
83	0x3ce796f7	0.028270228
84	0x3c97f103	0.01854754
85	0x3d8332d0	0.06406176
86	0x3de3b075	0.11117641
87	0x3d69dadf	0.057093497
88	0xbd3f46ba	-0.04669831
89	0xbcafa67c	-0.02144169
90	0x3c951436	0.018198114
91	0x3dcb2915	0.09919945
92	0x3d3feb67	0.046855357
93	0x3cec9e10	0.028883964
94	0xbcd12142	-0.025528554
95	0xbd16be7e	-0.03680276
96	0xbd97e4f4	-0.07416716
97	0x3c7dcfe7	0.015491462
98	0xbcd23732	-0.025661085
99	0xbdfef0a5	-0.12448243
100	0x3dbdb8f0	0.0926379
101	0xbda6c60c	-0.08143243
102	0x3b5aec36	0.0033404953
103	0xbd9c5529	-0.076334305
104	0x3d1a7781	0.037711624
105	0xbd25dc87	-0.040493514
106	0xbca17fed	-0.01971432
107	0xbd5aefd9	-0.053451393
108	0x3d9a40da	0.07531901
109	0x3ad79a10	0.0016449112
110	0x3d3b59fd	0.045740116
111	0xbd8f8316	-0.070074245
112	0xbda7dadf	-0.08196043
113	0xbcfb77b4	-0.030696727
114	0x3d9b05ed	0.0756949
115	0xbd14276b	-0.036170404
116	0x3d28b19e	0.041185014
117	0x3b826094	0.003978798
118	0xbcb13986	-0.021633875
119	0x3bd6d51a	0.0065561654
120	0xbd1c46f3	-0.0381536
121	0x3d13bbff	0.03606796
122	0x3cc2de74	0.023787715
123	0x3ccb5782	0.024822
124	0x3b8e14c9	0.004335974
125	0x3d8b6625	0.06806592
126	0x3d8c9ce2	0.068658605
127	0xbd993f16	-0.07482736
128	0x3d09ab4d	0.03361063
129	0xbd78acea	-0.06071178
130	0xbd306bb9	-0.043071482
131	0xbd997b98	-0.07494277
132	0x3d116d7d	0.035504807
133	0xbb7006eb	-0.0036625217
134	0x3bc32952	0.0059558535
135	0xbc782f0e	-0.015147937
136	0xbd07ed4b	-0.033185285
137	0xbdacdce5	-0.0844057
138	0xbd91cb44	-0.07118848
139	0x3dbad83e	0.09123276
140	0xbd100d74	-0.03516908
141	0x3bfe59f0	0.007762186
142	0x39979863	0.000289145
143	0xbd18554b	-0.037190717
144	0xbc33d9d0	-0.0109772235
145	0x3c532e0f	0.012889399
146	0x3db1a0c5	0.086732425
147	0x3d2b22a3	0.04178108
148	0x3cb6bba2	0.022306267
149	0x3bdc7bb6	0.0067286147
150	0x3d6c2c3d	0.057659376
151	0xbca0c591	-0.019625457
152	0x3ba3985d	0.0049925284
153	0xbca0b389	-0.019616859
154	0x3d5e3e89	0.054258857
155	0xbd18e70a	-0.03732971
156	0x3c27ddce	0.010245753
157	0x3d81ad6b	0.06331905
158	0xbd9b3576	-0.07578556
159	0xbccf1aaf	-0.025281278
160	0x3d848a5f	0.06471705
161	0x3d10bdb6	0.035337172
162	0x3d740e72	0.05958409
163	0x3d2275f7	0.03966328
164	0xbd8346b8	-0.06409973
165	0x3d73acb8	0.05949089
166	0xbd4bc542	-0.049748667
167	0xbd8de4e4	-0.06928423
168	0xbd78e0de	-0.060761325
169	0xbd4339d1	-0.04766256
170	0xbcf6c4b3	-0.03012309
171	0x3d8b9940	0.068163395
172	0x3da7a7f2	0.0818633
173	0xbd462ee8	-0.048384577
174	0x3c60bee5	0.013717388
175	0x3c111265	0.008854483
176	0x3dc6c452	0.09705414
177	0xbe19c96a	-0.1501824
178	0x3d978768	0.073988736
179	0xbd175538	-0.036946505
180	0xbcb2b57e	-0.021815058
181	0xbcf7a46e	-0.030229773
182	0xbd166627	-0.036718514
183	0x3ca0f389	0.019647377
184	0xbcb8281e	-0.022480067
185	0xbdb137e5	-0.08653239
186	0x3d0aabbe	0.033855192
187	0x3d776d3d	0.060406912
188	0xbd893d81	-0.06701184
189	0x3bb02e48	0.005376611
190	0xbdbdd9a3	-0.092700265
191	0x3b777b7d	0.0037762814
192	0x3d97c820	0.07411218
193	0x3d821cca	0.06353147
194	0x3d4d1745	0.05007102
195	0xbd00397b	-0.031304818
196	0x3d5f78d2	0.054558583
197	0xbd066788	-0.03281358
198	0x3d94ecdc	0.0727174
199	0xbce1b837	-0.02755366
200	0xbd78003b	-0.060547095
201	0x3d2ac506	0.041691802
202	0x3cc221fd	0.023697848
203	0x3d8aef1a	0.06783886
204	0xbd23ef19	-0.040022943
205	0xbdcdc2ea	-0.100469425
206	0xbcc81ad5	-0.024426857
207	0x3d9ff9dc	0.07811329
208	0x3cf981cf	0.030457405
209	0xbd224ac7	-0.039622094
210	0x3d2f59c7	0.042810228
211	0xbd8ae9cc	-0.067828745
212	0x3c9cb6ea	0.019130189
213	0x3d2f90bc	0.04286264
214	0x3cd1d00e	0.025611904
215	0x3c2f9c94	0.0107184835
216	0x3c452068	0.012031652
217	0xbda41993	-0.080126904
218	0x3cfe2461	0.031023206
219	0x3b4a37d7	0.0030856037
220	0x3dbeb432	0.09311713
221	0x3c40d081	0.011768461
222	0x3d50545d	0.050861705
223	0x3cc1f1cd	0.02367487
224	0xbb2cffa0	-0.0026397482
225	0xbdaf198e	-0.08549796
226	0x3ae55de8	0.00174993
227	0xbd46851e	-0.048466794
228	0x3b858e4a	0.0040758
229	0xbd6e198e	-0.05812984
230	0xbdb9158c	-0.09037313
231	0x3d75b2ff	0.059985157
232	0x3c920335	0.017823795
233	0x3c67f8c1	0.014158429
234	0xbd93bca7	-0.07213717
235	0x3dc8944e	0.09793912
236	0x3d7d2f82	0.061812885
237	0x3da2f85f	0.07957529
238	0x3d894b01	0.06703759
239	0x3c8f5df3	0.017500853
240	0x3bb7a341	0.005604178
241	0x3b32ce5a	0.002728364
242	0x3c85ba6a	0.01632424
243	0xbcaead22	-0.02132279
244	0x3d68654e	0.056737237
245	0x3d9891d2	0.07449688
246	0xbcfa6742	-0.030566815
247	0xbb49641e	-0.003072984
248	0x3ceceb7d	0.028920883
249	0xba9d09ce	-0.0011981071
250	0xbc84a219	-0.016190575
251	0xbd034c8d	-0.032055426
252	0xbd24c4e4	-0.040226832
253	0x3cd5add8	0.026083872
254	0xbc508ef8	-0.012729399
255	0xbd64a5ec	-0.055822298

rnn1.weight_hh_l1 f4 [128, 128]
0	0xbe7e5d38	-0.24840248
1	0x3ab67d24	0.0013922793
2	0x3d6b8a63	0.057505023
3	0x3dc22622	0.094799295
4	0xbab013a2	-0.0013433585
5	0x3cb4e177	0.022080166
6	0xbd610a00	-0.054941177
7	0x3c1a0874	0.009401429
8	0x3d0aed75	0.033917863
9	0x3ca868b3	0.020557737
10	0xbd0e1755	-0.03469022
11	0x3d9d06a5	0.07667283
12	0x3c5d9151	0.013523416
13	0xbd6c7886	-0.057732128
14	0x3c3ac486	0.011399394
15	0x3da05751	0.07829154
16	0x3d94bb9a	0.07262345
17	0x3dd2dd77	0.10296147
18	0x3d725918	0.059166998
19	0x3bcf831b	0.0063327677
20	0xbd91ef10	-0.07125676
21	0xbd135285	-0.03596737
22	0x3d1b2236	0.037874423
23	0x3cb79ee2	0.022414628
24	0xbd09213f	-0.03347897
25	0xbcf5b5cc	-0.029993914
26	0xbe04d80c	-0.1297304
27	0x3dc5546a	0.09635241
28	0x3cbeb023	0.023277348
29	0xbd29942f	-0.041401085
30	0x3c925bc5	0.017866025
31	0xbcc916ca	-0.024547
32	0xbe004c76	-0.12529168
33	0xbcd8c02f	-0.026458828
34	0x3da73986	0.081652686
35	0xbdaf6781	-0.08564664
36	0xbd8044a4	-0.06263092
37	0x3c354153	0.011062938
38	0x3c5fe4fc	0.013665434
39	0xbdaf2dc7	-0.08553653
40	0xbd8b8027	-0.068115525
41	0x3e29310a	0.16522613
42	0x3cfbf195	0.030754844
43	0x3d998648	0.07496315
44	0x3cd8a827	0.026447369
45	0x3bba1abf	0.005679458
46	0xbd0ae57a	-0.033910252
47	0x3d81629c	0.06317636
48	0x3e3f3371	0.18671967
49	0x3d0dda5f	0.034632083
50	0xbcf5f0ac	-0.030021988
51	0x3d9e49f6	0.07728951
52	0x3d543685	0.051809806
53	0xbd00c65e	-0.031439178
54	0xbd3a09b4	-0.04541941
55	0x3caca343	0.021073943
56	0xbd32a0fe	-0.043610565
57	0xbd7e58fb	-0.062096577
58	0x3d04c1e3	0.032411467
59	0xbc020e5a	-0.007937992
60	0xbd17bf28	-0.037047535
61	0xbdd4e63d	-0.10395477
62	0x3bbd8d86	0.005784693
63	0x3d5e0f0b	0.054213565
64	0x3dcc2ded	0.09969697
65	0xbbb7a08d	-0.005603856
66	0x3d9d3f8b	0.076781355
67	0x3c2f0967	0.010683394
68	0xbda1591c	-0.078783244
69	0xbd70548d	-0.058674384
70	0xbcbfd016	-0.023414653
71	0x3ce057aa	0.027385551
72	0xbc8ac687	-0.016940368
73	0x3d759f0d	0.059966136
74	0xbd2d9aeb	-0.04238407
75	0xbcf1c03e	-0.029510614
76	0xbe0cdce9	-0.13756146
77	0x3cd942d0	0.026521116
78	0xbbdd7289	-0.0067580384
79	0xbc0fd44a	-0.008778641
80	0xbcf36f0d	-0.02971604
81	0xbda9ba30	-0.082874656
82	0x3d83f7d9	0.064437576
83	0x3db4230e	0.08795749
84	0xbd9f62db	-0.07782527
85	0x3d1d1c8f	0.038357314
86	0x3cacf6ce	0.02111378
87	0x3d9f291c	0.07771513
88	0xbad3ebda	-0.0016168312
89	0xbd98a6d1	-0.07453693
90	0xbddf8df2	-0.10915746
91	0xbd4137da	-0.047172405
92	0xbd8f0da5	-0.06985024
93	0x3d6d8b59	0.05799422
94	0xbe01dd24	-0.12682015
95	0xbd95a9ec	-0.07307801
96	0x3bddec24	0.006772535
97	0x3d088acc	0.033335492
98	0xbd4c6bc0	-0.049907446
99	0x3d663458	0.056202263
100	0xbd1666e2	-0.03671921
101	0x3dd65816	0.1046602
102	0xbc9e8f1c	-0.01935535
103	0xbcf528d3	-0.029926693
104	0xbda186aa	-0.07887013
105	0x3cce1c65	0.025160024
106	0x3e02ec11	0.12785365
107	0x3d7550bf	0.05989146
108	0xbcd9039c	-0.026490979
109	0x3d80a505	0.06281475
110	0x3d03acde	0.03214728
111	0x3c3326f7	0.010934583
112	0xbdc19f3a	-0.09454198
113	0xbe1165b8	-0.14198959
114	0xbc4e82d2	-0.012604432
115	0xbdbd5ce8	-0.09246236
116	0x3d919bc0	0.07109785
117	0xbd2c3730	-0.04204482
118	0x3e346849	0.17617907
119	0x3d9cf1ef	0.07663333
120	0x3d20ef42	0.039290674
121	0xbcf54a5d	-0.029942686
122	0xbc7b50c7	-0.015339083
123	0x3d0ce149	0.034394536
124	0x3d59a3e9	0.053134833
125	0x3d069b20	0.032862782
126	0xbd025d83	-0.03182746
127	0x3da3022b	0.07959398
128	0xbdc7722f	-0.09738576
129	0xbe63c95f	-0.22244786
130	0xbd8c5a35	-0.06853143
131	0x3d39727f	0.045275208
132	0xbbf727ab	-0.0075425706
133	0x3d90bad5	0.070668854
134	0xbdc9a63f	-0.09846162
135	0xbcd9141d	-0.026498849
136	0x3d7fb8ce	0.062432103
137	0xbcb15e9d	-0.02165156
138	0xbd9c63fd	-0.07636259
139	0x3d16c377	0.036807504
140	0x3c71b6e0	0.014753073
141	0x3d98a170	0.07452667
142	0x3dc28d6b	0.094996296
143	0xbcb68931	-0.022282215
144	0xbd25fd40	-0.04052472
145	0xbda83f40	-0.08215189
146	0x3d6f3e23	0.058408868
147	0x3d810a53	0.06300797
148	0xbd72cc99	-0.05927715
149	0xbdbe40ba	-0.09289689
150	0xbd8d81d3	-0.06909528
151	0xbd60a732	-0.05484695
152	0xbd586e5e	-0.05283963
153	0x3d0ec50a	0.03485588
154	0x3c7f7f9e	0.015594391
155	0xbd0b33b2	-0.033984847
156	0xbc4f5d2e	-0.012656493
157	0x3d4962a5	0.04916634
158	0x3c6a26e2	0.014291497
159	0xbd7ece1d	-0.062208284
160	0xbd49b030	-0.04924029
161	0x3e0dc364	0.13844067
162	0xbd35fe0c	-0.04443173
163	0xbe2457c8	-0.16049111
164	0xbce62577	-0.028094037
165	0x3ca67840	0.020321012
166	0xbd80a798	-0.06281966
167	0xbdc2176b	-0.09477123
168	0x3c1384ad	0.0090038
169	0xbdc00964	-0.09376791
170	0xbd3c5165	-0.04597606
171	0x3b566a91	0.0032717327
172	0xbd268613	-0.040655207
173	0x3c84f977	0.016232235
174	0xbc1e81b7	-0.009674481
175	0xbca7701a	-0.020439196
176	0xbc887787	-0.016658558
177	0xbd3cb7cb	-0.046073716
178	0xbdd73358	-0.1050784
179	0xbd67f5a8	-0.05663076
180	0x3cfdaf3b	0.030967345
181	0x3d278a4f	0.040903386
182	0xbd6b8b31	-0.05750579
183	0x3d973565	0.07383231
184	0x3d445a85	0.04793789
185	0x3d92556f	0.071452014
186	0x3d1f3544	0.038869157
187	0x3cd5b4d0	0.026087195
188	0x3aa887e1	0.0012857878
189	0x3d4a54fa	0.049397446
190	0x3dc5efef	0.09664904
191	0x3c80f74d	0.015742922
192	0xbd9155a7	-0.07096415
193	0x3d5965cf	0.053075608
194	0x3c13aa24	0.009012733
195	0xbd730a02	-0.059335716
196	0xbcb961be	-0.022629615
197	0x3ccc9fce	0.024978545
198	0x3c9d321c	0.019188933
199	0xbd829e60	-0.06377864
200	0xbc873268	-0.016503528
201	0xbe06d036	-0.13165364
202	0x3d049909	0.03237251
203	0x3dddc28f	0.10828125
204	0xbd089bd6	-0.03335174
205	0x3d9758e6	0.07390003
206	0xbdc906ce	-0.09815751
207	0x3a6d61f4	0.00090554287
208	0xbbddfd14	-0.006774554
209	0xbdadf994	-0.08494869
210	0x3c4c1c26	0.012457883
211	0xbd1d611a	-0.03842268
212	0x3d8729e0	0.06599784
213	0xbd72b2c7	-0.059252527
214	0xbd81e8fc	-0.06343266
215	0x3d7303a8	0.05932966
216	0xbd0e0c92	-0.034679957
217	0x3d29d849	0.04146603
218	0x3c9045f3	0.01761148
219	0x3c928f6c	0.017890655
220	0x3d885bb4	0.06658116
221	0x3ca11fa7	0.019668413
222	0x3bfaceed	0.007654062
223	0xbdb72e65	-0.08944396
224	0x3c4c501c	0.012470271
225	0xbca03147	-0.019554747
226	0x3d9daf0d	0.07699404
227	0x3c9675af	0.018366663
228	0x3d5952bc	0.053057417
229	0xbd983275	-0.07431499
230	0xbd56f6a0	-0.052481294
231	0x3d5ab4c3	0.053395044
232	0xbd6541ec	-0.05597107
233	0xbc2f63f3	-0.010704982
234	0xbd32b47f	-0.043629166
235	0x3e07b2ae	0.13251755
236	0xbd5e09cb	-0.054208558
237	0x3d823bc6	0.06359057
238	0xbd56067d	-0.05225228
239	0xb9efd1c8	-0.00045741932
240	0x3d1551fa	0.036455132
241	0x3cfd1e30	0.030898184
242	0x3dad0f4a	0.08450182
243	0xbcc573fa	-0.024103153
244	0x3da70981	0.081561096
245	0x3dd1648d	0.10224257
246	0x3b90451a	0.004402769
247	0x3de67055	0.112518944
248	0x3d3d84a7	0.046269085
249	0xbb9594ca	-0.004564856
250	0xbdcc18ac	-0.09965643
251	0x3c3ef0b9	0.011654072
252	0x3d6e2f66	0.05815067
253	0xbb0f3c50	-0.0021856017
254	0x3df2682b	0.11836275
255	0x3d137b14	0.03600605

rnn1.bias_ih_l1 f4 [128]
0	0x3dcdb8bb	0.10045
1	0x3c0fd8f8	0.008779757
2	0x3c623664	0.013806913
3	0xbcae7fa2	-0.021301094
4	0xbdae847f	-0.085213654
5	0xbd5aa102	-0.053376205
6	0x3d237e10	0.039915144
7	0xbbb5c3e0	-0.0055470318
8	0x3d74a392	0.059726305
9	0x3d0feccf	0.035137948
10	0x3d34c7ac	0.044135734
11	0xbdcb163b	-0.099163495
12	0xbd64ed5b	-0.055890422
13	0xbd5112dc	-0.051043376
14	0xbc1cefde	-0.009578673
15	0x3d041eef	0.032256063
16	0x3c47ea3c	0.012201842
17	0xbbc2a13f	-0.005939632
18	0x3dd9e04b	0.106384836
19	0x3c74b6e3	0.014936182
20	0xbdb3597f	-0.087573044
21	0x3d045aca	0.032313146
22	0xbbff121e	-0.007784142
23	0x3c55c602	0.013047697
24	0x3d0b9ad8	0.034083217
25	0x3d0a08c2	0.03369976
26	0xbd0eac59	-0.034832332
27	0x3bf83a8a	0.007575338
28	0xbda97297	-0.082738094
29	0x3c2b3a18	0.010450862
30	0xbda82f32	-0.08212127
31	0xbd42176b	-0.047385614
32	0xbd9b9242	-0.07596256
33	0xbc23e74e	-0.010003878
34	0x3d82c8e2	0.063859716
35	0x3d837b48	0.064199984
36	0x3c9576fc	0.018245213
37	0xbc678eda	-0.01413318
38	0xbdfa5f37	-0.12225192
39	0xbb783f58	-0.0037879553
40	0xbcbaaa49	-0.022786276
41	0xbcdb95be	-0.026804801
42	0xbdbb9f5f	-0.09161257
43	0x3c4c4ef3	0.012469995
44	0xbd62f535	-0.05540963
45	0xbc47c535	-0.012193014
46	0xbd5e1d4f	-0.05422717
47	0xbd6102db	-0.054934364
48	0x3d3ec1ca	0.04657153
49	0xbd52ea80	-0.051493168
50	0x3d240ff2	0.04005427
51	0x3bac0108	0.0052491464
52	0x3d220cd8	0.03956303
53	0xbda3dd59	-0.08001203
54	0xbb91fad0	-0.004454948
55	0x3d6948d5	0.056954224
56	0xbd8dd2a9	-0.06924946
57	0x3ca5d778	0.020244345
58	0x3bebc3dc	0.007194979
59	0x3ca47995	0.020077506
60	0x3d6fa70a	0.05850891
61	0xbd3008f2	-0.04297728
62	0x3cf84e0c	0.030310653
63	0x3b6c7bd4	0.003608455
64	0x3d825491	0.06363786
65	0xbd9d0eab	-0.07668813
66	0xbd00e465	-0.031467814
67	0x3d4f5d0b	0.050625842
68	0xbdd69c2b	-0.104790054
69	0xbcb9d1b5	-0.022683004
70	0xbbd631b1	-0.0065366854
71	0xbb0932e7	-0.0020934881
72	0x3cadbbf8	0.021207795
73	0x3d698c1a	0.057018377
74	0xbcf72a73	-0.030171609
75	0x3c673396	0.01411142
76	0x3c9849ec	0.018589936
77	0x3dca17fa	0.098678544
78	0xbc2abc1f	-0.010420828
79	0x3d54fcec	0.051999018
80	0xba8a5766	-0.0010554611
81	0x3d047a91	0.03234345
82	0x3c2e03b2	0.010620998
83	0x3d65f94f	0.056145962
84	0xbcef9131	-0.029244037
85	0xbb9f4e52	-0.0048616314
86	0x3d88c948	0.06679016
87	0x3d411814	0.047142103
88	0xbd0c3607	-0.034231212
89	0xbd32dbff	-0.043666836
90	0x3d2b630a	0.041842498
91	0xbd889e4c	-0.06670818
92	0x3cc39673	0.02387545
93	0x3d8dd49c	0.06925318
94	0xbd797dc3	-0.06091095
95	0xbd533793	-0.05156667
96	0xbc410b40	-0.011782467
97	0xbd51e116	-0.05124005
98	0x3cc68ba2	0.024236504
99	0x3857b258	5.142609e-05
100	0x3da7ac56	0.08187167
101	0xbd2ebce6	-0.042660616
102	0xbc1c805a	-0.009552086
103	0xbc826883	-0.015918976
104	0xbd83c90c	-0.06434831
105	0x3db9b239	0.090671964
106	0x3d47921b	0.04872332
107	0xbbd27f03	-0.0064238324
108	0xbc90b54f	-0.01766458
109	0x3d42fc30	0.047603786
110	0x3d4e5164	0.05037059
111	0xbc7bfea2	-0.015380533
112	0xbdd8b1d8	-0.10580796
113	0x3c820116	0.015869658
114	0xbc8d1548	-0.017222062
115	0xbd419c95	-0.04726847
116	0x3d81a244	0.06329778
117	0xbbf15ac8	-0.0073655583
118	0x3c452b5e	0.012034265
119	0xbd8e0a00	-0.06935501
120	0x3c97a355	0.0185105
121	0xbda729e3	-0.08162286
122	0x3b97de51	0.0046346565
123	0x3dd04026	0.10168485
124	0xbd56b382	-0.052417286
125	0x3c8c9848	0.017162457
126	0x3b03cae2	0.0020109941
127	0x3da24f8f	0.07925331

rnn1.bias_hh_l1 f4 [128]
0	0xbd0e428d	-0.034731437
1	0x3bd08a19	0.006364119
2	0x3d0c7da6	0.034299515
3	0xbc484bd0	-0.012225106
4	0xbcab603a	-0.020919908
5	0xbc145475	-0.009053339
6	0xbcc25262	-0.023720924
7	0x3d4ad172	0.04951615
8	0xbdb5eed8	-0.088834465
9	0xbd81a475	-0.06330196
10	0x3c0d09c1	0.008608283
11	0x3d4e0455	0.0502971
12	0x3cadaccc	0.02120056
13	0xbc4655a9	-0.012105384
14	0xbc865934	-0.016399957
15	0xbd76286c	-0.060097143
16	0x3d13ed15	0.03611477
17	0x3d68c153	0.056824993
18	0xbd4ef16a	-0.0505232
19	0x3d297023	0.041366708
20	0x3d2c3514	0.042042807
21	0xbc9fd5fd	-0.019511217
22	0x3d1462bd	0.036226977
23	0xbd679097	-0.056534376
24	0x3c2d75ea	0.010587195
25	0x3b549cba	0.003244205
26	0xbd267767	-0.040641215
27	0xbd47b9a7	-0.048761036
28	0x3cde601c	0.027145438
29	0x3e0506f7	0.12990938
30	0x3ce1b7e6	0.02755351
31	0x3c3b4e4d	0.011432243
32	0xbd33a140	-0.04385495
33	0xbdc47fe6	-0.09594707
34	0xbcc17b36	-0.023618322
35	0xbdb03071	-0.086029895
36	0xbd3a0987	-0.045419242
37	0x3d993197	0.07480162
38	0xbaf789e7	-0.0018885703
39	0xbdba837a	-0.091071084
40	0xbc7adee9	-0.015311935
41	0x3d21a30f	0.039462145
42	0x3d8bb522	0.06821658
43	0x3e03f7d9	0.12887515
44	0x3c73e58b	0.01488627
45	0xbd72f0f1	-0.05931181
46	0xbd0f3478	-0.034962147
47	0x3cd9ceca	0.026587863
48	0x3c823a17	0.01589684
49	0x3ccd77ab	0.025081476
50	0x3dca7d0a	0.098871306
51	0xbc716f57	-0.014736018
52	0x3d87bb67	0.06627541
53	0x3d8e0003	0.06933596
54	0xbb9077b6	-0.004408802
55	0xbc708a17	-0.014681361
56	0xbb358a48	-0.002770083
57	0x3b9506b9	0.0045479205
58	0x3cf155f2	0.029459927
59	0xbd298013	-0.041381907
60	0x3dbe2226	0.09283857
61	0xbd10d23b	-0.03535674
62	0x3d76ee0a	0.060285605
63	0xbc842eec	-0.016135655
64	0x3d912be9	0.07088453
65	0x3cfd9d13	0.030958688
66	0xbd569a58	-0.052393287
67	0xbdc7f38d	-0.097632505
68	0xbd37517d	-0.044755448
69	0xbcefd3a6	-0.029275727
70	0xb94102a7	-0.00018406902
71	0x3ce9f539	0.028559314
72	0x3d342297	0.0439783
73	0xbdd032df	-0.10165953
74	0xbcfd33e1	-0.030908527
75	0x3bacb64f	0.0052707563
76	0xbda1be51	-0.07897628
77	0xbc1db1f9	-0.0096249515
78	0xbd3ee19c	-0.046601877
79	0x3bc04514	0.0058676098
80	0xbda31556	-0.07963054
81	0x3cb32d85	0.021872291
82	0xbdba13d1	-0.09085811
83	0xbd1fe0bd	-0.039032687
84	0x3d07f50b	0.033192676
85	0xbb95d99c	-0.00457306
86	0x3c2011e6	0.009769892
87	0x3d1abcf3	0.037777852
88	0x3de02ef2	0.10946454
89	0x3c9faf5d	0.0194928
90	0x3c4d962e	0.012548013
91	0x3d2e5eb8	0.0425708
92	0x3d498294	0.049196795
93	0x3b119aec	0.0022217585
94	0xbda4f1bd	-0.080539204
95	0x3d75be1c	0.059995756
96	0x3dcec357	0.10095852
97	0x3c4e84a2	0.012604864
98	0x3d5337b7	0.051566806
99	0x3ac9020d	0.0015335694
100	0xbd2160a5	-0.039398808
101	0x3cf34e96	0.029700559
102	0x3d604f56	0.05476316
103	0xbdcc9eec	-0.099912494
104	0x3d95d167	0.07315331
105	0xbbf2b6a0	-0.0074070245
106	0x3d77f5b2	0.060537048
107	0xbb76b890	-0.003764663
108	0xbc14ce1c	-0.009082343
109	0x3d48b42d	0.048999954
110	0xbce49160	-0.027901351
111	0x3bc78e58	0.0060899667
112	0xbc9e4438	-0.019319639
113	0xbd68da46	-0.056848787
114	0x3caa3f9e	0.020782288
115	0xbd391bb6	-0.045192443
116	0xbddda0f0	-0.10821712
117	0xbc9a1f51	-0.018813761
118	0x3d136400	0.03598404
119	0xbca6bc77	-0.020353539
120	0x3d03d253	0.032183003
121	0x3cc19461	0.023630323
122	0x3d98b07f	0.07455539
123	0xbd5e0555	-0.054204304
124	0x3d575d72	0.05257935
125	0xbd7a2c4e	-0.06107741
126	0xbcd177e6	-0.025569867
127	0x3b5b191f	0.0033431721

fc.weight f4 [1, 128]
0	0xbbdc155e	-0.0067164144
1	0x3d03cef5	0.03217979
2	0x3d107637	0.03526899
3	0x3c4b210f	0.0123980185
4	0xbc01dceb	-0.007926206
5	0xbd1b2352	-0.03787548
6	0xbd18fc6c	-0.037350103
7	0x3d6a1433	0.05714817
8	0xbb8bb71d	-0.004263772
9	0x3a9bfe89	0.0011901419
10	0xbd451e98	-0.04812488
11	0x3d1df167	0.038560297
12	0xbc18074e	-0.009279085
13	0xbb1525a7	-0.0022758038
14	0x3c5c02b5	0.01342838
15	0x3ae09f19	0.0017137259
16	0xbbbf5935	-0.0058394917
17	0xba8ee144	-0.0010900875
18	0x3d362f8a	0.04447893
19	0x3c9d392b	0.019192299
20	0x3b325687	0.002721222
21	0x3cb6f9f8	0.022335991
22	0xbc2b0f75	-0.010440697
23	0xbc904a67	-0.017613603
24	0xbc0aff44	-0.008483712
25	0x3bf57af5	0.0074914643
26	0xbb1afe5d	-0.0023650147
27	0x3c0e0905	0.008669143
28	0xbb83ea5d	-0.004025741
29	0x3cc82b64	0.024434753
30	0xbbffb1d1	-0.00780318
31	0xbd2770f3	-0.0408792
32	0x3d873230	0.066013694
33	0xbc053e91	-0.008132593
34	0x3badc83d	0.0053034113
35	0x3c94bcf5	0.018156508
36	0xbd194253	-0.037416767
37	0x3c2d5ba9	0.0105809355
38	0xbc7a9d51	-0.015296296
39	0xbb4f73c4	-0.0031654695
40	0xb9fcc7d8	-0.0004821408
41	0xbd10149f	-0.035175916
42	0xbce52dc1	-0.027975919
43	0x3c7e2264	0.015511129
44	0x3c13eabe	0.009028135
45	0xbd3d5d74	-0.046231702
46	0xbd009701	-0.03139401
47	0xbc5d1a5c	-0.013495054
48	0x3c2cb804	0.01054192
49	0x3b86c0b3	0.004112327
50	0x3ca61913	0.020275628
51	0x3c7ba7c5	0.015359824
52	0x3cba4270	0.022736758
53	0x3ca2b1dc	0.0198602
54	0xbd03dfab	-0.03219573
55	0x3c1b1c7f	0.009467243
56	0xbbe0a7b2	-0.0068559283
57	0xbb128179	-0.0022355004
58	0xbbf216a6	-0.007387954
59	0x3d206d51	0.039166752
60	0x3c8e4d24	0.017370768
61	0xbd3fbcb9	-0.04681084
62	0x3c1e5b91	0.009665386
63	0x3b1700a8	0.0023041163
64	0x3b919951	0.0044433256
65	0x3ca9e387	0.020738376
66	0xbd6d4b90	-0.05793339
67	0xbd083077	-0.033249345
68	0x3c8e34f1	0.017359229
69	0xbbec2755	-0.007206837
70	0x3b075a2e	0.0020653117
71	0xbd220b2d	-0.03956144
72	0x3d366fcc	0.04454021
73	0xbd2633c6	-0.04057672
74	0xbcbd7e4e	-0.023131516
75	0x3d266f0d	0.04063325
76	0x3d5a2ee6	0.053267382
77	0xbb1a8d3d	-0.002358272
78	0xbd11ba3a	-0.03557799
79	0xbb05ce59	-0.0020417182
80	0x3c5764c9	0.013146588
81	0x3d4aa8d7	0.049477424
82	0xbd5892b6	-0.05287429
83	0x3d64e468	0.055881888
84	0x3d246838	0.040138453
85	0x3ca3b4cb	0.01998367
86	0x3b8dcfb1	0.0043277373
87	0x3d1a8c1c	0.037731275
88	0x3c631b5d	0.013861504
89	0x3b875038	0.004129436
90	0x3b2e65dd	0.0026611008
91	0xbd07fc4a	-0.033199586
92	0x3d3887bd	0.045051325
93	0x3cac525f	0.021035371
94	0x3bd71bdf	0.006564602
95	0x3d0f87bd	0.03504156
96	0xbd3370a3	-0.04380859
97	0x3d1167a9	0.03549925
98	0x3d687edb	0.056761604
99	0x3b73667c	0.0037139943
100	0xb9c6b33f	-0.00037899052
101	0x3b106346	0.0022031828
102	0x3bcfcc41	0.0063414876
103	0x3c36767c	0.011136647
104	0x3d33e3f2	0.043918557
105	0x3b647ca5	0.0034864333
106	0x3d0dc470	0.034611166
107	0x3c30863d	0.010774192
108	0x3bcbdb25	0.0062211924
109	0x3c994d74	0.01871369
110	0xbd759626	-0.059957646
111	0x3bfdcafb	0.0077451444
112	0xbc13a1ae	-0.009010715
113	0xbba935e5	-0.0051638954
114	0x3d1d7cad	0.03844898
115	0x3b6da2e4	0.003626042
116	0xbd185b22	-0.037196286
117	0x3b8af8e9	0.004241098
118	0xbc31e681	-0.010858179
119	0x3d294118	0.041321844
120	0x3bd9b434	0.0066437963
121	0xbb9a3c20	-0.0047068745
122	0x3cf1a55c	0.029497795
123	0xbc9b96d4	-0.018992819
124	0x3dafa5a2	0.08576514
125	0xbceb346c	-0.02871152
126	0x3a07001c	0.00051498576
127	0xbd17c60e	-0.037054114
