model_trained.pt (torch, 202110 bytes, 9 tensors)

rnn1.weight_ih_l0 f4 [128, 1]
0.01879862 -0.04842452 -0.03201979 0.021044565 0.0289746 0.115137026 0.031838775 0.01349737
0.034520626 -0.11070805 -0.0333318 0.019936627 0.007891712 -0.013328735 0.013087067 -0.024750948
0.042190783 -0.036523513 -0.04006004 -0.05827205 -0.041564282 0.05222895 0.015013304 -0.031081969
-0.04618161 0.07768699 0.060725477 -0.004537298 0.024158547 0.0097350245 0.026487708 0.021138102
0.113592036 0.03997514 -0.017635254 -0.107468165 0.08498553 0.036082666 0.03902222 -0.060521822
-0.114102244 0.057356633 -0.015312823 0.017581733 0.021392737 -0.04924915 0.04308887 0.061282776
-0.051341914 -0.111989655 -0.034720365 -0.029149514 -0.057316735 0.020445338 0.016584272 -0.026346153
0.051479496 0.025329385 -0.059526283 0.020957373 -0.0043173525 0.066645324 -0.016625963 0.03645633
-0.112513766 0.050264783 0.017500967 0.03127219 -0.01200407 0.11263385 -0.11375944 0.11256587
0.112145565 -0.02015758 0.026331294 -0.017267385 0.11138294 -0.014231919 -0.03155573 -0.030335968
-0.1141122 -0.035668354 0.03569307 -0.019869559 0.110660315 -0.027941154 -0.024174701 -0.027873872
0.044491906 -0.022998825 -0.038271245 0.11357575 -0.019201363 -0.02768576 0.034180958 0.048946895
-0.05019865 -0.035340305 -0.052765895 0.04671452 0.039321773 0.04352978 -0.047898397 -0.040906396
-0.041653477 0.03803924 -0.11378169 0.043619122 -0.11303956 -0.019274002 -0.045755655 -0.042181794
-0.010787651 0.027801996 0.02046899 -0.048165597 -0.051277306 0.03936633 -0.03316147 0.10220965
-0.040207118 -0.03357722 -0.04307256 0.075118534 0.03756891 0.020382972 -0.017992528 0.01778707
00000000: 90ff 993c ca58 46bd 2f27 03bd a765 ac3c
00000010: 245c ed3c f6cc eb3d 6069 023d 1324 5d3c
00000020: 8065 0d3d e7ba e2bd ed86 08bd 2352 a33c
00000030: 3d4c 013c c460 5abc 236b 563c 80c2 cabc
00000040: 3ed0 2c3d ae99 15bd ff15 24bd acae 6ebd
00000050: 4f3f 2abd 06ee 553d 5cfa 753c 9d9f febc
00000060: ee28 3dbd 5b1a 9f3d 47bb 783d 9dad 94bb
00000070: 25e8 c53c a77f 1f3c c0fc d83c d029 ad3c
00000080: f1a2 e83d f9bc 233d cf77 90bc 4518 dcbd
00000090: e50c ae3d 6bcb 133d c3d5 1f3d bbe5 77bd
000000a0: 70ae e9bd caee 6a3d a2e2 7abc 9107 903c
000000b0: d23f af3c 7ab9 49bd f47d 303d a603 7b3d
000000c0: e64b 52bd d55a e5bd f136 0ebd f6ca eebc
000000d0: f4c4 6abd fb7c a73c bddb 873c e3d3 d7bc
000000e0: 2adc 523d 927f cf3c d5d1 73bd ccae ab3c
000000f0: 9478 8dbb 587d 883d 2c33 88bc 3c53 153d
00000100: 9e6d e6bd 72e2 4d3d 305e 8f3c 4517 003d
00000110: b8ac 44bc 93ac e63d b6fa e8bd ef88 e63d
00000120: 93ac e53d 8221 a5bc bab4 d73c 5574 8dbc
00000130: bd1c e43d ff2c 69bc 9540 01bd 2383 f8bc
00000140: a8b3 e9bd fb18 12bd e632 123d 7cc5 a2bc
00000150: e0a1 e23d d9e4 e4bc 060a c6bc bf57 e4bc
00000160: 253d 363d 0868 bcbc 4fc2 1cbd 679a e83d
00000170: 2d4c 9dbc 3fcd e2bc 5501 0c3d 8a7c 483d
00000180: 1a9d 4dbd ffc0 10bd 0d21 58bd b957 3f3d
00000190: de0f 213d 484c 323d 1c31 44bd 778d 27bd
000001a0: d69c 2abd 09cf 1b3d 6006 e9bd f7a9 323d
000001b0: 4981 e7bd 83e4 9dbc 486a 3bbd d1c6 2cbd
000001c0: b0be 30bc 03c1 e33c 95ae a73c 4a49 45bd
000001d0: 2708 52bd 973e 213d 52d4 07bd 4b53 d13d
000001e0: 38b0 24bd 4488 09bd da6c 30bd bfd7 993d
000001f0: dbe1 193d 31fa a63c 1165 93bc 30b6 913c

rnn1.weight_hh_l0 f4 [128, 128]
-0.060224377 -0.12103927 -0.015498324 -0.00091882993 0.040839225 -0.02441789 0.029095283 0.025729148
-0.0545892 0.03829829 0.008872541 0.07677147 -0.029439716 -0.055301692 -0.03591699 0.02802468
0.14526936 0.08423736 -0.0199054 0.0043015066 -0.14694569 0.042300574 0.017272683 0.06118265
-0.045521557 0.016096253 0.021959722 -0.09029285 -0.036275316 -0.043310627 0.07417351 -0.052663565
-0.09583004 -0.04339134 0.044146717 -0.014457998 -0.030713806 -0.08746596 0.10748963 0.05632698
0.05502186 0.07946158 0.055280816 -0.022195932 -0.04832935 -0.02400444 0.0523735 -0.034810368
-0.09245545 0.07550621 -0.022732705 -0.027723614 -0.067159764 0.06331268 0.0415797 0.079559
0.059796568 -0.07479765 0.08757975 0.08194324 0.019815171 -0.11088687 -0.123935886 -0.030211588
0.09526593 -0.068971604 0.025161548 -0.0037196141 -0.07935969 -0.07953527 -0.054720685 0.048464466
0.01352345 -0.081874266 -0.0999474 0.017462935 -0.056878526 -0.026617303 -0.024574963 0.018890005
0.10363765 -0.10680782 -0.0029075958 0.04716856 0.029287072 -0.015230196 0.04759367 0.015108644
-0.013937659 0.034830723 -0.035312116 -0.06969758 0.0043446654 0.058311287 0.01770753 -0.0074270833
0.09230893 0.10125973 -0.11359525 0.022994222 -0.055911686 -0.03826219 0.02879712 -0.12523
-0.02573628 0.12281767 0.090546094 -0.049416557 0.063284844 0.06955801 -0.046893224 0.06919463
-0.0037360615 -0.029269895 -0.054493323 0.059360046 -0.033515796 0.03272881 0.06902335 -0.08205484
-0.017080229 0.04309173 -0.004305589 -0.01383676 -0.060019065 -0.041443642 -0.03998363 -0.0020767248
0.079360805 -0.0620493 -0.0338517 0.09907952 0.10624528 0.101404876 -0.047772225 0.0109971985
0.0120140435 -0.0066156406 -0.047968153 -0.106580384 -0.034480054 0.021699699 0.14231728 -0.05586784
-0.12456103 -0.11840256 0.03974358 0.026450407 -0.014759698 0.112013735 -0.033826172 0.020020999
-0.09017974 0.056536194 0.0010377317 -0.022086456 0.11695486 -0.030480102 -0.13005988 -0.0132427905
0.063805535 0.12161647 -0.07081217 -0.09665926 0.03830514 0.12249228 -0.066003025 -0.08578979
-0.11197102 -0.036423173 0.053035334 -0.054971095 0.0020406763 -0.13611452 -0.04370436 0.092344604
0.08174703 -0.072667286 0.050442595 -0.048518304 0.050833937 -0.017753158 -0.0974049 -0.030164024
-0.0015079429 -0.031665903 0.044270758 -0.08906315 0.15030175 0.015710337 0.005815328 -0.02199589
-0.106437 0.0008974673 0.0043035727 0.098437026 0.0719519 0.03344007 -0.090414174 0.104637116
0.03603854 0.10593828 0.10992722 -0.02555907 0.10927422 0.005169122 0.014652057 0.037986845
-0.099512115 0.020037228 0.10195712 0.0453197 0.041087914 0.053147197 -0.12501363 0.05220043
0.10896761 0.056821905 -0.04705876 0.026012065 -0.11773225 -0.06565435 0.078018524 0.10371995
-0.060776215 0.022413982 0.16523843 0.07160311 0.013596748 0.013188638 0.03852178 -0.035780467
-0.017374279 -0.059772685 -0.03930903 0.09067459 -0.03503397 0.033973634 0.13715659 -0.0014798983
-0.00077321095 0.012216838 0.03278096 -0.10908148 -0.027589342 -0.11252831 -0.0834408 0.021400593
0.07180433 0.03346639 0.027723901 0.005213701 -0.029240608 0.096876316 0.12297092 -0.0768508
00000000: d6ad 76bd 70e3 f7bd afec 7dbc a2dd 70ba
00000010: 0847 273d 0708 c8bc 3b59 ee3c efc5 d23c
00000020: ed98 5fbd abde 1c3d 225e 113c 5c3a 9d3d
00000030: 8f2b f1bc 0784 62bd b21d 13bd 0494 e53c
00000040: 7ec1 143e a384 ac3d a610 a3bc a7f3 8c3b
00000050: ee78 16be 5e43 2d3d 717f 8d3c a99a 7a3d
00000060: d074 3abd 4adc 833c e0e4 b33c 75eb b8bd
00000070: 6d95 14bd 7c66 31bd 48e8 973d c0b5 57bd
00000080: 8a42 c4bd 1ebb 31bd 30d3 343d 3de1 6cbc
00000090: 859b fbbc 5a21 b3bd 8623 dc3d 1fb7 663d
000000a0: 9a5e 613d c1bc a23d 236e 623d 3ed4 b5bc
000000b0: fff4 45bd f6a4 c4bc 9885 563d 5195 0ebd
000000c0: 4859 bdbd 00a3 9a3d f039 babc a21c e3bc
000000d0: 0f8b 89bd 14aa 813d 7a4f 2a3d d4ef a23d
000000e0: 3fed 743d 832f 99bd 035d b33d dbd1 a73d
000000f0: 6d53 a23c a818 e3bd 19d2 fdbd 4b7e f7bc
00000100: c91a c33d fc40 8dbd 971f ce3c c5c4 73bb
00000110: 5587 a2bd 63e3 a2bd cc22 60bd ad82 463d
00000120: 7691 5d3c b2ad a7bd 39b1 ccbd 6e0e 8f3c
00000130: 75f9 68bd 880c dabc 6f51 c9bc 36bf 9a3c
00000140: fa3f d43d 0fbe dabd 5d8d 3ebb d233 413d
00000150: 71eb ef3c 1288 79bc 95f1 423d 3f8a 773c
00000160: c75a 64bc a9aa 0e3d 70a3 10bd 9bbd 8ebd
00000170: b25d 8e3b d1d7 6e3d 620f 913c e45e f3bb
00000180: 770c bd3d 4361 cf3d a0a4 e8bd 615e bc3c
00000190: a703 65bd d0b8 1cbd f0e7 eb3c 4b3c 00be
000001a0: e4d4 d2bc d587 fb3d 3b70 b93d 0469 4abd
000001b0: 7c9b 813d 6e74 8e3d 1c13 40bd eab5 8d3d
000001c0: b6d8 74bb 6bc7 efbc 6434 5fbd 8523 733d
000001d0: dc47 09bd a50e 063d 1d5c 8d3d 5e0c a8bd
000001e0: d6eb 8bbc f480 303d e615 8dbb 94b3 62bc
000001f0: 8dd6 75bd cfc0 29bd e0c5 23bd a919 08bb
00000200: eb87 a23d 6827 7ebd 15a8 0abd 34ea ca3d
00000210: 2097 d93d 5cad cf3d cfac 43bd 982d 343c
00000220: 8dd6 443c 04c8 d8bb 417a 44bd d146 dabd
00000230: f53a 0dbd 91c3 b13c 9fbb 113e add5 64bd
00000240: da19 ffbd 0b7d f2bd 2aca 223d 86ae d83c
00000250: a9d2 71bc 7567 e53d 508d 0abd 1403 a43c
00000260: 28b0 b8bd 7f92 673d 7f04 883a a8ee b4bc
00000270: 0886 ef3d 68b1 f9bc 6b2e 05be 4af8 58bc
00000280: 7aac 823d 0e12 f93d f905 91bd 4af5 c5bd
00000290: dae5 1c3d 3cdd fa3d 982c 87bd 8fb2 afbd
000002a0: 1051 e5bd 7730 15bd 943b 593d 5f29 61bd
000002b0: debc 053b 9b61 0bbe 5803 33bd 2b1f bd3d
000002c0: fd6a a73d 96d2 94bd e59c 4e3d 21bb 46bd
000002d0: 3f37 503d 126f 91bc 387c c7bd 8b1a f7bc
000002e0: 2ba6 c5ba 1bb4 01bd 4155 353d be66 b6bd
000002f0: b4e8 193e f7b2 803c 828e be3b ba30 b4bc
00000300: a4fb d9bd 0344 6b3a fc04 8d3b 5a99 c93d
00000310: 855b 933d 74f8 083d 112b b9bd fc4b d63d
00000320: 269d 133d 2bf6 d83d 8621 e13d 4161 d1bc
00000330: 2acb df3d bd61 a93b 2e0f 703c 1898 1b3d
00000340: 02cd cbbd 1d25 a43c e5ce d03d 26a1 393d
00000350: cd4b 283d e0b0 593d 9303 00be 1ed0 553d
00000360: 692a df3d 16be 683d b0c0 40bd 4117 d53c
00000370: 9b1d f1bd ca75 86bd 2dc8 9f3d 206b d43d
00000380: 7bf0 78bd 879d b73c 4334 293e a7a4 923d
00000390: e5c4 5e3c 2815 583c 04c9 1d3d 8a8e 12bd
000003a0: 8154 8ebc 34d4 74bd 8102 21bd 99b3 b93d
000003b0: c87f 0fbd f027 0b3d c772 0c3e 26f9 c1ba
000003c0: 4fb1 4aba 2229 483c 5445 063d 1c66 dfbd
000003d0: 0b03 e2bc 3e75 e6bd 03e3 aabd 4c50 af3c
000003e0: 260e 933d 0e14 093d 3c1d e33c b2d7 aa3b
000003f0: 008a efbc 1767 c63d 2dd8 fb3d f463 9dbd

rnn1.bias_ih_l0 f4 [128]
0.038343724 -0.019156788 0.006382189 -0.02268925 -0.0017488303 -0.017719788 -0.03752934 0.03268339
-0.10514444 -0.09836097 0.0681573 -0.030413736 -0.08890186 -0.013604613 0.18601136 -0.0039568543
0.03355859 -0.006562357 0.09817515 0.06620995 -0.009290328 -0.10843618 -0.09248813 -0.026935093
0.006815234 0.06030088 0.032435074 0.0449789 0.004284337 0.005466235 -0.0020693224 0.0172651
-0.025936423 0.0891012 -0.012519587 -0.20557784 0.07392668 0.07472549 0.046016008 -0.0872921
0.0119738635 -0.04131262 -0.010680462 0.010950588 -0.10895686 -0.035505954 -0.04664189 -0.026338106
0.093585886 -0.094721645 0.07323914 0.07904805 -0.088397115 -8.886861e-05 0.046311446 -0.009808805
-0.113856964 0.085590295 0.04173715 0.047664177 0.017073985 0.07128189 0.07701289 0.030626435
-0.059613112 0.018765075 0.061218128 0.047897086 -0.036462635 0.037535176 0.008513547 0.0021626465
0.041369576 0.1142979 0.009693984 0.073608235 0.044617184 -0.051282108 0.04142718 0.087027326
-0.0459568 0.0074816644 -0.009770168 0.14976658 0.012784205 -0.05384073 -0.08649811 -0.06571151
-0.021165783 -0.037646677 0.11763026 -0.0475067 0.0014116116 -0.012765432 -0.013635745 0.035674516
-0.100668654 0.02539086 0.014703173 0.03808892 -0.08329095 -0.07203794 -0.020403383 0.052509923
-0.04279824 0.022066513 -0.04243616 -0.059607197 -0.03523057 0.030925471 0.09618521 -0.07418913
-0.06292721 -0.097450666 -0.05466049 -0.11269506 -0.11764382 -0.025400946 0.035732746 0.01899947
0.094159134 0.08382071 -0.008085843 -0.062028572 -0.011435564 0.06192384 0.051497597 -0.06835318
00000000: 4f0e 1d3d b2ee 9cbc af21 d13b cede b9bc
00000010: 0239 e5ba 1729 91bc 5db8 19bd 05df 053d
00000020: f855 d7bd 7a71 c9bd 0e96 8b3d 3a26 f9bc
00000030: 2e12 b6bd e2e5 5ebc c379 3e3e 80a8 81bb
00000040: bb74 093d 0a09 d7bb 0e10 c93d 1599 873d
00000050: 7636 18bc ca13 debd 6b6a bdbd fca6 dcbc
00000060: 5452 df3b 0efe 763d a4da 043d cc3b 383d
00000070: a063 8c3b 1a1e b33b 789d 07bb 8a6f 8d3c
00000080: 9f78 d4bc b17a b63d f41e 4dbc ff82 52be
00000090: df66 973d ad09 993d 487b 3c3d 33c6 b2bd
000000a0: 062e 443c 6c37 29bd 1bfd 2ebc 186a 333c
000000b0: c624 dfbd b16e 11bd 910b 3fbd 03c3 d7bc
000000c0: f5a9 bf3d 6cfd c1bd 67fe 953d f2e3 a13d
000000d0: 8c09 b5bd f95e bab8 12b1 3d3d 1cb5 20bc
000000e0: d72d e9bd f749 af3d 93f4 2a3d 833b 433d
000000f0: bede 8b3c 3dfc 913d efb8 9d3d 4ae4 fa3c
00000100: e12c 74bd 37b9 993c dcbf 7a3d bc2f 443d
00000110: d859 15bd 7cbe 193d 677c 0b3c 30bb 0d3b
00000120: 2573 293d 0415 ea3d 84d3 1e3c eabf 963d
00000130: 82c0 363d 300d 52bd 8caf 293d 623b b23d
00000140: 333d 3cbd c028 f53b 0e13 20bc 695c 193e
00000150: d874 513c 1988 5cbd ec25 b1bd c293 86bd
00000160: dd63 adbc 6733 1abd 22e8 f03d 6396 42bd
00000170: d305 b93a 1a26 51bc 7668 5fbc 711f 123d
00000180: 5e2b cebd 7e00 d03c 94e5 703c 2103 1c3d
00000190: 7294 aabd a188 93bd ff24 a7bc a514 573d
000001a0: 354d 2fbd d5c4 b43c 8ad1 2dbd ad26 74bd
000001b0: ee4d 10bd 6a57 fd3c c0fc c43d 78f0 97bd
000001c0: fbdf 80bd 3794 c7bd aee3 5fbd abcc e6bd
000001d0: 3eef f0bd a515 d0bc 805c 123d c7a4 9b3c
000001e0: 81d6 c03d 31aa ab3d 7c7a 04bc ac11 7ebd
000001f0: 3b5c 3bbc daa3 7d3d 25ef 523d c1fc 8bbd

rnn1.bias_hh_l0 f4 [128]
-0.08384008 0.029096046 -0.030550914 0.008916622 -0.015577368 -0.065490566 -0.016102921 0.0019527597
0.03095082 -0.11921636 0.09800082 -0.047677793 0.04204518 0.03663052 0.021669773 0.018161783
0.043826796 0.058930706 0.12267097 -0.06158577 0.05987346 -0.008323711 -0.12880233 0.036990914
0.069381356 -0.017330857 0.03613763 0.05153963 0.01387905 0.08943359 -0.06949055 -0.030354004
0.06428001 0.09109735 0.06566507 -0.09059801 0.08650299 0.027006725 -0.009338196 -0.1750493
-0.017562 -0.1066413 -0.018143056 0.02108953 -0.12925157 -0.009000123 -0.13212623 -0.07211719
0.066695385 -0.07017674 -0.07140897 0.09789799 -0.025181554 0.07286668 0.0048818695 0.081923924
0.023089822 0.0021983946 0.0039803586 -0.06442722 0.044538837 0.0775612 0.0043623396 0.05364033
-0.01666875 -0.10024897 0.021485113 0.036926713 0.093621 0.075346746 -0.03417645 0.11734597
0.04907715 0.0007428772 0.002463602 0.08203998 0.03704118 0.034582905 -0.047812756 -0.057256386
0.046719093 0.07004383 -0.052973844 0.012304516 0.1494931 0.08642409 -0.14167035 0.006182575
0.008642314 -0.039834924 0.061804432 0.09073499 0.040539805 0.0432845 -0.023130799 -0.08434492
-0.16171822 -0.020735836 0.09405188 0.019350415 0.046962727 0.074461505 0.107445106 0.042795926
0.066464975 -0.023535052 0.021285623 -0.08226127 -0.016556587 0.085762724 -0.051992275 0.07028746
0.03238453 -0.058770876 -0.04102614 -0.018686464 -0.026985178 -0.09253387 0.03199765 0.15382865
0.08765685 -0.010018896 -0.094216265 0.042869836 0.030223813 -0.07683196 -0.01746483 0.059353586
00000000: 59b4 abbd d55a ee3c e945 fabc 0617 123c
00000010: 3838 7fbc eb1f 86bd 46ea 83bc bef3 ff3a
00000020: 938c fd3c b527 f4bd a7b4 c83d ca49 43bd
00000030: 9137 2c3d e209 163d cf84 b13c 05c8 943c
00000040: ba83 333d 5361 713d eb3a fb3d 5c41 7cbd
00000050: e03d 753d 2d60 08bc c2e4 03be c983 173d
00000060: d017 8e3d 71f9 8dbc 0d05 143d 381b 533d
00000070: f464 633c f528 b73d 1051 8ebd f6a8 f8bc
00000080: 3da5 833d 3f91 ba3d 697b 863d 738b b9bd
00000090: 7b28 b13d 353d dd3c 3cff 18bc 2040 33be
000000a0: 2fde 8fbc c166 dabd bfa0 94bc f3c3 ac3c
000000b0: 865a 04be 4075 13bc 194c 07be 2db2 93bd
000000c0: 9797 883d d3b8 8fbd de3e 92bd be7e c83d
000000d0: 8c49 cebc 203b 953d 17f8 9f3b bbc7 a73d
000000e0: de26 bd3c f112 103b ab6d 823b 6bf2 83bd
000000f0: 5b6e 363d 68d8 9e3d f5f1 8e3b f6b5 5b3d
00000100: e78c 88bc 554f cdbd 8c01 b03c 7740 173d
00000110: 5ebc bf3d 654f 9a3d 9bfc 0bbd 1553 f03d
00000120: 1f05 493d a5bd 423a 6274 213b 9404 a83d
00000130: 7eb8 173d cea6 0d3d 4fd7 43bd ac85 6abd
00000140: 855c 3f3d 2473 8f3d 1afb 58bd e198 493c
00000150: b814 193e 1dff b03d 0812 11be 3397 ca3b
00000160: 7e98 0d3c f229 23bd a526 7d3d 44d3 b93d
00000170: 110d 263d 164b 313d cd7c bdbc 08bd acbd
00000180: 7699 25be 33de a9bc 469e c03d c384 9e3c
00000190: fd5b 403d 467f 983d 2e0c dc3d c84a 2f3d
000001a0: ca1e 883d 95cc c0bc 305f ae3c 9978 a8bd
000001b0: aea1 87bc 5ea4 af3d daf5 54bd dff2 8f3d
000001c0: a4a5 043d bbb9 70bd 070b 28bd 5b14 99bc
000001d0: 0510 ddbc 6682 bdbd f80f 033d 4285 1d3e
000001e0: 6f85 b33d 4c26 24bc 75f4 c0bd 4898 2f3d
000001f0: ee97 f73c 135a 9dbd 6712 8fbc bf1c 733d

rnn1.weight_ih_l1 f4 [128, 128]
-0.0113809295 0.03424971 0.0022403582 -0.087781996 -0.08692549 0.026712777 -0.013593022 -0.09584168
-0.050827026 0.0144019285 0.10015169 -0.054913837 -0.079797655 0.045823105 0.012802855 0.054141458
-0.11045658 0.051477235 -0.054466315 0.037721064 0.02824983 -0.09862894 0.004881786 0.01931605
-0.060862366 -0.026182063 -0.058542594 -0.009522143 -0.096357286 -0.001927103 0.057594154 0.052157708
0.033828374 -0.00432102 -0.02090706 0.014658405 -0.0029799743 0.04444627 0.047680344 -0.0019571546
0.03141321 -0.04781624 0.007823866 0.049967915 0.017978784 0.031261414 -0.02919684 -0.10213312
0.10608494 0.06968098 -0.042513173 0.089802705 -0.05676763 -0.07283284 -0.058666077 0.02286248
-0.013849174 -0.020649893 0.06310964 0.017869852 0.060542796 -0.0058047534 0.04952905 0.058589574
0.103363484 0.043917097 -0.016754577 -0.0401679 0.06281519 0.028276036 -0.02406293 -0.04975494
0.050039023 0.01896678 -0.09234851 0.034794822 0.020807164 -0.007860488 0.09286947 0.06501003
0.10802616 0.09756105 -0.09614804 0.07908667 -0.116047285 0.039068718 -0.06776043 -0.002406504
-0.06961411 0.06443269 -0.051335204 0.0020358448 0.036722068 -0.06569618 -0.116775565 0.004271261
0.062572606 -0.012084195 0.10324195 -0.09827649 0.0458176 0.0057198643 0.11511536 0.0038890087
-0.025820632 -0.0001371304 0.09277912 -0.033862587 0.043122258 0.056577645 0.107509114 0.047646303
0.077391386 0.04787633 0.016527846 0.08939757 -0.06803268 0.03715288 -0.042554468 -0.035746336
-0.023708204 0.0135355275 0.026195781 -0.055033885 -0.0706415 -0.035410196 0.07151187 0.017943023
0.034368888 0.009160051 -0.07997627 0.07284762 0.019714573 0.044643164 -0.03141015 -0.074235186
0.014049322 -0.09577559 0.046528164 0.02058781 0.027897965 0.07591325 0.05934587 -0.09074565
0.09948659 -0.019323662 -0.0512939 -0.109961875 -0.03552465 -0.032345165 -0.067714214 -0.016475666
0.014213238 0.082345515 0.048351783 0.023871738 -0.031030683 0.0142284045 0.02441024 0.112396814
0.009301252 0.061698686 -0.05498104 0.041626334 0.105209716 0.11747924 -0.06808943 0.03362758
-0.093958676 0.07999411 0.0061178207 0.062155243 0.088674664 -0.0023755734 -0.010640252 -0.020041602
-0.0284158 -0.018845635 -0.100658305 -0.0801798 -0.053082738 -0.015404243 -0.07130185 -0.054858502
0.059620578 -0.014330093 -0.06949666 -0.058141485 0.00702908 -0.04242202 -0.028817248 0.09485589
-0.07958476 0.09176723 -0.019304518 -0.035875313 -0.017705083 0.018865922 0.022915734 0.100954354
0.010537964 0.06752322 0.049152575 0.042226177 -0.011042008 0.070433855 0.072643 -0.054560885
0.039237607 0.020390216 0.06770365 -0.065976806 0.014584392 -0.080289304 0.033696275 0.04242489
-0.006284451 -0.08456386 -0.062342558 0.121972054 -0.018920727 0.069194175 0.006928922 0.0042818557
-0.06028367 -0.023965815 0.004133434 0.07163892 0.05222617 0.058909014 -0.041468065 -0.04737019
-0.0010942733 -0.013251725 -0.079688095 -0.022586744 -0.09443701 0.008944373 -0.057333644 -0.04791098
-0.073176876 0.053982895 0.05551407 -0.11551858 -0.06942927 0.05170725 0.06821641 0.030695155
-0.08864104 0.06293345 -0.06673413 -0.027423268 0.11313912 0.047268298 -0.056313902 -0.036753945
00000000: 1477 3abc 6d49 0c3d f9d2 123b 0cc7 b3bd
00000010: fe05 b2bd c1d4 da3c 44b5 5ebc a548 c4bd
00000020: 0030 50bd 11f6 6b3c 541c cd3d 55ed 60bd
00000030: f46c a3bd 02b1 3b3d 11c3 513c 6fc3 5d3d
00000040: 0f37 e2bd cbd9 523d 1218 5fbd 6781 1a3d
00000050: 306c e73c f8fd c9bd 64f7 9f3b b13c 9e3c
00000060: d14a 79bd c47b d6bc 5cca 6fbd c302 1cbc
00000070: f856 c5bd d996 fcba d9e7 6b3d 52a3 553d
00000080: 9f8f 0a3d 5897 8dbb 4845 abbc cf29 703c
00000090: ac4b 43bb 4b0d 363d 774c 433d 9b43 00bb
000000a0: 23ab 003d f6da 43bd ac2f 003c 28ab 4c3d
000000b0: 3e48 933c f80b 003d 362e efbc 2b2b d1bd
000000c0: 1043 d93d e7b4 8e3d 4b22 2ebd 7bea b73d
000000d0: 2d85 68bd 6229 95bd d74b 70bd 184a bb3c
000000e0: a5e7 62bc f729 a9bc a03f 813d cc63 923c
000000f0: b9fb 773d cd35 bebb f9de 4a3d 9ffb 6f3d
00000100: 3cb0 d33d 6ae2 333d e540 89bc 1987 24bd
00000110: 40a5 803d 25a3 e73c 9f1f c5bc d6cb 4bbd
00000120: b8f5 4c3d 3860 9b3c 3721 bdbd 0485 0e3d
00000130: c973 aa3c 47c9 00bc 5932 be3d fb23 853d
00000140: d23c dd3d 16ce c73d 43e9 c4bd 31f8 a13d
00000150: 33aa edbd 8506 203d fbc5 8abd 70b6 1dbb
00000160: d891 8ebd 49f5 833d dd44 52bd cf6b 053b
00000170: e169 163d b88b 86bd 0728 efbd eff5 8b3b
00000180: 1126 803d cafc 45bc 8470 d33d 2f45 c9bd
00000190: 3cab 3b3d b36d bb3b 9ac1 eb3d bdde 7e3b
000001a0: ca85 d3bc a9ca 0fb9 fb02 be3d 7fb3 0abd
000001b0: f7a0 303d f6bd 673d bd2d dc3d c528 433d
000001c0: 607f 9e3d f819 443d 6865 873c 1316 b73d
000001d0: b854 8bbd 9e2d 183d 984d 2ebd c06a 12bd
000001e0: b537 c2bc 1ec4 5d3c 8998 d63c 366b 61bd
000001f0: 7eac 90bd 480a 11bd d174 923d 3ffd 923c
00000200: 64c6 0c3d 0a14 163c 99ca a3bd 2231 953d
00000210: 7580 a13c c0db 363d eea7 00bd 9e08 98bd
00000220: 212f 663c fe25 c4bd 5194 3e3d c4a7 a83c
00000230: 468a e43c 6878 9b3d a814 733d dbd8 b9bd
00000240: a0bf cb3d a84c 9ebc 8d19 52bd b133 e1bd
00000250: 4c82 11bd 5d7c 04bd c0ad 8abd faf7 86bc
00000260: a4de 683c c4a4 a83d 850c 463d aa8e c33c
00000270: 0f34 febc 411e 693c fcf7 c73c 4d30 e63d
00000280: 4764 183c c3b7 7c3d cd33 61bd 6080 2a3d
00000290: 3178 d73d f598 f03d 7972 8bbd 13bd 093d
000002a0: 686d c0bd f4d3 a33d 0078 c83b 7f96 7e3d
000002b0: 109b b53d 82af 1bbb 7454 2ebc 492e a4bc
000002c0: 40c8 e8bc 2962 9abc f125 cebd 4f35 a4bd
000002d0: 496d 59bd 1462 7cbc b406 92bd 4fb3 60bd
000002e0: b534 743d c4c8 6abc 4454 8ebd c425 6ebd
000002f0: 3254 e63b b6c2 2dbd 2612 ecbc ce43 c23d
00000300: 56fd a2bd 75f0 bb3d 8224 9ebc fef1 12bd
00000310: 400a 91bc b58c 9a3c c7b9 bb3c 28c1 ce3d
00000320: 6da7 2c3c 9d49 8a3d 3654 493d 5bf5 2c3d
00000330: 8ae9 34bc a03f 903d dac5 943d 3c7b 5fbd
00000340: 9db7 203d 6209 a73c 36a8 8a3d d91e 87bd
00000350: 60f3 6e3c b86e a4bd 1b05 0a3d b9c5 2d3d
00000360: cced cdbb d12f adbd e95a 7fbd 7ccc f93d
00000370: a4ff 9abc adb5 8d3d 030c e33b cf4e 8c3b
00000380: 02ec 76bd f553 c4bc c271 873b 6db7 923d
00000390: 1ceb 553d 944a 713d 6bda 29bd 3f07 42bd
000003a0: b86d 8fba c31d 59bc 8333 a3bd d607 b9bc
000003b0: 3168 c1bd 6b8b 123c afd6 6abd 4e3e 44bd
000003c0: c2dd 95bd 2b1d 5d3d b962 633d 0195 ecbd
000003d0: ef30 8ebd fbca 533d 0cb5 8b3d 6874 fb3c
000003e0: 6f89 b5bd 41e3 803d e7ab 88bd c3a6 e0bc
000003f0: 7cb5 e73d 679c 413d 68a9 66bd 4e8b 16bd

rnn1.weight_hh_l1 f4 [128, 128]
0.08684603 0.024435423 -0.081530795 0.018846573 -0.102096245 0.012330442 -0.038092602 0.09648937
-0.0068938877 -0.083971485 0.051398866 -0.10575463 0.06034825 -0.046851587 -0.106602386 0.019953463
0.0676554 0.009459519 -0.027883867 0.00034132873 -0.10832624 0.088699594 -0.009355579 0.10596487
-0.04964353 0.08305351 -0.0060262913 -0.05567256 -0.06941543 0.010872974 -0.036631446 -0.02597782
-0.0028420582 -0.10898807 0.0055534686 0.019436188 0.04357207 -0.016495397 0.019177597 -0.04050098
0.007356138 0.042977814 -0.062271316 -0.079995014 0.05140155 0.05031244 0.047193352 -0.050049305
0.11570738 -0.038456414 -0.014154361 0.033292897 0.054856375 -0.06838211 -0.08832 -0.0031406756
0.10685524 0.08570241 0.021595046 -0.022086456 -0.08253415 0.08154043 0.014435905 -0.002024677
0.05168216 -0.044890936 -0.01705377 -0.07529804 0.07636144 -0.035134602 -0.013948157 0.01797677
-0.06110534 -0.012131788 0.087616876 0.012934255 -0.043109253 0.04497683 -0.027346121 0.017872222
0.033399645 0.08736875 0.11789557 0.1112193 0.043611646 -0.02390974 -0.12287419 0.043241538
0.014511361 -0.013477533 0.012507376 0.09976896 0.00947038 0.020133333 -0.023967871 -0.031300157
0.047772165 0.12086517 0.0020812831 0.07438534 0.036034875 0.06631534 -0.03173794 -0.022406422
0.06390661 -0.04026599 -0.0138787655 -0.0038983084 -0.0707246 -0.029281637 -0.04625304 0.08757805
-0.008252084 0.053022556 0.018816175 0.002845595 -0.10813823 -0.04578584 -0.11113153 -0.061922792
-0.003647944 -0.040614102 -0.015661445 0.03850549 -0.08996738 0.081082344 0.04541187 0.04687597
-0.088031806 0.10999361 -0.026803486 0.07462495 0.011391578 0.051060583 -0.12485377 -0.007110355
-0.03984732 0.023866482 -0.092695184 0.04412426 -0.046095353 -0.033572897 0.047126282 0.107103184
0.030729128 -0.11384484 -0.067876756 -0.06541731 0.070626386 -0.10170912 0.0996938 -0.010339636
-0.068011604 -0.097380996 0.013600065 0.0033833624 0.020034764 0.067625664 -0.061585564 0.08517744
-0.06562076 0.032211512 0.092941366 0.06266872 0.06226088 0.10172891 -0.07668926 0.06238465
0.027051713 0.027977183 0.07302265 0.06781663 -0.010473051 -0.05295845 -0.10273466 -0.006612618
-0.060101088 0.0885642 0.0952566 0.057996128 0.008918823 0.054244585 0.040245835 -0.0006516724
-0.07800056 -0.026682563 -0.12713084 0.11324264 -0.016625758 -0.0221777 0.015421352 -0.07462828
0.04458624 0.01757491 -0.10250467 0.0101322215 -0.07655362 -0.028966028 0.12593195 0.045913033
0.051949907 -0.009084635 -0.06855123 0.057881527 0.13231978 0.12890573 -0.085231796 0.020473484
0.09826284 -0.035922833 -0.037900306 -0.09539458 0.058383413 -0.019906659 0.105820015 0.038311996
-0.024974244 0.11141742 -0.03227515 -0.12336442 -0.08235765 -0.017701656 -0.04672295 0.044403553
-0.03803141 -0.046518717 0.0816434 0.0054619424 -0.08751957 -0.12285399 -0.016824313 0.028534377
0.15000114 -0.026961379 0.027820066 -0.061135173 0.11798353 0.10065508 0.12421587 -0.044917323
0.0346725 0.045242235 -0.12234917 0.021031471 -0.019483265 0.026713422 0.090753675 0.09252438
0.06522114 0.050908756 0.009979517 -0.018726816 -0.04407598 -0.0071883956 -0.03877933 -0.07645491
00000000: 55dc b13d cc2c c83c 9ef9 a6bd 2164 9a3c
00000010: d617 d1bd 9f05 4a3c fd06 1cbd 389c c53d
00000020: 1fe6 e1bb 3ef9 abbd 9e87 523d e295 d8bd
00000030: ba2f 773d 73e7 3fbd 5a52 dabd 7275 a33c
00000040: ea8e 8a3d 19fc 1a3c b56c e4bc 5ef4 b239
00000050: 26da ddbd 22a8 b53d 2448 19bc 1c04 d93d
00000060: 0457 4bbd f517 aa3d 3278 c5bb e908 64bd
00000070: ad29 8ebd 8f24 323c db0a 16bd 70cf d4bc
00000080: d341 3abb 2335 dfbd dff9 b53b a438 9f3c
00000090: a078 323d 5b21 87bc 561a 9d3c 5be4 25bd
000000a0: c20b f13b 8109 303d 3510 7fbd 6dd4 a3bd
000000b0: 6f8a 523d 6b14 4e3d d14d 413d 8000 4dbd
000000c0: fef7 ec3d 7984 1dbd b1e7 67bc 225e 083d
000000d0: 14b1 603d eb0b 8cbd 1ee1 b4bd cbd3 4dbb
000000e0: ecd6 da3d bf84 af3d 18e8 b03c a8ee b4bc
000000f0: aa07 a9bd abfe a63d 9384 6c3c 71b0 04bb
00000100: acb0 533d 8fdf 37bd 59b4 8bbc dc35 9abd
00000110: 6363 9c3d 4de9 0fbd d086 64bc 0544 933c
00000120: 9849 7abd 68c4 46bc 7a70 b33d 33ea 533c
00000130: 5493 30bd a039 383d f904 e0bc c468 923c
00000140: 11ce 083d 63ee b23d 3c73 f13d f2c6 e33d
00000150: 20a2 323d 5cde c3bc 77a5 fbbd 0a1e 313d
00000160: 0fc1 6d3c dfd0 5cbc bdeb 4c3c ab53 cc3d
00000170: a729 1b3c a9ee a43c 4558 c4bc 9834 00bd
00000180: bfac 433d 2988 f73d 2366 083b 5757 983d
00000190: 4e99 133d 56d0 873d a4ff 01bd ac8d b7bc
000001a0: 78e1 823d f3ed 24bd c363 63bc c37a 7fbb
000001b0: 0fd8 90bd 0be0 efbc d473 3dbd 1f5c b33d
000001c0: c033 07bc 2e2e 593d 6124 9a3c 297d 3a3b
000001d0: 9477 ddbd ef89 3bbd ed98 e3bd c1a2 7dbd
000001e0: 5812 6fbb f95a 26bd 6e4c 80bc efb7 1d3d
000001f0: d140 b8bd 800e a63d cc01 3a3d 0401 403d
00000200: 054a b4bd 5444 e13d fc92 dbbc f7d4 983d
00000210: bea3 3a3c e724 513d 55b3 ffbd fbfd e8bb
00000220: f236 23bd a483 c33c f9d6 bdbd a4bb 343d
00000230: 7bce 3cbd bc83 09bd 7d07 413d ea58 db3d
00000240: a7bb fb3c 7c27 e9bd f802 8bbd 83f9 85bd
00000250: 91a4 903d df4c d0bd 432c cc3d 9467 29bc
00000260: ab49 8bbd b06f c7bd cfd2 5e3c 67bb 5d3b
00000270: f21f a43c 537f 8a3d 2541 7cbd 8271 ae3d
00000280: 2d64 86bd 38f0 033d 0b58 be3d 7558 803d
00000290: 4405 7f3d 3f57 d03d 420f 9dbd 0c87 7f3d
000002a0: 8e9b dd3c 6830 e53c e68c 953d 72e3 8a3d
000002b0: 2997 2bbc f6ea 58bd 8d66 d2bd a9ae d8bb
000002c0: 8f2c 76bd 2661 b53d e415 c33d 598d 6d3d
000002d0: 4120 123c 922f 5e3d d1d8 243d ffd4 2aba
000002e0: c2be 9fbd 6495 dabc 962e 02be c2eb e73d
000002f0: be32 88bc 02ae b5bc d7a9 7c3c b6d6 98bd
00000300: 10a0 363d 42f9 8f3c f8ed d1bd 9e01 263c
00000310: 25c8 9cbd 2a4a edbc 4ef4 003e 4e0f 3c3d
00000320: 6dc9 543d b9d7 14bc 9664 8cbd 2e15 6d3d
00000330: d67e 073e ddff 033e 028e aebd 02b8 a73c
00000340: 073e c93d d223 13bd 5a3d 1bbd 3c5e c3bd
00000350: 7223 6f3d 4a13 a3bc 2ab8 d83d 0aed 1c3d
00000360: c996 ccbc d12e e43d f332 04bd 7ca6 fcbd
00000370: 21ab a8bd 1003 91bc 9060 3fbd 80e0 353d
00000380: d3c6 1bbd 698a 3ebd a834 a73d 18fa b23b
00000390: 763d b3bd df9a fbbd 24d3 89bc edc0 e93c
000003a0: e699 193e 1cde dcbc e8e6 e33c e068 7abd
000003b0: 59a1 f13d 4024 ce3d e464 fe3d 3afb 37bd
000003c0: c004 0e3d ec4f 393d 3492 fabd 314a ac3c
000003d0: 5e9b 9fbc 1bd6 da3c 10dd b93d 6c7d bd3d
000003e0: a992 853d b385 503d 2181 233c fb68 99bc
000003f0: 0489 34bd a28c ebbb 13d7 1ebd 6494 9cbd

rnn1.bias_ih_l1 f4 [128]
-0.017788425 -0.003794884 -0.064911045 0.009328 0.088038646 0.11192036 -0.056542736 -0.06953959
0.008958996 0.0010733416 -0.08257598 0.09785949 0.0269194 0.04929262 0.0047461586 -0.004986571
-0.003821828 0.0066515706 0.049206305 -0.0060268017 -0.020636924 0.02431795 0.0720405 -0.10586472
0.040889006 -0.105618946 -0.083263144 0.028468085 0.05327897 -0.003031975 0.028250713 0.040856604
-0.006718442 0.08580297 0.116534084 0.04350515 0.105354056 0.05930913 0.042480245 0.046965536
-0.087685615 0.025390413 0.036800772 0.09185885 -0.07430079 -0.017450232 -0.006857946 -0.041654583
0.043888055 0.11305215 0.06725149 0.08499822 -0.09753104 0.10349214 0.011570617 -0.040732093
-0.09336533 -0.06526293 -0.11041394 0.02175238 -0.121351704 -0.061188113 0.12613708 0.011865915
-0.024949543 -0.09199635 -0.06885352 -0.043837138 -0.04506456 -0.03548862 0.12569834 0.014260303
0.09716929 -0.0047229514 0.00861217 0.00837869 -0.0046968646 -0.047198884 -0.13162957 -0.041681133
-0.0101831565 -0.0710189 -0.04889861 -0.0027876343 -0.034747977 0.080966316 -0.03582625 -0.11977153
-0.05399708 -0.047233865 -0.060433846 -0.043248005 -0.01950838 -0.062317155 -0.013584347 -0.018484382
-0.06911504 -0.037371803 -0.012730898 -0.071249515 -0.061825775 0.018713696 -0.08772885 -0.025694547
-0.020412317 0.039282896 0.07186899 0.060270764 0.08190144 -0.0069663683 0.01368004 -0.0026838246
0.011143658 0.046181582 0.008601091 -0.086476095 -0.019939732 0.08568819 0.08374692 -0.009480469
0.033680793 0.060306687 0.024411265 -0.04721481 0.08841282 0.00028244845 0.021606477 -0.04611056
00000000: 08b9 91bc 97b3 78bb 15f0 84bd 78d4 183c
00000010: 9b4d b43d 8036 e53d 5b99 67bd c66a 8ebd
00000020: c1c8 123c 5eaf 8c3a 981d a9bd 8e6a c83d
00000030: 1386 dc3c 0fe7 493d aa85 9b3b 6466 a3bb
00000040: a277 7abb 6bf5 d93b 8d8c 493d 7a7c c5bb
00000050: c40e a9bc 7036 c73c f889 933d 9acf d8bd
00000060: 3b7b 273d bf4e d8bd de85 aabd e735 e93c
00000070: 0d3b 5a3d 19b4 46bb 0a6e e73c 4159 273d
00000080: 6026 dcbb 78b9 af3d 6ca9 ee3d 7532 323d
00000090: dec3 d73d 21ee 723d c4ff 2d3d ef5e 403d
000000a0: 8494 b3bd 8eff cf3c 68bc 163d 7e20 bc3d
000000b0: 032b 98bd caf3 8ebc 9fb8 e0bb ff9d 2abd
000000c0: f6c3 333d e387 e73d 26bb 893d 8c13 ae3d
000000d0: 5bbe c7bd b0f3 d33d af92 3d3c b2d6 26bd
000000e0: 5236 bfbd 92a8 85bd b420 e2bd 0c32 b23c
000000f0: 3e87 f8bd 63a0 7abd 142a 013e 4169 423c
00000100: fc62 ccbc 9568 bcbd 1303 8dbd 928e 33bd
00000110: 9e95 38bd 845c 11bd 11b7 003e 0ca4 693c
00000120: b100 c73d fdc2 9abb 0f1a 0d3c c646 093c
00000130: 28e8 99bb 9e53 41bd e7c9 06be d6b9 2abd
00000140: 41d7 26bc 5b72 91bd e949 48bd beb0 36bb
00000150: e553 0ebd abd1 a53d 8cbe 12bd c74a f5bd
00000160: 0b2c 5dbd 4c78 41bd 7b89 77bd d224 31bd
00000170: 0ad0 9fbc 4640 7fbd e290 5ebc 8f6c 97bc
00000180: 308c 8dbd 2d13 19bd 4295 50bc 44eb 91bd
00000190: 063d 7dbd 774d 993c 2fab b3bd 5f7d d2bc
000001a0: bb37 a7bc 1ae7 203d 0d30 933d 7ade 763d
000001b0: f1bb a73d 2246 e4bb 3f22 603c 1be3 2fbb
000001c0: e493 363c e628 3d3d 97eb 0c3c 611a b1bd
000001d0: a658 a3bc 4a7d af3d 8183 ab3d f853 1bbc
000001e0: dff4 093d 2504 773d 22fa c73c 5164 41bd
000001f0: c811 b53d 9715 9439 1100 b13c 6dde 3cbd

rnn1.bias_hh_l1 f4 [128]
0.029215662 0.017394466 -0.0783742 -0.0036176948 -0.041346364 0.08974628 0.020020828 -0.096177965
0.082873896 0.0761658 -0.020743428 -0.03337326 0.04656541 -0.0048121638 -0.041217964 0.08050022
-0.02312504 0.03713363 -0.030219778 -0.122292474 0.018227557 -0.064030245 0.070893556 -0.10533055
0.041013505 -0.063092254 -0.06449259 0.008033819 -0.040285926 0.07453939 0.016031854 0.079349644
0.023795163 0.07479916 0.11165887 0.03479744 -0.022968387 0.09865091 -0.0043479195 -0.023136174
-0.042699892 -0.08166921 -0.0065841344 -0.0204098 0.043967158 0.025085993 -0.0021950442 -0.0003166593
0.026214603 -0.027036896 0.08026132 -0.03591944 -0.11999902 -0.01720886 -0.07006423 -0.10165106
-0.068286166 -0.03674197 -0.07205526 0.041390374 -0.041710906 0.005608065 0.025115607 0.041817058
-0.005666293 0.044524677 -0.10013447 -0.007300153 -0.01990905 -0.04308277 0.027078073 -0.07909947
0.010565324 -0.027935354 0.052767694 0.09227197 -0.033767052 0.006936512 -0.10752003 0.009957289
0.076388955 0.017351143 -0.09029003 0.023691816 -0.009187584 0.05712553 0.05880612 0.025787339
-0.0022191906 0.057855476 -0.09968565 -0.019361539 -0.03984375 0.06445642 -0.031076219 -0.09732042
0.028252278 -0.09041277 -0.017614989 -0.107977465 0.0038592021 0.022460533 -0.08782317 0.01504524
-0.045839153 -0.089604154 -0.0018722346 -0.07348884 0.10656079 0.09348777 0.07686272 -0.0903907
-0.010731288 -0.0033718024 -0.0921496 -0.074513674 0.06719785 -0.060568452 0.00033448086 -0.01012207
0.0031738395 0.07598258 0.05984674 -0.085588515 0.010177454 0.015136127 -0.11440233 0.032653775
00000000: af55 ef3c d77e 8e3c a782 a0bd d916 6dbb
00000010: ce5a 29bd e6cc b73d b802 a43c f4f8 c4bd
00000020: cab9 a93d d1fc 9b3d 1fee a9bc 66b2 08bd
00000030: 5fbb 3e3d 5baf 9dbb 2bd4 28bd 4ddd a43d
00000040: b970 bdbc 6f19 183d 788f f7bc 7a74 fabd
00000050: f551 953c 4a22 83bd a430 913d 8bb7 d7bd
00000060: c7fd 273d 8336 81bd b114 84bd 47a0 033c
00000070: db02 25bd 1ca8 983d 3c55 833c 1182 a23d
00000080: 13ee c23c 4d30 993d 68ad e43d c387 0e3d
00000090: 3328 bcbc 7d09 ca3d fe78 8ebb 1388 bdbc
000000a0: 15e6 2ebd 3042 a7bd b9bf d7bb 7432 a7bc
000000b0: e816 343d 2481 cd3c bbda 0fbb 4b05 a6b9
000000c0: 02c0 d63c 7b7c ddbc 0c60 a43d 4320 13bd
000000d0: 0cc2 f5bd 98f9 8cbc d67d 8fbd 6e2e d0bd
000000e0: 9ed9 8bbd bf7e 16bd b591 93bd f488 293d
000000f0: 0ed9 2abd dcc3 b73b 3fbf cd3c 5d48 2b3d
00000100: 50ac b9bb 825f 363d 4d13 cdbd 1f36 efbb
00000110: 4e18 a3bc 8f77 30bd d6d2 dd3c e7fe a1bd
00000120: 2e1a 2d3c afd8 e4bc f022 583d 16f9 bc3d
00000130: 524f 0abd ae4b e33b 7633 dcbd e623 233c
00000140: d071 9c3d fc23 8e3c fbe9 b8bd 5715 c23c
00000150: 8587 16bc 76fc 693d b0de 703d f83f d33c
00000160: d76f 11bb ddf9 6c3d fd27 ccbd 179c 9ebc
00000170: 3333 23bd ba01 843d 8e93 febc ee4f c7bd
00000180: 5271 e73c 552a b9bd 4f4d 90bc 4a23 ddbd
00000190: abea 7c3b 27ff b73c a2dc b3bd 4f80 763c
000001a0: d6c1 3bbd 6282 b7bd c565 f5ba 5181 96bd
000001b0: 8b3c da3d 8476 bf3d 346a 9d3d c21e b9bd
000001c0: 49d2 2fbc 75f9 5cbb eeb8 bcbd a09a 98bd
000001d0: 079f 893d a016 78bd 435d af39 0ad7 25bc
000001e0: 3100 503b c19c 9b3d db21 753d 0849 afbd
000001f0: 56bf 263c 85fd 773c c54b eabd f7bf 053d

fc.weight f4 [1, 128]
-0.9608557 0.9055992 -0.8942571 0.8832378 0.91357166 0.9087135 -0.88058513 -0.95055056
0.8969138 0.93234885 -0.9083528 0.95214266 -0.88607424 0.9231956 0.9315277 0.9122491
0.89839274 -0.90948164 -0.9640464 -0.9594594 0.93758744 -0.9251158 0.9685583 -0.90481806
-0.9409612 -0.96542984 -0.88571346 -0.9467693 0.92133355 0.9643088 -0.8897436 0.8883527
-0.9325404 0.934025 0.9426597 0.96123785 0.89618057 0.9358172 -0.9607648 0.9247136
-0.8875152 -0.9682146 0.9404163 0.900553 -0.96826005 -0.960275 -0.9106377 -0.8924371
-0.9049965 0.9375401 0.9334946 0.96635276 -0.9156418 0.8736998 0.970592 -0.8961604
-0.8987799 -0.9106174 -0.90215224 0.906407 0.5592841 -0.9457703 0.938617 -0.91660553
-0.92722076 -1.0201749 -0.95116246 0.8903886 -1.0172518 0.87559754 0.95433456 1.0145637
0.94591093 -0.9074711 -0.90850353 0.990091 0.9108013 0.8991692 -0.88744694 0.9173401
0.9847149 -0.9633535 -0.93124956 -0.9519974 0.9326171 0.92080724 0.9502106 -0.8861211
-0.8931539 0.96165717 -0.9659586 -0.94811034 -0.9093663 -1.0227021 -0.9091341 -0.8636545
-0.9382058 -0.9596414 0.95373815 -0.9181735 -0.9272013 -1.0271205 -0.8903702 -0.96415097
0.99367726 -0.8767156 -0.98645663 -0.9829649 0.97176206 0.9572415 0.8679062 -0.95795643
0.93308705 -0.96679825 -0.94119775 -0.910322 0.9597589 0.9973471 0.8871688 0.8791401
0.93440163 0.8978963 1.0027682 -0.9364716 0.9782938 -0.89910954 -0.96348 0.9672589
00000000: a4fa 75bf 59d5 673f 09ee 64bf df1b 623f
00000010: d5df 693f 73a1 683f 076e 61bf 4857 73bf
00000020: 259c 653f 6aae 6e3f cf89 68bf 9fbf 733f
00000030: c3d5 62bf 8c56 6c3f 9978 6e3f 2889 693f
00000040: 11fd 653f cad3 68bf bfcb 76bf 229f 75bf
00000050: bb05 703f 64d4 6cbf 70f3 773f 28a2 67bf
00000060: d5e2 70bf 6926 77bf 1ebe 62bf 795f 72bf
00000070: 84dc 6b3f f1dc 763f 3dc6 63bf 156b 633f
00000080: f8ba 6ebf 431c 6f3f 2552 713f af13 763f
00000090: 176c 653f b791 6f3f aff4 75bf 08ba 6c3f
000000a0: 3234 63bf e9dc 77bf 1fbf 703f a48a 663f
000000b0: e4df 77bf 95d4 75bf 8d1f 69bf c276 64bf
000000c0: daad 67bf a102 703f 81f9 6e3f e562 773f
000000d0: 8067 6abf caaa 5f3f b878 783f c56a 65bf
000000e0: 7116 66bf 391e 69bf 73f3 66bf 4a0a 683f
000000f0: 3e2d 0f3f 011e 72bf 3449 703f a9a6 6abf
00000100: 575e 6dbf 1795 82bf 627f 73bf 82f0 633f
00000110: 4f35 82bf 2927 603f 454f 743f 39dd 813f
00000120: 3827 723f 0750 68bf b093 68bf 9b76 7d3f
00000130: 462a 693f f42f 663f b92f 63bf cdd6 6a3f
00000140: 4716 7c3f 569e 76bf 5f66 6ebf 1ab6 73bf
00000150: ffbf 6e3f 06ba 6b3f 0041 733f d5d8 62bf
00000160: bca5 64bf 2a2f 763f 1049 77bf 5cb7 72bf
00000170: 3bcc 68bf e7e7 82bf 03bd 68bf 7618 5dbf
00000180: 412e 70bf 0fab 75bf 2f28 743f 6b0d 6bbf
00000190: 105d 6dbf af78 83bf 4def 63bf 99d2 76bf
000001a0: a261 7e3f 6f70 60bf 6c88 7cbf 96a3 7bbf
000001b0: 66c5 783f c70d 753f 1a2f 5e3f a23c 75bf
000001c0: cbde 6e3f 1780 77bf 56f2 70bf dd0a 69bf
000001d0: c2b2 753f 2452 7f3f 7f1d 633f 530f 613f
000001e0: f234 6f3f 88dc 653f b55a 803f 9abc 6fbf
000001f0: 7671 7a3f 0b2c 66bf a0a6 76bf 479e 773f
