model_trained.pt (torch, 202174 bytes, 9 tensors)

rnn1.weight_ih_l0 f4 [128, 1]
000000 a8 d9 69 bc af 05 9a 3d 14 44 ca bc 77 99 4d bd
       -0.014273085 0.07520615 -0.024690665 -0.050195184
000010 bb ad b5 3d 18 9e 00 bc 7a b4 35 bd 25 a9 9a bd
       0.08871027 -0.0078501925 -0.04436157 -0.07551793
000020 7e 20 8d 3c 63 08 17 3d e5 b4 06 3d 84 5f 28 bb
       0.017227408 0.036873233 0.03288736 -0.0025691697
000030 7a d5 b2 bd 62 50 87 bd 09 bb 6e 3b 06 64 41 bd
       -0.08732124 -0.06607129 0.00364274 -0.04721453
000040 fc 0d 96 bd c2 34 c5 bd e8 f3 d9 3c 97 49 8c bd
       -0.07326886 -0.096292034 0.026605561 -0.06849974
000050 ba 62 b2 3d b0 92 c6 3d 03 62 90 bc e1 63 9d 3d
       0.08710237 0.09695947 -0.01762486 0.07685066
000060 2b dd 5d 3d 03 fd 24 bd 90 d0 7d bd ca db 88 bd
       0.054166 -0.040280353 -0.06196648 -0.066825464
000070 ed 96 c3 3d 53 81 90 3c d4 73 e5 3c 5a b9 41 bd
       0.09550271 0.017639792 0.028009333 -0.047295906
000080 68 00 5b bc 07 cf d7 bd ab e8 c7 3d 44 97 cd bd
       -0.013366796 -0.10537534 0.09761175 -0.10038617
000090 8a e4 e1 ba cd e4 65 3d f8 ff e4 bc 41 29 2f bd
       -0.0017234248 0.056126405 -0.027954087 -0.042763952
0000a0 2b c2 2a bd 5f ee 8e bd 41 76 fb 3c 31 12 5c bd
       -0.04168908 -0.069790594 0.030696036 -0.053728286
0000b0 1a e5 5c 3d a0 09 9c 3d d8 6a d4 bd 61 a5 06 bc
       0.053929426 0.07619023 -0.10371941 -0.00821814
0000c0 b2 d9 3f bd 8d f0 58 3b 1b f3 cb bd 27 53 7e 3d
       -0.04683847 0.0033102364 -0.09958478 0.06209102
0000d0 b1 c2 8b bd 83 51 a2 bd c2 21 88 3d 5f e7 a7 bd
       -0.06824244 -0.079257034 0.06647064 -0.081984274
0000e0 f9 00 d0 bd 38 6a b4 bc 92 94 b4 bd 87 16 a1 3b
       -0.101564355 -0.022023305 -0.088174 0.0049160155
0000f0 b5 8d 1f bd 02 9c ee bc 36 2d ad 3d 98 1b 5d 3d
       -0.0389535 -0.029127125 0.08455889 0.053981394
000100 3b 67 3d bd 37 20 c5 bc 62 99 80 bd 1d 76 5f 3d
       -0.046241026 -0.024063213 -0.062792554 0.054556
000110 8c a7 b7 bc 20 04 fd bc 89 16 a5 bd 04 4e b4 bd
       -0.02241876 -0.030885756 -0.08060939 -0.08803943
000120 fb a5 32 3d a8 c6 f5 bd 5a 2f 29 bd 4d 0d a5 3c
       0.043615323 -0.12000781 -0.041304924 0.020147944
000130 5a a7 a3 3d 8c 1b 4c bd e3 b0 a5 bd a9 d5 60 3d
       0.07990904 -0.04983096 -0.08090379 0.054891262
000140 8c 02 a2 3c 21 06 1b bb 3f 70 61 bd f3 54 10 bd
       0.019776605 -0.0023654776 -0.055038687 -0.035237264
000150 85 79 c7 bd 5e 1b 2e bd dd df b6 3d 28 9d a5 3c
       -0.09739975 -0.042506568 0.08929417 0.02021654
000160 18 8e fa 3c 9e 6a a9 3d a0 fe e7 bc 0d ec 0e bd
       0.030585334 0.08272289 -0.028319657 -0.034893084
000170 a2 db 07 3d 01 f6 9a bc 55 1f f4 bc 23 e6 3b 3c
       0.033168443 -0.018916132 -0.029800097 0.011468443
000180 47 15 4b bd 7e f3 d0 3d 67 13 c7 bd 40 f6 03 bc
       -0.04958084 0.102026924 -0.097204976 -0.008054316
000190 16 87 5f bd c0 b8 6b 3d 0c 0e b7 bd bc 60 6d 3d
       -0.054572187 0.05754924 -0.08938226 0.05795358
0001a0 11 05 7c bd cb 07 82 3d c3 c1 d4 bc 96 e3 88 bd
       -0.06152827 0.06349143 -0.025971299 -0.066840336
0001b0 dc 6d 24 bd 68 bc f1 3c 1f 4d c4 3d b3 73 ed bc
       -0.040143833 0.029508784 0.09585022 -0.028985834
0001c0 19 02 a2 bd f4 5c 8b bd 0b b2 83 3d 46 72 c4 3d
       -0.07910556 -0.06804839 0.064304434 0.095921084
0001d0 c5 46 d3 3c f6 c0 5e bd bd f1 b0 bd 10 18 10 bd
       0.025790581 -0.05438324 -0.08639858 -0.035179198
0001e0 77 79 aa 3d cf f1 aa bc 43 b2 97 bd 04 56 6f 3d
       0.08323949 -0.020867256 -0.074070476 0.05843164
0001f0 dd c7 3d 3d 59 5d 5e bd e5 af 32 bd 25 21 be 3d
       0.046333183 -0.054288242 -0.043624777 0.092836656

rnn1.weight_hh_l0 f4 [128, 128]
000000 00 ee 1a bc e2 1e b5 ba 6f 14 c0 3a 37 57 d0 3b
       -0.009456158 -0.0013818408 0.0014654527 0.006358053
000010 38 6a ac 3c e6 71 5e 3d 6d 9f df bc f8 87 86 3d
       0.021046743 0.05430784 -0.0272977 0.06568903
000020 13 e4 ce 3b fe 62 ef 3c 12 09 cd bc 2a 56 78 3b
       0.0063138097 0.029222008 -0.02502874 0.0037893155
000030 28 b4 a4 bd a6 b6 33 bd 3c 57 9b bd c2 e3 09 3d
       -0.080421746 -0.04387536 -0.07584998 0.033664472
000040 af 60 18 3d 64 74 88 bc 6c 6b 01 3d 42 55 30 3d
       0.03720158 -0.016657062 0.031596586 0.04305006
000050 ae bd 26 bd 97 d2 32 bc ce 42 9d bd 8f 18 8e bc
       -0.040708236 -0.010914466 -0.076787576 -0.017345695
000060 df d5 07 bd b0 82 8a 3c 7f 14 aa bb 6b df 9b 3d
       -0.033162948 0.01690802 -0.0051904316 0.07610973
000070 27 88 bc 3d bb 31 a8 3c 86 3a 06 3d aa 80 a9 bd
       0.092056565 0.020531526 0.032770656 -0.08276494
000080 db 6e bb bd b3 19 13 3d ff 11 ee 3a 0c 18 23 3d
       -0.091520034 0.03591318 0.0018163322 0.039817855
000090 1f cb a0 3d 50 16 85 3d 1e 65 39 3c 4f ad c4 3c
       0.07851242 0.064983964 0.011315612 0.024008421
0000a0 fb ad a2 3d a6 f6 2f 3d d3 57 a9 bc 71 0e 57 bd
       0.079433404 0.04295983 -0.02067176 -0.052504007
0000b0 37 fd 20 bd 7c e2 7f 3c de 29 96 bc 57 6e 61 3c
       -0.039303984 0.015617963 -0.01833051 0.013759217
0000c0 5a c9 a8 3d b6 59 ac 3d 6d 9f 28 3c 1c 8d 32 3c
       0.0824153 0.084155485 0.010291916 0.010897901
0000d0 b6 ed 1e 3d d4 a8 a7 bc ed 15 48 bd 98 bb b7 bd
       0.038800918 -0.020466246 -0.048849035 -0.089713275
0000e0 7a 83 67 3d 46 82 79 3d c6 16 ae 3d a5 6f 5c bd
       0.05652187 0.060915254 0.085004374 -0.05381741
0000f0 0f b2 6f 3d b0 92 bd bd 32 f5 02 bc 3e 51 49 bd
       0.05851942 -0.09256494 -0.007993029 -0.049149744
000100 1c 18 8f 3d 7d 98 a4 bd 51 3d a9 bc 42 50 87 bd
       0.069870204 -0.08036897 -0.02065912 -0.06607105
000110 79 17 d2 bb 92 d3 64 bc 22 c8 9e ba fc 9a 48 3d
       -0.0064114896 -0.013966458 -0.0012114088 0.04897593
000120 c1 90 d5 bb db 4c 5b bb 07 02 00 bd 27 ef 9a 3d
       -0.0065175 -0.0033462557 -0.031251933 0.07565146
000130 91 99 85 3d 5b 17 51 bd 9d 90 59 3d 63 85 8c 3c
       0.06523431 -0.051047664 0.05311643 0.017153447
000140 30 70 b0 3d d2 99 8e 3c 7a 29 bb 3c 75 d9 86 bd
       0.08615148 0.017407332 0.022846926 -0.065844454
000150 1d ec 1e 3c 43 d2 b7 bd 02 ec b5 3d 68 db 89 3d
       0.0096998485 -0.08975651 0.088829055 0.067313015
000160 33 86 47 3d f4 90 d6 3c 51 37 67 3c c4 78 ab 3c
       0.048711967 0.026192166 0.01411231 0.020931609
000170 76 e6 c9 39 ab c9 c0 3d bc 13 09 bb 72 a4 1b 3d
       0.00038509414 0.09413465 -0.0020916304 0.037998624
000180 c5 e8 c2 bd 12 3f 32 bc 0d 2c f9 bc 43 b6 87 ba
       -0.095170535 -0.010879295 -0.030416513 -0.0010354001
000190 41 a7 03 3b 80 58 e7 3c 36 35 76 bd 88 f6 00 bd
       0.0020088705 0.028240442 -0.06010934 -0.03148511
0001a0 ef 9a 88 3d f6 11 61 3d b9 66 35 3d d1 11 6c 3d
       0.06670176 0.05494877 0.044287417 0.05763418
0001b0 67 0d 80 3d 9d 42 fe 3c f1 e6 61 bc ed 9d 08 3d
       0.06252556 0.031037623 -0.013787971 0.033353735
0001c0 7a fe 6f 3c 68 b0 d4 bb ef 8f 33 bc cd 44 9e 3d
       0.014648074 -0.006490756 -0.010959609 0.077279665
0001d0 ad ea 68 3d e2 b0 44 bd ca 76 04 3d c0 d7 fc 3c
       0.05686443 -0.04802025 0.03233985 0.030864596
0001e0 4e ee 43 bd 04 db 72 bc c7 5d 12 3d 74 d9 56 bd
       -0.047834687 -0.014822725 0.035733964 -0.052453473
0001f0 24 14 87 3c 27 be a9 bd 30 72 c4 3b fb 9f 0b 3d
       0.016489096 -0.08288222 0.0059950575 0.034088116
000200 bc db 4e 3d 03 37 64 bc cf 6f 84 bd b1 a4 5b 3c
       0.050502524 -0.013929131 -0.06466638 0.013405965
000210 1a 50 39 bd 56 95 1b bd b4 79 19 3d 8a 09 a0 3d
       -0.045242406 -0.037984215 0.03746958 0.078143194
000220 f0 4e e6 bc 42 a1 88 bd a9 71 25 bd cf fe 40 bd
       -0.028113812 -0.066713825 -0.040391598 -0.047118004
000230 1a 0a 92 bd c6 05 8b bd 8f ca 93 bd b2 5b 57 ba
       -0.07130833 -0.067882106 -0.07216369 -0.0008215263
000240 02 3a 33 bd d2 1e 83 3d 74 55 f6 bc 3f 23 63 bd
       -0.043756492 0.06402363 -0.030070044 -0.055453535
000250 2a 14 a1 3d 4e 45 57 3b 71 85 f1 bc 94 32 04 bd
       0.07865174 0.0032847705 -0.029482575 -0.032274798
000260 fe 20 cb bc 56 d9 91 bd fe 3d 37 bd 18 80 60 3d
       -0.024796005 -0.07121532 -0.044736855 0.05480966
000270 f0 fe 41 bd 95 7e 62 bc f6 fe 15 3d 16 0c a8 bd
       -0.047362268 -0.013824125 0.036620103 -0.0820543
000280 de 61 20 bd 5f f5 39 bd 89 25 02 3d 65 12 80 bc
       -0.039155833 -0.04540002 0.031774078 -0.015633771
000290 20 44 94 bd 7d da 31 3a d4 d4 ae 3d fd 58 7f 3d
       -0.07239556 0.00067845715 0.085366875 0.062340725
0002a0 45 fc 8d 3d 9c cc 82 3c 2c a1 5b bd 3d 0f af 3d
       0.06932882 0.015966706 -0.053620502 0.08547828
0002b0 cd 2b 20 3c 4f 2c 08 bd 10 36 88 3d f7 33 8e bc
       0.009776068 -0.03324538 0.066509366 -0.017358763
0002c0 29 7b 9e 3d 69 8c 8d 3d 25 0c b8 3c 02 af 91 3d
       0.07738335 0.06911547 0.022466728 0.07113458
0002d0 62 4c 8c bd 93 9b ad bd d5 bf 85 bd 2e d6 87 3d
       -0.06850506 -0.08476939 -0.0653073 0.066326484
0002e0 41 77 59 3d 02 04 5b 3d 02 d8 73 3c f8 90 08 3d
       0.053092245 0.05347062 0.014883043 0.033341378
0002f0 2d d6 8d 3d 9e 39 29 3c f6 72 99 bc 50 d0 9f 3d
       0.069256164 0.010328678 -0.018731575 0.07803404
000300 b2 ed 98 ba c2 fc 01 bc bd 2f 73 3d 96 9d 6e bd
       -0.0011667518 -0.007933797 0.0593717 -0.058255754
000310 8a 0a b9 3d 04 af 5e 3d f3 59 50 bc 7f c2 98 bd
       0.09035213 0.054366127 -0.012716758 -0.07458972
000320 20 9f b5 bd 83 50 41 3d a6 d4 57 3d 41 5b 8e 3d
       -0.08868241 0.047195923 0.05269303 0.06950999
000330 f1 bd 5a 3d 46 52 47 bd dc a7 8b 3d d3 88 72 bd
       0.0534038 -0.048662446 0.06819126 -0.059212517
000340 b9 09 d1 3a 08 c6 7e bc 4e 3d 13 3d 62 dc f8 bb
       0.0015948332 -0.015550144 0.035947137 -0.007594631
000350 ce 0c 23 bb 2b e6 7b 3d 4c 68 b4 bd 54 d4 0e 3d
       -0.0024879458 0.061498802 -0.088089556 0.03487046
000360 0d 78 88 bd 9f 73 1c 3d 49 f0 55 3c b2 1b 8c 3d
       -0.06663523 0.038196202 0.013057777 0.0684122
000370 5e 35 94 bd 2a 6b 94 bd 0c 08 29 bd 2d c7 b0 bd
       -0.072367415 -0.072470024 -0.04126744 -0.0863174
000380 7b 71 a2 3c bb 2e f0 bc 5f 17 56 bc d8 bc 90 3c
       0.019829502 -0.029319158 -0.013067096 0.017668173
000390 52 de b1 bc 17 79 a0 3c 8d 70 92 bd a6 a8 74 bd
       -0.021712456 0.01958899 -0.071503736 -0.05973115
0003a0 9d 03 a9 bd 84 fa 70 3d d4 fe 18 3d 2c 25 3a bd
       -0.08252642 0.05883266 0.037352398 -0.045445606
0003b0 cf dc d6 bc 63 61 89 3d 2c cc 83 bd f6 54 7a 3d
       -0.026228337 0.06708028 -0.06435427 0.06111618
0003c0 77 51 44 3d 83 f7 47 bd 0e b2 32 3c 74 be 70 3d
       0.047929253 -0.04882003 0.010906709 0.05877538
0003d0 8f f6 2f 3d db 97 c1 3c 98 a2 13 bd b3 ef 22 3a
       0.042959746 0.02363198 -0.036043733 0.00062155275
0003e0 5c 3f 1a bd f6 71 43 bd ac 17 68 bd 90 9d 00 bd
       -0.03765808 -0.047716103 -0.0566632 -0.031400263
0003f0 74 aa 7e 3d 3f 89 18 3d a4 8d e4 b9 b6 b5 b2 bd
       0.062174276 0.037240263 -0.0004359308 -0.08726065

rnn1.bias_ih_l0 f4 [128]
000000 d7 15 95 3c 59 a0 b9 bd db b1 a8 bd 00 f7 17 bd
       0.01819889 -0.09063787 -0.08237048 -0.037100792
000010 f5 85 ee bc fe bc 64 3d 05 b7 38 bd 77 bc 7e bd
       -0.02911661 0.0558443 -0.045096416 -0.062191453
000020 ee 3d 2b bd 05 94 71 bd 69 b0 88 3d b7 12 8d bd
       -0.041807108 -0.058979053 0.066742726 -0.06888335
000030 1d 92 c1 bc 83 ed 0b bd 07 2c 27 3d 92 aa 23 bd
       -0.023629243 -0.034162056 0.040813472 -0.03995759
000040 0b 30 2f bd 7a 35 1c bd 07 a5 44 3d f7 5b fe bc
       -0.042770427 -0.038136937 0.048008945 -0.031049712
000050 8b a9 88 3d ae 90 c3 bc b1 23 ef bc ee 63 23 3d
       0.06672963 -0.0238727 -0.029191824 0.039890222
000060 36 24 69 3d d5 63 c1 3c 63 c7 9f 3c 22 1d 89 3d
       0.0569193 0.023607174 0.019504255 0.0669501
000070 5f d6 41 bd 0d a4 16 3d 8b 53 58 bd bb de 2a bb
       -0.04732358 0.036777545 -0.052814048 -0.00260727
000080 b4 63 4b bd a7 58 e5 ba f9 1d 9f bd c2 17 39 3c
       -0.04965563 -0.0017497734 -0.07769389 0.011297168
000090 07 9e c6 3c c0 ec bc 3d 67 36 97 3d 04 5c 0d 3d
       0.024245275 0.09224844 0.07383423 0.03451158
0000a0 ba 2f 40 3b d5 6c cb bc 31 00 82 3b 48 85 bf 3d
       0.0029325322 -0.024832169 0.003967308 0.09351593
0000b0 b6 15 89 3d 2d 6d 80 3d e4 c7 8b bd d6 07 0c bc
       0.06693594 0.06270824 -0.068252355 -0.00854679
0000c0 6d f8 9e 3d e7 68 45 bd 05 b1 47 3c 41 fa cf bd
       0.07762227 -0.048195746 0.012188201 -0.10155154
0000d0 2b d8 20 3d f5 57 e3 bc 94 e3 65 bd b8 35 15 bd
       0.039268654 -0.027751902 -0.05612524 -0.036428183
0000e0 b8 9c 95 3c 42 38 7d bd 42 94 59 3d f4 e5 73 3d
       0.018263206 -0.06182123 0.053119905 0.059545472
0000f0 2f 39 80 3d 94 00 48 3d 65 0c bb bd 71 06 df bc
       0.06260907 0.048828676 -0.091332234 -0.027224751
000100 1e 97 de 3c 65 85 b9 bc f3 a8 b8 3d 72 f0 82 bd
       0.027171668 -0.022646615 0.090165995 -0.063935176
000110 09 2b 7e bd 4b de 2e 3d 56 cc 5d bd ac bf a5 3d
       -0.06205276 0.042692464 -0.054149948 0.08093199
000120 ae 42 e7 bc c8 f9 32 3d 82 68 7c 3b 00 e7 38 3d
       -0.028230038 0.04369524 0.003851444 0.045142174
000130 f8 77 39 bd 59 fa 02 bd ef 83 a7 bd 08 48 08 bc
       -0.045280427 -0.03197703 -0.08179461 -0.008317955
000140 50 dd 07 bd a7 f2 70 3d 73 f7 4d 3d ea 8c 1d 3c
       -0.033170044 0.05882516 0.050284814 0.009616116
000150 01 07 3d bd 9b f5 79 3c 78 ce 50 3d c5 b2 7e bd
       -0.046149258 0.015256311 0.050978154 -0.062182207
000160 cd 60 78 3c 1d 68 8a bd 78 f1 3b bc 05 3b 29 3b
       0.015159798 -0.06758139 -0.011471145 0.0025822532
000170 31 e2 b7 bc f5 08 5a bd db a6 84 3d b7 ca 55 3d
       -0.022446724 -0.0532312 0.06477138 0.052195277
000180 b3 3d 8c bd 8f 6d 97 3c d7 80 79 3d 88 c6 30 bd
       -0.06847706 0.018484859 0.060913887 -0.043158084
000190 dd 09 7c 3d ad d8 62 3d a1 4a 63 bd 82 dc 25 3d
       0.061532844 0.05538242 -0.055491094 0.040493496
0001a0 04 e3 57 3d 3a 43 de bb 0e 41 06 bd 79 23 76 3d
       0.052706733 -0.0067829164 -0.032776885 0.060092423
0001b0 8a d0 95 3d 35 32 d3 bc a4 41 96 bd 61 fc 06 3c
       0.07315166 -0.025780777 -0.07336739 0.008238883
0001c0 32 3a 98 3d ba 7e 80 bd fd fc 3e 3d f2 42 a3 bb
       0.07432975 -0.06274171 0.046627987 -0.0049823457
0001d0 78 31 ad bd 19 ac d2 ba 4d 81 78 bd b5 d0 37 bd
       -0.08456701 -0.0016073018 -0.060670186 -0.044876773
0001e0 8d 38 30 3d ab 1c e8 bc 11 39 71 bd a9 2e 38 3d
       0.04302268 -0.028333982 -0.058892313 0.044966374
0001f0 db 70 67 bc 95 1d 09 3d 4c eb af 3d 4c cc 62 3d
       -0.014126028 0.033475477 0.08589801 0.055370614

rnn1.bias_hh_l0 f4 [128]
000000 e6 ae 45 bd 8b cd 5e 3d 5e a8 95 3c 95 95 98 3d
       -0.0482625 0.05439524 0.01826876 0.074504055
000010 a3 3d a7 3d a4 56 87 bd 54 94 72 3d 4b 1a 09 bd
       0.08166053 -0.06608322 0.059223488 -0.03347234
000020 1d 99 23 bb 5e d2 7c bd f5 51 0b 3c 37 07 80 3d
       -0.0024963089 -0.06172406 0.008503427 0.06251376
000030 f7 5b 94 3d 0a 85 0f 3d 40 80 a4 3c 46 07 51 bd
       0.072441034 0.035038985 0.020080686 -0.051032327
000040 7d 66 7a bd 3b 72 7c 3d 83 79 7c bd ae f3 89 3d
       -0.061132897 0.061632376 -0.06163932 0.06735931
000050 1f ef fc 3c f8 04 51 bd 4d 37 8d 3d 82 be 04 bd
       0.03087574 -0.05103013 0.068953134 -0.032408245
000060 93 9e 0b bd 72 79 59 3d a8 d5 ae 3d 0b f1 f2 3c
       -0.034086775 0.053094335 0.085368454 0.029655954
000070 03 93 5d 3d ca 3c f9 bb fa a5 13 3c e1 1f bc 3c
       0.05409528 -0.0076061236 0.00901174 0.02296442
000080 6d f9 ba 3d 0b 58 83 3d dc 18 ee 3c f5 64 35 3b
       0.091296054 0.06413277 0.029064588 0.0027678583
000090 9f cd 11 bd 93 82 8a 3b ef dd 6f 3d ee ee a8 3d
       -0.035596486 0.0042269914 0.05856126 0.08248697
0000a0 70 fb 94 bc 86 02 39 bc 76 21 84 3d 69 8c 78 bd
       -0.018186301 -0.011292106 0.06451695 -0.06068078
0000b0 03 69 ed 3c 51 ba b9 bd a4 61 36 3d 42 42 ba bb
       0.028980738 -0.0906874 0.04452671 -0.005684168
0000c0 3b e5 88 3c 4b f7 8f 3d e2 61 a9 3d 96 9e 24 3d
       0.016710868 0.07029589 0.08270623 0.0401903
0000d0 1b 4e 84 3d ce bc 2f bd 4f 3c a1 3d 12 d5 05 bd
       0.0646021 -0.042904668 0.07872831 -0.032673903
0000e0 8f 74 36 bd 1d 97 a9 3d b9 eb 9a 3d 13 5e 97 bd
       -0.044544753 0.08280776 0.07564492 -0.0739099
0000f0 c2 ee a4 bc c7 c8 96 bd d9 86 85 3c e3 d9 94 bb
       -0.02013338 -0.07362514 0.016299652 -0.0045425757
000100 15 d7 81 3c 4f 8f 2c bc e2 71 02 3d 1f df 1b 3d
       0.01584963 -0.010532214 0.03184689 0.03805458
000110 c1 d9 8e bd 94 a8 37 3c ac b2 13 bd 2c 3b 99 3d
       -0.06975127 0.011209626 -0.036059067 0.07481989
000120 4f 30 27 3d 1e c2 a0 3a 02 c7 03 3d 44 0b b8 3d
       0.040817555 0.0012264883 0.03217221 0.08986524
000130 e8 6f 1d bd 6f 81 17 bd ea 8e f1 3b 81 42 9a 3d
       -0.0384368 -0.036988672 0.007371773 0.07532216
000140 61 61 30 bd 60 c7 7d bd a5 51 b1 bc 81 9e d6 3b
       -0.043061618 -0.061957717 -0.021645376 0.006549657
000150 15 ad 9d 3d 14 04 10 bd 53 97 90 bc 05 0c 4c bc
       0.076990284 -0.03516014 -0.017650282 -0.012454038
000160 01 ce 10 3c 09 1f 6e bd 02 e3 40 3c f8 a6 21 bb
       0.008838178 -0.058135066 0.011772873 -0.0024666172
000170 13 b1 0b bc 82 10 72 bc d8 8e 89 bd cb 9c 76 bd
       -0.0085261045 -0.014774444 -0.067166984 -0.060208123
000180 c6 88 3e 3d 60 2d 82 bd 27 28 d9 3b f6 9b 21 3c
       0.046517156 -0.06356311 0.006627101 0.009863844
000190 80 33 a1 3d c9 2b b0 bd d1 98 87 bc 61 dc 91 3c
       0.07871151 -0.08602101 -0.01655236 0.01780528
0001a0 6c 19 93 3d 60 1d d6 3c c1 dc 4d bd d5 12 5f 3d
       0.07182583 0.026137054 -0.050259355 0.05446132
0001b0 d8 68 1a 3a 7a f8 40 3d ed a1 81 bd 55 13 61 bd
       0.0005890257 0.047111966 -0.06329713 -0.054950077
0001c0 ba c0 89 3d fd 67 c1 bc 07 b1 b6 bc 07 da db 3c
       0.06726213 -0.023609156 -0.02230121 0.026837362
0001d0 dc ba 03 3d 24 9e d8 3c 00 ac 23 bd 0b b6 e0 bc
       0.032160625 0.026442595 -0.039958954 -0.027430555
0001e0 20 23 a9 bd 57 31 82 3d d3 60 65 3d 67 76 39 3d
       -0.08258653 0.06357067 0.056000542 0.045278933
0001f0 f7 b4 77 3d 82 bd b2 bb 1d 96 7b 3c 3b 3e f8 bc
       0.060475316 -0.00545472 0.015355614 -0.030303111

rnn1.weight_ih_l1 f4 [128, 128]
000000 72 ba 96 bd 98 07 b6 3c 58 ea 85 bd 6d 4d 65 bd
       -0.0735978 0.022220418 -0.06538838 -0.055982042
000010 27 c2 ec bc 59 52 51 bd ff 63 0c 3c bb 94 8e 3d
       -0.028901173 -0.051103923 0.008568763 0.06961962
000020 82 4d 3b 3c 38 92 03 3d 52 59 a4 3c 8b be 9c bd
       0.0114320535 0.032121867 0.020062122 -0.07653531
000030 e8 66 07 3d 60 bc 7b bd 13 86 bf bd b7 1d 88 3d
       0.033057123 -0.061458945 -0.093517445 0.06646293
000040 b5 2f 8b 3d 20 0d bc 3c 09 1b 32 3c e5 c6 6b 3c
       0.06796209 0.022955477 0.0108707035 0.014390682
000050 a4 3c 5c bd 9b 7d b9 3d 24 ef 64 bd dc 7a a0 3d
       -0.05376877 0.090571605 -0.055892125 0.078359336
000060 b5 8e 67 bc 83 04 aa bd cc d3 15 bd 5b e7 a1 3d
       -0.014133145 -0.08301642 -0.03657894 0.07905456
000070 e2 f2 98 3d 6d c0 77 bc ff 88 89 3c 4d cb ec bc
       0.07468201 -0.0151215615 0.016788958 -0.028905535
000080 ef af 09 bd 91 72 30 bc de de 86 bb 75 50 3c 3d
       -0.03361505 -0.010769502 -0.0041159233 0.045975167
000090 b5 b5 89 bb dd b1 8b 3c fd cb 97 3d d4 80 53 3c
       -0.0042025694 0.017052585 0.074119546 0.012909133
0000a0 89 88 b0 3c 95 6d ae 3d b1 ae 39 bc c8 18 26 3d
       0.02154948 0.08516995 -0.011333154 0.040550977
0000b0 d5 fc b4 3d 03 50 a9 bd 05 b4 5b 3d c5 e6 0f bc
       0.088372864 -0.08267214 0.053638477 -0.008783047
0000c0 fd 56 57 3d 9d c0 19 3d 4b 55 63 bd 00 b9 86 3d
       0.052573193 0.037537206 -0.055501264 0.06578255
0000d0 5b fd 8e bd 4d 44 94 bd ee ad 3b bd 2b 4a 87 3d
       -0.069819175 -0.0723959 -0.04582017 0.06605943
0000e0 46 ef 4b 3c e5 37 91 3d f2 44 9b 3d a4 9a 5a bd
       0.012447184 0.07090739 0.0758151 -0.053370133
0000f0 3b 52 61 bd b7 ea 14 3d 33 69 61 3c 10 d1 5e bc
       -0.05501006 0.036356654 0.013757992 -0.013599649
000100 c9 23 bf 3d c1 ed 6c bd 13 36 b3 bd 3a 5e 68 bd
       0.09332997 -0.057843927 -0.08750548 -0.056730486
000110 ac b5 53 3d 7d 54 7e bd 00 7e 38 3c d9 2c 07 3c
       0.051686928 -0.062092293 0.0112605095 0.008250439
000120 91 d8 62 bd 25 73 dd 3c 19 bd 7e 3d 77 61 bf 3d
       -0.055382315 0.027032444 0.062192056 0.09344762
000130 52 7b a7 bd 4e 2a 64 bd 85 38 cd ba c5 7b 5d bc
       -0.08177818 -0.055704407 -0.0015657103 -0.0135182785
000140 df 13 55 3c 53 0d f8 3c 4e 53 6d bd 49 40 e5 bc
       0.013005226 0.030279791 -0.057940774 -0.027984755
000150 21 3e a1 3d 5f 3e 3d bd 89 a4 8d bd 36 a7 4c bd
       0.07873178 -0.04620206 -0.06916148 -0.049964152
000160 25 d5 96 3d 8a d1 4b 3d 2d fc 40 bd ce 37 9f 3d
       0.07364873 0.04976038 -0.047115494 0.07774316
000170 a1 b5 83 3d 00 3c 77 3d c2 0e 1f 3d 85 b6 a3 bd
       0.06431127 0.060359955 0.038832434 -0.07993797
000180 cb 1e 0c 3c 18 1e 97 3c c1 d2 1e bd 90 8f 99 3d
       0.0085522635 0.018446967 -0.03877521 0.074980855
000190 0c 7e f0 3a 36 e9 3a 3d 47 e7 7f bd 9f c7 2f 3d
       0.0018348112 0.045632564 -0.062476423 0.042914983
0001a0 40 62 2b bd 29 97 a1 3c 0b 42 6b 3d 2a 0d 2b 3d
       -0.041841745 0.0197254 0.05743603 0.0417606
0001b0 be 64 bb 3c f5 e4 6f 3c cd 7e b2 3d f7 af 74 bc
       0.022875186 0.01464199 0.087155916 -0.014934531
0001c0 5a 90 ab 3d 73 2c 1f bd 10 80 5b bc 35 cd cd 3d
       0.08377142 -0.03886075 -0.013397232 0.10048906
0001d0 4f 59 76 3d 29 d4 2f 3d 46 98 14 3d c0 84 80 3d
       0.060143765 0.04292694 0.03627803 0.0627532
0001e0 45 35 1d 3d 7f 36 9a bd b6 12 80 bd 16 68 9c 3c
       0.03838088 -0.075299256 -0.06253569 0.0190926
0001f0 4f 66 bb 3c f4 d5 ca bc f9 19 2f bd 4d ea a5 bc
       0.022875933 -0.024760224 -0.04274938 -0.020253325
000200 bd bf 90 3d ef df 29 bd dc aa 27 bd 0a 25 1f 3b
       0.07067821 -0.041473325 -0.04093443 0.0024283552
000210 d0 e5 17 3c f8 04 50 3d 89 dd 99 bb 76 46 94 3d
       0.0092711 0.05078599 -0.0046955985 0.07240002
000220 6b aa 80 bc d1 73 78 bd e8 df 54 bc 53 70 83 3d
       -0.015706262 -0.060657326 -0.012992837 0.064179085
000230 75 b1 b1 bd bb 92 d1 bd 60 8c 96 3d 7d 53 43 bd
       -0.08676425 -0.10233065 0.07350993 -0.047687043
000240 e8 37 27 3d 2d 86 f1 bc a1 22 42 bd 42 f5 06 bd
       0.0408248 -0.029482925 -0.047396306 -0.03294874
000250 15 b3 93 3d 37 84 b6 3d 47 d2 10 3d 38 bf 38 bd
       0.072118916 0.08911937 0.035356786 -0.045104235
000260 08 8e c2 bd 25 e9 af bd 66 bd 03 bd 7b 1d 19 bd
       -0.094997466 -0.08589391 -0.032163046 -0.03738163
000270 18 e3 88 bd 76 cd 8a bc 4a 14 5e bb 65 4d 88 bc
       -0.0668394 -0.016943675 -0.0033886605 -0.016638467
000280 2d fa 11 3d 3d 1d 60 bd b2 b4 db 3a 32 09 b4 bd
       0.035638977 -0.054715384 0.0016762225 -0.08790816
000290 de ab a7 bd 4b ae 84 3d 47 04 e6 bc e2 fc c6 3c
       -0.08187078 0.06478556 -0.028078211 0.024290506
0002a0 00 7b 20 3d c7 a7 b4 bd e7 51 b1 3d ee aa 2a bd
       0.039179802 -0.088210635 0.086582 -0.041666918
0002b0 0d ba 2a bd ad fc e5 3d e0 2f 0c 3d ef d8 8a 3d
       -0.041681338 0.11229835 0.034225345 0.06779658
0002c0 57 26 26 bd 70 a0 c9 3b 8e 34 6e 3b 3e 89 1c 3c
       -0.040563907 0.006153159 0.0036347243 0.009554205
0002d0 4b 4e 06 3c c6 1e bd bd 1a 4a ab 3d 5c 34 84 bc
       0.008197377 -0.09234385 0.08363743 -0.016138248
0002e0 3b e3 6c 3d a4 8a 2d bd 8c e0 36 3d 8d 52 7f 3d
       0.05783389 -0.042368546 0.04464774 0.062334586
0002f0 49 04 18 bd 7c e2 57 bc ce c3 1b bd 00 6c aa 3d
       -0.03711346 -0.013176557 -0.03802853 0.083213806
000300 ff 7f df bb de 45 82 3d 4a 66 72 3d bb 94 13 3d
       -0.0068206782 0.06360982 0.05917958 0.036030512
000310 7c a6 d1 3c ca 53 c5 3c 9d 81 e4 bc fa 40 e5 bb
       0.025592081 0.024087805 -0.027893836 -0.006996271
000320 b4 63 2c 3b b2 76 47 bd 50 1b b3 bd 65 98 40 3d
       0.0026304545 -0.04869718 -0.08745444 0.047020335
000330 c4 cc ca 3d de b1 74 3d 1a 13 5a 3c 1f fe 8e 3d
       0.09902337 0.05973994 0.013310218 0.069820635
000340 50 d2 90 bc 60 fe 31 bc 9f bc 7f 3d a2 91 6f bd
       -0.01767841 -0.01086387 0.062435742 -0.058488496
000350 3c 4e ba bc bc 84 9f bb d6 b2 7a 3c 98 6e 0d 3a
       -0.022742383 -0.004868118 0.015301427 0.0005395203
000360 b1 9c 1a 3d 3d 3a b0 3d cf 00 46 3d 11 8c a5 3d
       0.03774709 0.08604858 0.048340615 0.08083356
000370 42 b3 13 bd 63 e4 02 3d 9a ab 3f bc 01 49 0f 3d
       -0.036059625 0.031956088 -0.011698628 0.03498173
000380 0c 33 34 39 22 b5 f6 bc 6e 8c f2 3c 0a 6d af bd
       0.00017185154 -0.030115668 0.029607978 -0.085657194
000390 8c 42 2c bd 8e 38 ef 3c 3f e5 cc bd ec 3a 4b bd
       -0.04205565 0.029201772 -0.10004663 -0.04961674
0003a0 d4 a1 1d bd de f1 5e bd 57 71 a8 3c 53 04 c5 bd
       -0.03848441 -0.05442988 0.020561857 -0.096199654
0003b0 02 f0 6f bd ee 81 35 3c 39 e2 65 3b fb c6 b7 bd
       -0.0585785 0.011078341 0.0035077466 -0.089734994
0003c0 3b dd 33 bd 95 7c c1 bd 58 fd 4c bd 28 7d a2 3d
       -0.043912154 -0.0944759 -0.050046295 0.07934028
0003d0 b8 88 b6 3d fc f7 4e bd d5 e1 84 3d 5b 67 8c bd
       0.08912796 -0.050529465 0.064883865 -0.06855651
0003e0 13 68 8a bd 40 50 22 3d 79 e9 e2 3c 1d 87 2d bd
       -0.06758132 0.039627314 0.027699219 -0.042365182
0003f0 1f f6 ae 3d 5d 3c 7d 3d 12 9e bf bd 30 e5 6f bd
       0.085430376 0.061825145 -0.093563214 -0.05856818

rnn1.weight_hh_l1 f4 [128, 128]
000000 9a 88 53 3c 01 b0 bb bb 2b cf d1 bc 61 6f b9 bc
       0.012910986 -0.0057277684 -0.02561148 -0.022636117
000010 b9 6d 83 3d 44 69 5e 3d e6 bb a6 3d 5f f7 30 3d
       0.06417412 0.054299608 0.081413075 0.04320466
000020 76 b6 7f 3d ce 21 3b bd 93 69 4e 3c 60 5d b0 3d
       0.062429868 -0.045686536 0.012598413 0.0861156
000030 75 a8 9d bd e5 1f 92 bb e0 80 ca 3d 07 b9 ed bc
       -0.07698146 -0.0044593685 0.09887862 -0.029018892
000040 c1 93 c8 bd 05 3c 38 3d b2 e9 e6 bb c1 09 8e 3c
       -0.09793807 0.044979114 -0.0070469016 0.017338635
000050 8a d3 87 3d a9 15 a3 3b 39 fc d3 3b d3 8a 3e bd
       0.06632145 0.0049769473 0.0064692763 -0.04651911
000060 75 b5 02 3d 04 a4 d8 bc c0 53 f3 3c 5c a6 39 3c
       0.031911332 -0.026445396 0.029703021 0.011331167
000070 99 6b 9b bd 90 e5 9a bd 8d c4 46 3d ca d5 5c 3d
       -0.07588882 -0.07563317 0.04852729 0.053914823
000080 11 79 d0 3c 5b 9b 55 bd 42 31 30 bd c7 3c 0e 3d
       0.025448354 -0.05215011 -0.043015726 0.03472593
000090 ee 38 8b bd 57 06 a3 bb 9d 9c 1c 3c f7 8a ee bc
       -0.06797968 -0.004975121 0.009558824 -0.029118998
0000a0 f6 ef ad bc 29 57 dd 3c 28 c6 b1 3c e1 8b 01 bd
       -0.021232586 0.0270191 0.021700934 -0.03162754
0000b0 e0 85 c9 bc fa 31 7e bc 42 88 53 bd 33 03 83 3b
       -0.02459997 -0.015514845 -0.051643617 0.003998184
0000c0 c0 06 eb bc 6c 7b 6f 3d 70 df 51 3d db 77 03 3c
       -0.028689742 0.058467314 0.051238477 0.008024181
0000d0 3b 15 ad 3c 30 7b 6d bb 78 31 10 3d c1 1e e2 3c
       0.021128288 -0.0036236756 0.035203427 0.027602555
0000e0 3c bf bf bc 57 10 66 bd 6f 3d cb bc 62 65 26 3d
       -0.023406617 -0.056167927 -0.024809567 0.04062403
0000f0 a3 71 19 bd 54 82 29 bd 00 27 88 bd 08 be bf 3d
       -0.037461888 -0.041384056 -0.06648064 0.093624175
000100 04 2b 16 3d 08 7e a7 3d 6d 58 75 3c 88 c7 8b 3d
       0.036662117 0.081783354 0.014974696 0.06825167
000110 d8 c7 b1 3d 19 da ef 3c e7 3a b2 3c 5f bb 47 3c
       0.08680695 0.029278802 0.021756602 0.012190669
000120 16 16 8b 3d 65 18 bf bc 8e 76 9d 3d c6 ec 4b 3d
       0.06791322 -0.023327062 0.07688628 0.04978635
000130 37 ce 89 bd 32 24 b6 3a ab f4 06 bd 1e 30 aa 3d
       -0.067287855 0.0013896285 -0.032948177 0.08309959
000140 9c e7 83 3d 3b 49 51 bd 05 92 66 bd 5d 52 38 3d
       0.0644066 -0.05109523 -0.0562916 0.045000423
000150 ab 3c b3 3c 25 6b 8f 3d 3a 7c 9e bc df 54 59 3c
       0.021879515 0.07002858 -0.019346345 0.013264864
000160 09 84 d5 3c 0c 47 c6 3d d2 ff a3 3d 12 b8 2d bd
       0.026063936 0.0968152 0.08007778 -0.04241187
000170 ea 70 94 3d f4 a8 cd bc 15 93 97 bd e6 dd ae 3d
       0.07248099 -0.025104977 -0.074011005 0.085384175
000180 3d 98 b1 3d d1 8a 58 3d 29 17 89 bd d3 ea 2b bd
       0.08671615 0.05286676 -0.066938706 -0.041971993
000190 61 c4 21 3c 33 41 9c bd e0 9a 17 bd 52 ec 66 bd
       0.009873481 -0.07629623 -0.037012935 -0.056377716
0001a0 cb b7 b4 bb bf c1 70 3d 21 9f d3 bc 9b bf 49 bd
       -0.005515074 0.05877852 -0.025832715 -0.049254995
0001b0 01 b2 5c 3d 8f a2 2b 3d 5a fc 52 3d cd 15 9b bc
       0.053880695 0.041903075 0.051510192 -0.018931294
0001c0 8a 44 66 3d 17 bd b4 3c bc b6 cf 3c c3 36 b9 bd
       0.056217708 0.022062821 0.02535569 -0.09043648
0001d0 88 1c 66 3d 25 42 a3 bc 69 4b a8 bd 71 52 5b bd
       0.056179553 -0.019929001 -0.08217508 -0.05354542
0001e0 57 3c db 3c fa 6e 67 3c cc f6 72 3d 36 fb ac 3d
       0.02676217 0.01412558 0.059317395 0.08446352
0001f0 61 c3 2c 3d ae 9a cb 3c b3 1d be 3c 3f f4 bd bd
       0.042178515 0.02485403 0.023207521 -0.09275102
000200 ee 17 3e bd 1a 9c 81 bd be ff 8c 3d d6 15 69 3d
       -0.04640954 -0.06328602 0.068847165 0.05690559
000210 cb 7b b4 3d b6 75 f3 bc 23 ff 7f 3d 76 b7 46 3d
       0.08812674 -0.029719215 0.062499177 0.048514806
000220 88 eb 69 3d 4b 5a e4 bb ab eb a7 bd f4 c5 6f 3d
       0.057109386 -0.0069687716 -0.08199247 0.058538392
000230 cd 2a a4 bd 35 94 86 3c f4 80 c7 3c be 25 96 3d
       -0.08015976 0.016428092 0.024353482 0.073314175
000240 76 c0 36 3d 44 e7 93 3d 59 2e 94 bb 90 76 15 bc
       0.04461714 0.07221845 -0.0045221266 -0.009122506
000250 14 0e 9b 3d dd 9a 46 3d e0 cd 65 bd 7a 82 9e 3d
       0.075710446 0.048487533 -0.05610454 0.0773973
000260 0e 77 4f 3d e4 81 62 3d 2f 1a e0 bc bb 10 d9 3b
       0.05065065 0.055299655 -0.027356235 0.006624309
000270 89 7e 20 3d b9 07 37 3d 58 b8 a3 bd 90 88 10 bb
       0.039183173 0.0446851 -0.07994145 -0.0022054054
000280 99 0f a1 bd 44 b2 aa bd 0a 9d 2c bc ba c3 13 bd
       -0.07864303 -0.08334783 -0.010535488 -0.03607533
000290 6d 37 33 bd 8d f1 9f bb f3 fb 8a bd 42 eb 97 bc
       -0.04375403 -0.00488109 -0.06786337 -0.018544797
0002a0 60 cc 9b 3d f1 a1 89 3d d2 a7 35 bd 1c 78 d9 3c
       0.07607341 0.06720341 -0.0443495 0.02654653
0002b0 a9 d5 4c 3c 01 12 83 bd 35 bc 3d b9 b9 52 46 bd
       0.012502112 -0.06399918 -0.00018094557 -0.048418734
0002c0 7d bc 9c 3c 8c 4c a8 3d 69 d5 75 3c 5a c8 c0 3d
       0.019132847 0.08217725 0.015004494 0.09413214
0002d0 1d b6 e0 bc 1f 69 84 bd f3 a6 6f 3c d5 cd 48 bd
       -0.027430588 -0.06465363 0.014627206 -0.04902442
0002e0 44 d3 e0 bb ee 76 da bc b5 ff 0f bc 18 84 97 bd
       -0.0068611223 -0.026668038 -0.008788993 -0.07398242
0002f0 fa 97 bd ba bd c3 89 3c 52 2c b2 bd 71 d6 02 3c
       -0.0014464848 0.016816968 -0.0869986 0.007985697
000300 cf 92 8d bd 2e c3 75 bd 7f 4c be 3d c3 5d 9d 3d
       -0.06912767 -0.06000059 0.09291934 0.07683899
000310 51 8e 82 ba 2b 32 8b bc c2 81 58 3d ae d7 da 3b
       -0.0009960626 -0.016991695 0.05285812 0.006678543
000320 7d 0f 6d 3d ff 8d c5 bc 0d fc bd bc 54 93 7b 3d
       0.0578761 -0.02411556 -0.023191476 0.0614198
000330 9f d4 00 3d 53 5b 83 3d 05 26 bb bc 18 cc c5 bd
       0.03145277 0.06413903 -0.022845278 -0.096580684
000340 14 98 06 3c 26 77 9e bc bc 45 7c 3d 0d 7b 39 bc
       0.008214969 -0.019343924 0.06158994 -0.0113208415
000350 3b e4 3c bc 8c f8 4d 3d 26 9e d0 bc 49 c5 87 3c
       -0.011529024 0.05028586 -0.025466036 0.016573565
000360 fe 7c 31 3d dc a9 20 3d e9 16 98 3d 1e c6 82 3d
       0.043332092 0.03922449 0.07426245 0.06385444
000370 ba 93 69 bd ea 77 ba 3d ee 21 eb ba 62 24 8f 3c
       -0.05702565 0.09104903 -0.0017939189 0.017473403
000380 32 1c 9a 3d 9f 19 5e bd 3e c2 b0 bb dd 6a 21 3d
       0.07524909 -0.054223653 -0.005394249 0.039408553
000390 03 72 41 3d e2 4d 61 3d 3b 4e c9 3c e7 3a 20 bb
       0.04722787 0.055005915 0.024573436 -0.002444917
0003a0 4b f1 85 3d 05 65 09 bd 25 1f 9b 3d e1 03 0e 3d
       0.065401636 -0.033543605 0.075743 0.034671668
0003b0 29 ec 53 bc db 54 39 3c ad 84 9a bc 5c b8 b7 3d
       -0.012934723 0.011311735 -0.018862093 0.08970711
0003c0 1e d3 18 3d b9 a5 67 3d b2 ce a3 3d c0 ca 4f 3c
       0.037310712 0.05655453 0.079984084 0.012682617
0003d0 a7 59 55 3d dd 1f 34 3d 6a d9 a7 3d e7 39 ed bc
       0.052087452 0.0439757 0.08195765 -0.028958274
0003e0 45 29 5d bc 09 c5 80 bd 45 70 83 bd a7 a8 72 3d
       -0.013498609 -0.062875815 -0.06417898 0.05924287
0003f0 a8 c2 c6 bd c5 fd d0 bc 4c ff 8e bd 2b 31 03 bd
       -0.097050965 -0.025511632 -0.06982288 -0.032029312

rnn1.bias_ih_l1 f4 [128]
000000 3b e1 23 3d 76 f5 80 3d 10 76 44 3d 7e 27 84 3d
       0.04000972 0.06296818 0.047964156 0.06452845
000010 6a 1f 1d bc f7 ce bf 3c 0c 93 99 bb 70 8f b7 3d
       -0.009590009 0.023414118 -0.004686719 0.089629054
000020 7d 6e 96 bd fb d8 47 bc b8 9e 34 3d 95 13 ab bd
       -0.07345293 -0.012197728 0.04409668 -0.08353344
000030 19 4f 85 ba 3c 25 dc 3b 9d 01 65 3d 64 d2 6a ba
       -0.0010170668 0.006718306 0.05590974 -0.0008957742
000040 b0 f6 8e 3d c3 2b 9a bd 2b 43 55 3d c0 f3 88 3d
       0.06980646 -0.07527878 0.05206601 0.066871166
000050 ee 75 82 3d f8 90 1d 3c 39 0d a3 3d b3 31 11 bd
       0.063701496 0.009617083 0.079615064 -0.035447787
000060 cb dc 22 bd 9b ca dc bc b3 ae 0e 3d eb e6 02 bd
       -0.039761346 -0.026952079 0.034834575 -0.0319585
000070 e3 4d 4c bd d9 bd 7f 3d 6d 3c 53 3c f7 50 9a 3d
       -0.049878966 0.062436912 0.012892825 0.07534974
000080 39 1b ee 3c b0 44 b3 3c ed 5e 9b 3d 54 0d a2 bd
       0.029065715 0.021883339 0.07586465 -0.079126984
000090 f1 49 5a bd a1 f1 6c 3d cd bb 24 bc 49 b5 03 bc
       -0.053293172 0.057847623 -0.010054541 -0.008038827
0000a0 25 c5 1a 3c e2 dd 26 bc d6 56 a1 bd a7 f4 78 3d
       0.009446417 -0.010184737 -0.07877891 0.060780194
0000b0 80 be 7f 3d 38 49 03 bd f8 19 80 bd cf f0 27 3d
       0.062437534 -0.03205225 -0.06254953 0.041001137
0000c0 58 64 4f bd a9 6f 2e bd 9e d9 53 3d cc d7 11 3d
       -0.050632805 -0.042586956 0.051721208 0.03560619
0000d0 4d b0 a3 3b 96 bd 8f bd 02 de 29 3d be f3 c1 ba
       0.004995382 -0.070185825 0.04147149 -0.0014797372
0000e0 b8 1f 0b bc 16 a4 33 bc 25 54 a9 bb 31 87 95 bd
       -0.008491449 -0.010964414 -0.0051675015 -0.07301176
0000f0 0b 57 51 bd c0 a3 7b 3d de 1e bc 3d bd 51 86 bc
       -0.0511084 0.06143546 0.09185575 -0.016396398
000100 e4 8b 5e bb f1 0b 52 3d f0 24 5e bd 6e 16 b8 bd
       -0.0033957893 0.05128092 -0.054234445 -0.08988653
000110 68 27 b0 3c 86 76 53 3d 9c 7a 9a 3b bb 78 8b 3d
       0.021503165 0.051626705 0.004714323 0.06810137
000120 1f 0f aa bc 22 d0 96 bd 11 a6 be 3c 1e 7f 91 3d
       -0.020759163 -0.07363917 0.023272546 0.07104324
000130 bd f6 e0 3b db 0c dd bc 6e 31 d1 3d 89 2f 49 bd
       0.006865351 -0.026983669 0.10214506 -0.0491176
000140 88 40 49 bd 14 2f 21 3d 2a e7 0b bd 14 06 24 3d
       -0.049133807 0.039351538 -0.034156002 0.04004486
000150 4f 26 fa bc 10 f4 f3 bb 27 47 cb 3d dd d0 5c bd
       -0.030535845 -0.007444866 0.099256806 -0.053910125
000160 f2 8c 6e bd 93 5a 13 bd eb e4 53 3d 44 9c b7 bc
       -0.058239885 -0.03597505 0.051731985 -0.02241338
000170 67 d1 c6 bc 0e 97 b6 3d 65 f9 92 bc 4a 67 43 bd
       -0.024269773 0.0891553 -0.017941186 -0.047705926
000180 1e f6 86 bd 02 58 de bc 80 4d 0f 3d 37 df 93 3c
       -0.06589912 -0.027141575 0.03498602 0.018050773
000190 bc 0b 9c 3d 79 cb 17 bd f4 88 0c bd 7c b2 fd bc
       0.07619426 -0.03705928 -0.034310296 -0.030968897
0001a0 aa d0 66 bc b5 41 3b 3d d2 f1 a3 3d 46 93 79 3d
       -0.014087835 0.04571696 0.08005108 0.060931467
0001b0 e9 91 83 3d 2c c2 50 3d ca 55 af 3d 2e 65 b8 3c
       0.064243145 0.050966427 0.08561285 0.022509184
0001c0 e3 7a a5 3d eb c7 95 bc 2c e0 7a bd 72 90 e1 3c
       0.080800794 -0.018283805 -0.061248943 0.027534697
0001d0 5c eb 9a 3d 68 12 30 bd 56 d4 3b bd fa c6 12 bd
       0.075644225 -0.042986304 -0.045856796 -0.03583429
0001e0 4f 05 18 3d 7e 77 cd bd f0 ee 48 bd 04 8e 85 bd
       0.037114438 -0.10032557 -0.049055994 -0.06521228
0001f0 1c 0b 64 3d 6e cf 7a bd be e0 95 3c 8d 7c bc bd
       0.055674657 -0.061232977 0.018295642 -0.09203444

rnn1.bias_hh_l1 f4 [128]
000000 66 1f 95 bd 83 69 5c bc 87 39 09 3c 72 c7 a1 3b
       -0.072813794 -0.01345289 0.008375532 0.004937106
000010 b6 4d 95 3d 66 9f 02 3d ab 54 8c bc 28 46 c4 3d
       0.07290213 0.031890295 -0.017130217 0.09583694
000020 2b 7a 20 3d ec b1 b9 3d cf cf 1f bd c7 f1 a1 3d
       0.03917901 0.09067139 -0.03901654 0.079074435
000030 64 9a 56 3c 7e 15 a8 bd d2 94 50 bc 4a c2 71 3d
       0.013098333 -0.08207224 -0.012730794 0.05902318
000040 14 9e 0e 3c 18 5d 59 3d cc 14 aa 3d 34 7d 80 bd
       0.008704681 0.053067297 0.08304748 -0.062738806
000050 a3 72 13 bd 48 3c 19 bc 39 e4 62 bc ff 71 f5 3b
       -0.035997998 -0.009352751 -0.013848358 0.007490396
000060 2b 09 cd 3b 13 b1 47 bd 06 fe a5 bd 9f c7 70 3d
       0.0062571964 -0.048752856 -0.08105092 0.058784124
000070 60 a1 39 3c b0 2d 61 bd 91 17 a0 3c 16 5b d5 3d
       0.011329979 -0.05497521 0.019542487 0.10417764
000080 d1 24 73 3d a6 e5 c4 bc cc 19 a1 bd 72 c3 65 3a
       0.059361283 -0.024035286 -0.078662485 0.00087647804
000090 f5 bb 09 3d 2d 1f c1 bd 54 46 b1 3d a6 43 ea 3c
       0.033626515 -0.094297744 0.08655992 0.02859671
0000a0 7a fd 94 3d 43 7b 62 bd e5 23 00 bc ac be 5d 3d
       0.07274909 -0.055293333 -0.007821058 0.054136917
0000b0 4a c8 17 bd 84 45 33 bd a4 db 30 bd 2c e0 b5 bd
       -0.037056245 -0.043767467 -0.043178216 -0.08880648
0000c0 2a 68 3c 3b 00 bc ab bd 28 80 6d bb 09 14 09 3c
       0.002874861 -0.083854675 -0.0036239717 0.008366593
0000d0 97 34 48 bd e1 fe 66 bd eb 28 77 bd 96 33 5c 3d
       -0.04887828 -0.056395415 -0.060341757 0.053760134
0000e0 ce b4 a9 bd d1 20 9c 3d f4 bc 17 bc d7 6b e7 bc
       -0.08286439 0.07623447 -0.0092613585 -0.028249664
0000f0 ec f4 a7 bc ed 80 cb 3c 46 cf 94 bd b7 69 81 bd
       -0.02050253 0.02484175 -0.07266097 -0.06318992
000100 27 3d b4 3d 69 8b cb bd df af 2f 3d 27 fc 29 bd
       0.088007264 -0.099387 0.042892333 -0.041500237
000110 61 3a 26 bc 3c 16 f1 bc 00 75 0f bc 46 91 7d 3d
       -0.010145755 -0.029429547 -0.008755922 0.06190612
000120 27 1f 8d 3d f6 77 ff bb 77 79 b3 bc 1d 3f 96 bd
       0.068907075 -0.007796283 -0.021908505 -0.07336257
000130 81 66 7f bd 83 b7 87 3d e6 9c 9c 3d 17 cd 91 3d
       -0.062353615 0.06626799 0.076471135 0.07119196
000140 3d 9a cc 3b 8a 65 a9 bd 83 29 13 bd cc 3a 45 3b
       0.0062439726 -0.0827132 -0.03592826 0.003009486
000150 83 db ab 3d 45 82 ec 3b 35 5d 5a bd 22 35 53 bc
       0.08391478 0.007217678 -0.053311545 -0.012891086
000160 f3 b3 21 3c 1e 8b ca 3c ac 08 e4 bc 93 0d 3c bd
       0.009869563 0.02472454 -0.027836166 -0.045911383
000170 b0 30 c0 3d 64 a6 9f bc 13 ce 36 bd 4a 56 85 bb
       0.093842864 -0.01948852 -0.04463012 -0.0040691243
000180 07 c7 73 3c 10 bd 72 3d b4 c5 7e bd 95 72 65 3d
       0.014878995 0.059262335 -0.062200263 0.056017477
000190 82 7d 8c 3d 59 41 ec 3c 06 bb 78 bd 3b 7c 91 bc
       0.06859876 0.028839754 -0.060725234 -0.017759433
0001a0 2d f0 d4 3d 9d 38 76 bd 84 39 92 3d 9e 0f 7a bd
       0.103973724 -0.060112584 0.071398765 -0.06105005
0001b0 7d 0c ac 3d 5c bf 40 3d 90 9e 51 3d b7 72 89 bd
       0.084008195 0.047057495 0.051176608 -0.06711333
0001c0 ff a2 0f 3d 76 79 a2 3d c8 b8 5c bd 46 06 3a 3d
       0.035067555 0.07933323 -0.05388716 0.04541614
0001d0 88 68 89 bc cd 8f 61 bd 87 69 90 bc e5 62 12 bd
       -0.016773477 -0.05506878 -0.017628444 -0.035738844
0001e0 46 bb 5f 3d af ad 7e 3d 0d 9b 20 3d 22 b8 88 bd
       0.054621957 0.062177356 0.039210368 -0.066757455
0001f0 11 b5 fc 3c c9 25 55 bc dd 98 12 bd 92 37 82 3d
       0.030848058 -0.013009497 -0.035790313 0.063582554

fc.weight f4 [1, 128]
000000 60 4a 6b bc 93 e5 2b 3c 94 a8 29 bc 56 9c 20 bd
       -0.014360994 0.0104917465 -0.010355134 -0.039211594
000010 fd d8 dd 3c 3d 65 15 3d f5 de 9c 3d cc ae 40 3d
       0.027081007 0.0364735 0.07659713 0.0470417
000020 75 6f 5d bd e1 9d 94 3d 94 d3 76 bd 9b 43 45 bc
       -0.05406137 0.072566755 -0.06026037 -0.012040044
000030 34 c1 59 3c bf af 8d 3c e6 11 5e bc 0d 0f b7 bd
       0.013290692 0.017295716 -0.013554072 -0.089384176
000040 a0 66 f1 3c 4c 07 a6 bd eb c6 8d bc 45 ed 67 bc
       0.02946788 -0.081068605 -0.017306766 -0.014155691
000050 25 0e c9 3c f1 80 43 3d b7 e8 9b 3d 53 13 84 bd
       0.024542877 0.04773039 0.07612746 -0.06448998
000060 84 ff c5 bd 61 f6 2c 3c ce 73 9e bd d4 c9 44 bd
       -0.09667876 0.010556788 -0.07736932 -0.04804404
000070 7b 38 9f 3d 1a 5f 17 bd 1c 25 27 bd 54 fe 6c 3d
       0.07774445 -0.03695593 -0.040806875 0.057859734
000080 f0 51 c6 3d 6a 8f 87 bd b5 1d 80 bd 38 bd 1e bd
       0.09683597 -0.06619151 -0.06255666 -0.03875467
000090 6d 65 44 bc 5c 34 7c bd 15 d1 26 3c ac 33 c4 bd
       -0.011987072 -0.06157337 0.010181685 -0.09580168
0000a0 a5 2e 2e 3c 16 e3 13 bd 32 39 1f 3b 60 c4 20 3c
       0.010631238 -0.036105238 0.0024295566 0.009812444
0000b0 98 d8 18 3d a3 0c a4 bb 79 92 c9 bd a2 cc c5 bd
       0.037315935 -0.005006389 -0.098423906 -0.09658171
0000c0 75 1d 41 bd 3a f4 9a bd d3 a1 3d bd 16 0d 99 3c
       -0.047147233 -0.07566114 -0.046296906 0.018682998
0000d0 80 25 c6 3d cf 08 98 3d 91 96 6c bd b4 b4 bb 3d
       0.09675121 0.07423555 -0.05776078 0.09165326
0000e0 9d 20 31 bd d5 37 a4 bd 22 5b 7c bc 31 78 f7 3c
       -0.043243993 -0.080184616 -0.015402587 0.030208679
0000f0 69 b3 29 bd 33 a8 e0 3c 87 9a 6b bc cb 96 eb bc
       -0.041430864 0.027423954 -0.014380104 -0.028758427
000100 84 bf a3 3c b4 c4 92 bd 45 e2 b4 3c 7d 93 26 bd
       0.019988783 -0.071664244 0.02208055 -0.040668
000110 9e 8e d0 3b a2 a0 57 bd 9e 26 b2 bd 01 b3 d8 bc
       0.0063646575 -0.052643426 -0.08698772 -0.026452543
000120 e8 f9 77 bd a4 7a 7d 3c 1b 19 58 3c be 52 a6 3d
       -0.060541064 0.015471134 0.013189579 0.081212506
000130 2d 2c 84 bc a5 93 a0 bd 83 f6 68 3d 63 1c 4b bd
       -0.016134346 -0.07840661 0.056875717 -0.04958762
000140 61 08 9f 3d 0d 56 45 3c 00 fc 24 bd 11 a1 20 bd
       0.0776527 0.012044442 -0.04027939 -0.039216105
000150 f1 09 0a bd 6a f3 80 3d 3f 7d ef 3c a3 b6 73 3d
       -0.033700887 0.062964275 0.029234527 0.059500348
000160 66 3a 97 bd 72 50 8b bd 66 09 8a bd 06 88 fb bc
       -0.073841855 -0.06802453 -0.06740074 -0.03070451
000170 17 3d 52 3d 49 d8 60 3d 24 d9 b8 3c 79 18 5e bd
       0.05132779 0.054893766 0.022564478 -0.054222558
000180 55 70 17 bd 6a a8 c6 bd 10 3a 96 bc bb 68 42 3d
       -0.036972363 -0.09700091 -0.018338233 0.04746316
000190 4a 3f b0 3d fb 18 a3 bc 09 e2 08 bd a6 76 b9 bb
       0.086058214 -0.019909373 -0.03341869 -0.005659896
0001a0 f8 ea de 3c f4 89 4f bd da 08 21 3d 13 89 06 bb
       0.027211651 -0.05066867 0.039315082 -0.002052848
0001b0 b3 7f 47 3d e8 de 5a 3d 0c 19 b6 3d 62 82 1a bd
       0.048705768 0.053435236 0.08891496 -0.037722
0001c0 9b 05 34 bd 05 2e 21 3d 09 05 20 3d 12 66 2a 3d
       -0.04395066 0.03935053 0.039067302 0.041601248
0001d0 75 6a b9 bd a4 1e 2e bd 08 72 8b 3d 49 50 ac bc
       -0.09053508 -0.04250969 0.06808859 -0.021034377
0001e0 51 52 5e bd 47 04 4f 3d 61 03 24 3d 87 ba b2 3c
       -0.05427772 0.05054119 0.040042285 0.021817459
0001f0 8b 9f b5 bd fc 28 bc 3d 80 23 1b bd 69 4c ca bc
       -0.08868321 0.09187505 -0.037875652 -0.024694638
