model_trained.pt (torch, 202110 bytes, 9 tensors)

rnn.weight_ih_l0 f4 [128, 1]
000000 75 f4 94 3d 53 21 c1 bd bd 65 95 3d 7b 7a b6 bd
       0.07273189 -0.09430184 0.07294796 -0.0891008
000010 61 b2 72 3d 09 c7 89 3d 79 1c a8 bd 8f 27 96 3c
       0.059252147 0.06727416 -0.08208556 0.01832941
000020 7c de 0c 3d ef 8d 26 3d c1 b6 87 bc 52 89 bf bd
       0.034391865 0.040662702 -0.016566636 -0.09352364
000030 54 62 c9 3d 00 62 87 3d 27 b0 ca bc d1 87 c5 bc
       0.09833208 0.06610489 -0.0247422 -0.024112614
000040 10 d1 a6 bd 7d 5f 81 3d 14 e8 bd 3d 84 3c 8f bd
       -0.08145344 0.06317041 0.09272781 -0.06993964
000050 b5 ba 6a bd 40 be d7 bd ed ed b6 3d c3 5c c5 3d
       -0.057306964 -0.10534334 0.089320995 0.096368335
000060 af bc 6f bd b4 2b b7 3d 8d 36 99 3d 9a db a5 3d
       -0.058529552 0.089438826 0.07481108 0.08098526
000070 a4 7f a4 bd 94 ef 7c 3d cc a7 ab bd a7 f6 9e 3d
       -0.08032158 0.061751917 -0.08381614 0.07761889
000080 58 dd a6 bd 37 7e 67 3d a4 7d 8c bd 79 db 90 3d
       -0.08147687 0.056516852 -0.068599015 0.07073111
000090 84 f7 ef bb 2e c2 4e 3d 29 61 13 3d bd 61 40 bd
       -0.0073232073 0.050478153 0.03598133 -0.04696821
0000a0 d6 8a 18 bd 1f 24 15 3c 99 f6 69 3c dd a8 b5 bc
       -0.03724178 0.00910285 0.014279985 -0.022175247
0000b0 c7 51 b2 3d 19 65 2a 3d b3 db 47 bd 7f 2c ac bd
       0.08707004 0.04160032 -0.048793506 -0.084069245
0000c0 12 d9 37 3d 2b fc 82 bd 29 d1 9b bd 16 3b 88 3d
       0.04488475 -0.063957535 -0.076082535 0.06651895
0000d0 da 1f f6 3c c3 1f d6 3c f1 f1 79 bd 13 92 6b 3d
       0.030044485 0.026138192 -0.06102175 0.057512354
0000e0 75 a3 95 3d 25 48 83 3c 37 50 68 3d 64 f6 b7 bc
       0.073065676 0.016025612 0.056717124 -0.022456355
0000f0 ca 97 38 bd 05 98 0e bd a2 ab df 3d 1c 7c b2 bd
       -0.045066632 -0.034812946 0.10921408 -0.08715078
000100 ba 94 4c bd 8c 2b c8 bc 25 5f f3 3c 03 f1 73 bd
       -0.049946524 -0.024434827 0.029708454 -0.05955602
000110 b7 13 87 bd cb 1e f7 bd d0 f4 c1 3c e9 58 5b bd
       -0.06595557 -0.1206642 0.023676306 -0.05355159
000120 95 06 ae bd ec 8f 98 bd fa dd 23 bd 4c 9b 91 3c
       -0.08497349 -0.07449326 -0.040006615 0.017774247
000130 4e de f1 bc 8f 50 e4 bb 7c a8 9b bd 06 e1 2e bd
       -0.029524948 -0.006967611 -0.07600495 -0.042695068
000140 85 6a b1 bd 7d 2d 02 3d a3 9c a2 3d b7 be 3e 3d
       -0.08662895 0.031781662 0.07940032 0.0465686
000150 5e e8 41 3d 6e 3d 07 3d a6 4f 7b 3d b4 2d 34 3d
       0.047340743 0.03301757 0.061355256 0.0439889
000160 c4 af 44 bc b0 68 bd bd 5d 36 3c 3b fc 61 9d bb
       -0.012004796 -0.09248483 0.0028718926 -0.0048029404
000170 09 61 1b 3d e2 c1 58 3d 9c ac 20 bd 97 65 18 bd
       0.037934337 0.052919276 -0.039227113 -0.03720626
000180 aa a5 05 bd 70 18 5e 3d 9e 11 91 3d 7e 2d 80 3d
       -0.032628693 0.054222524 0.07083438 0.06258677
000190 8c 8b b1 bd 3e 8e ac 3d 06 3c 8c 3d 21 4e fa 3b
       -0.086691946 0.08425568 0.06847386 0.007638708
0001a0 f7 a5 94 3d 5a 4c 9e bd 03 03 5e bd 32 4f b2 3c
       0.07258218 -0.07729407 -0.05420209 0.021766279
0001b0 0c cb ad 3d 88 0a ef bc a6 5b a4 39 cf 5c bf bd
       0.08485994 -0.029179826 0.000313488 -0.09343874
0001c0 38 80 54 3c d2 36 63 3d 18 94 90 3c c3 1f 23 3d
       0.012970023 0.055472203 0.017648742 0.039825212
0001d0 e4 9f 2a 3d 2c ab 4f 3d fc f3 ab 3d 28 63 4f 3d
       0.04165639 0.05070035 0.08396146 0.050631672
0001e0 55 85 62 3b 75 35 46 bd 6f 19 80 3c a0 4e 3f bd
       0.0034564335 -0.048390824 0.015637128 -0.046705842
0001f0 94 34 44 3d 11 79 b0 3d 03 17 74 bc 0b 95 eb 3c
       0.047901705 0.086168416 -0.014898065 0.028757593

rnn.weight_hh_l0 f4 [128, 128]
000000 75 90 92 bd d7 a9 2f bd 25 bc af bc ed 81 92 bd
       -0.07156459 -0.04288658 -0.021452019 -0.071536876
000010 38 46 a9 3b 82 34 4a 3d dc 4f 1e 3c a4 18 dd ba
       0.0051658414 0.04936648 0.009662595 -0.0016868305
000020 00 35 d9 3c 6c 3f 50 3d 85 00 ab 3d cb 7f e9 bc
       0.02651453 0.050841734 0.083497085 -0.02850332
000030 63 e0 8f bd 47 31 3b 3d b7 7b 7b 3d 2d c6 93 3c
       -0.0702522 0.04570129 0.06139728 0.018038834
000040 c7 8c c3 bc 73 95 51 3d 20 66 94 bd a2 2b 55 bd
       -0.023870839 0.051167917 -0.07246041 -0.052043565
000050 29 c5 4d 3c 2c 8f a9 3d f6 92 95 3b 74 c0 8c bc
       0.012559214 0.08279261 0.0045646382 -0.017181613
000060 9e a7 ee 3c 12 67 fa bc c0 dc 86 3d 94 c4 a2 3d
       0.02913266 -0.030566726 0.065850735 0.079476506
000070 f7 d5 6e 3d f7 a6 83 bd 67 43 f0 bb 9f 46 5c bd
       0.05830952 -0.064283304 -0.0073322537 -0.053778287
000080 18 b7 1f bd a4 99 24 bd 1f 30 84 bd 2b 1a 88 3d
       -0.03899297 -0.040185586 -0.06454491 0.06645616
000090 d2 29 36 bd 1e e1 22 bc 19 f2 88 3d f6 9a bb 3c
       -0.044473477 -0.009941367 0.066868015 0.02290104
0000a0 bd ee 5c 3c 46 2e 09 3d c8 26 2b bd 11 2a 83 bd
       0.013484654 0.033491395 -0.04178503 -0.06404508
0000b0 2f 85 8b ba 10 5c 78 3d 53 b5 16 3d 15 43 4c 3b
       -0.001064455 0.060634673 0.036794018 0.0031167914
0000c0 76 5e 83 3d 73 4a 5b bd 5b e3 63 bd 64 80 34 3d
       0.06414501 -0.053537797 -0.055636745 0.044067755
0000d0 86 e4 13 3d 07 29 a3 3d eb 63 88 bd 7a 72 5e 3d
       0.03610661 0.0796681 -0.06659683 0.054308392
0000e0 5c 5d 8d bd 1c 13 9e bd e8 8c f6 bc b3 1b a0 3d
       -0.069025725 -0.077184886 -0.030096486 0.07817783
0000f0 63 ea 8d 3d 12 12 28 bd e4 c5 d6 3b 8e 1d 2c bb
       0.06929471 -0.04103286 0.006554352 -0.0026262733
000100 2a 61 b0 3d 39 a8 4c bd 82 4b 0e bd 67 2d d0 bc
       0.086122826 -0.049965117 -0.03473998 -0.025412275
000110 bb b9 56 bb 3f 09 98 bd 8c 5f 3c 3d 11 5d 10 bd
       -0.0032764513 -0.074236386 0.045989558 -0.035245005
000120 99 b6 39 3d 13 5a e9 bc c0 e0 ad 3d 1d 09 4e 3d
       0.045340154 -0.028485334 0.08490133 0.05030166
000130 cb d2 98 3d 7c 7a 3d 3d 29 52 69 3d 69 56 a6 3c
       0.074620806 0.04625939 0.05696312 0.020304875
000140 b8 e8 5f bd 4a 8a df 3c 43 08 7d 3b 80 26 6c 3d
       -0.054665297 0.027287621 0.003860966 0.057653904
000150 c0 ab 32 bd 24 57 d8 3b 32 51 f8 3c 50 4d c5 bc
       -0.043620825 0.006602185 0.030312154 -0.024084717
000160 42 6f 85 bd 37 12 94 3c fc b3 5c bd 30 2f c3 bd
       -0.06515361 0.018075092 -0.053882584 -0.09530485
000170 37 42 21 3d 66 3a 96 3d b7 07 94 3d ec a5 43 bd
       0.039369788 0.07335357 0.07228034 -0.047765657
000180 fe 64 3f bd 4a 4c 9b 3d 17 a6 47 3d 23 9e da 3c
       -0.046727173 0.0758291 0.04874238 0.026686734
000190 74 82 2f 3d e9 b5 cc 3b d1 1a 19 bd 21 19 b8 bd
       0.04284902 0.0062472713 -0.03737909 -0.08989168
0001a0 90 b4 4f 3d 2d f8 cc bb 02 b5 be bd 95 2c 9c bd
       0.050709307 -0.006255171 -0.09311868 -0.07625691
0001b0 94 d5 99 bc 91 d5 94 3d 4e 24 46 3c 9e d1 3f 3a
       -0.0187786 0.07267297 0.012093617 0.0007317307
0001c0 1f 08 8d bd 64 fc 4f bc 31 a7 f4 bc c5 fe c6 bc
       -0.068863146 -0.012694452 -0.02986488 -0.024291405
0001d0 4f e3 57 bd 8b c0 ba 3a 3b c8 1e 3d e1 8c cd 3c
       -0.052707013 0.0014248056 0.038765173 0.02509159
0001e0 a6 1c 34 bd 8f a5 02 bd ca 01 77 bd 85 70 8b bd
       -0.043972634 -0.03189617 -0.06030444 -0.06808571
0001f0 0d 25 9a 3c 82 90 37 3d a9 a2 9a 3d fc 0f 19 3d
       0.018816495 0.044815548 0.07550556 0.03736876
000200 b4 61 84 bd 50 a5 a8 3c 10 ba 90 bd 53 82 75 bd
       -0.06463948 0.02058664 -0.070667386 -0.05993874
000210 13 8f 8f 3d a0 aa 86 bc 15 da 9f 3d f1 fe 93 bc
       0.07009711 -0.016438782 0.07805268 -0.018065901
000220 a9 be a9 b9 ff 8c 9f 3c 1d 1f 7a 3d b7 ce 72 3d
       -0.00032376245 0.019476412 0.06106483 0.05927917
000230 a3 7a 38 bb 55 84 2c bb e1 78 08 3d 92 a3 65 3c
       -0.002814927 -0.0026323993 0.033318404 0.014016049
000240 3b 5a b4 3c bf fc 2d bd bf 5e be 3c 62 25 ca 3c
       0.022015681 -0.042477366 0.023238538 0.024676029
000250 aa 05 2e bc 5b 78 81 bd 6c 88 51 bd b9 0d 84 3c
       -0.010621468 -0.06321784 -0.051155493 0.016119825
000260 2a 03 17 3d fd 7c 5c 3c 4e 88 c5 bd 36 2a 2e bd
       0.03686825 0.013457534 -0.09645139 -0.042520724
000270 3b c1 03 bd 12 d2 83 3d 34 38 ad 3c 2f 4b 3a bd
       -0.0321667 0.06436552 0.021144964 -0.045481857
000280 ea 2a 62 3d 2f 16 a9 bd 4f 8c 5a bc bc e4 04 bc
       0.055216707 -0.08256184 -0.013339116 -0.008111175
000290 a4 a5 7c 3d a7 5d 89 bd 0f 92 9f bd 4d df 61 3d
       0.061681405 -0.06707316 -0.0779153 0.055144597
0002a0 f8 20 f8 3c 96 f2 30 bd ce 28 0a 3d 21 bc b6 3d
       0.030289158 -0.043200098 0.03373032 0.089226015
0002b0 e2 e3 47 3d be d3 7c bd 91 32 25 bd 2a 01 be 3d
       0.04880131 -0.06172537 -0.040331427 0.09277566
0002c0 82 94 22 bd cc 3c 29 3c 0f 5c 13 3c be 09 98 3d
       -0.03969241 0.0103294365 0.008994116 0.07423733
0002d0 0c 09 60 bd 21 48 53 bd 05 c2 bd 3d 06 2b e5 bb
       -0.054696128 -0.05158246 0.09265522 -0.006993654
0002e0 3e 4d 86 bd d6 39 0b 3d 6b 74 88 bd 0f 03 f6 3b
       -0.065577015 0.033990704 -0.0666283 0.007507689
0002f0 94 5c 10 bc c4 93 10 3b 5b 9c 31 3d 47 4f df 3c
       -0.008811135 0.0022060731 0.043362003 0.027259482
000300 b3 b6 ce bc 8c 36 95 bd 82 c1 a9 bc d1 83 6c 3c
       -0.025233602 -0.072857946 -0.020722155 0.014435724
000310 01 c3 3d 3d 84 ac 47 3c 9e 2e 3d 3c 80 36 1d 3d
       0.04632855 0.012187127 0.011546759 0.038382053
000320 6d a1 8d bc cd 45 6a bd f1 a2 67 bb 77 58 4b bd
       -0.017288888 -0.057195473 -0.0035344923 -0.049644914
000330 35 27 c5 3d 53 b7 d7 3b 8b b1 40 3d 39 cf a6 bd
       0.09626619 0.0065831332 0.04704432 -0.08144993
000340 05 03 3f bd 9a a8 1c 3d 11 6f fc bc 8d 0b e7 ba
       -0.04663374 0.03824673 -0.03081468 -0.0017627344
000350 3a 2f b8 3b 5e ec 87 3d 79 59 ea 3b 80 0a 5b bd
       0.005620864 0.0663688 0.0071517793 -0.05347681
000360 9a 8b 07 bd 08 50 aa bd 64 bc 0b 3d c9 7d 89 bd
       -0.03309212 -0.08316046 0.03411521 -0.06713445
000370 c4 b1 81 bd 19 eb 88 3d 39 37 aa 3d 87 94 89 bd
       -0.06332734 0.06685466 0.08311314 -0.067177825
000380 41 4f 05 bd 32 82 93 3d 31 65 5a 3d 85 21 20 3a
       -0.032546286 0.07202567 0.05331916 0.00061085104
000390 20 d2 74 bd 99 8c 5a 3c 6d 2f c0 3c 0b 44 08 3d
       -0.059770703 0.013339185 0.023460114 0.033268016
0003a0 1c 61 56 bd fa 7a 62 bd 4a 9e c1 bc 45 e6 04 3d
       -0.052338704 -0.05529306 -0.023635048 0.032446165
0003b0 7a f3 75 bc d3 5d 81 bd 15 4b 68 3c fb 48 de bc
       -0.015011663 -0.06316724 0.014178057 -0.02713441
0003c0 d1 d5 ae bd 91 f7 4d bd e3 d1 95 bd 8f 22 82 3d
       -0.08536876 -0.050284926 -0.07315423 0.06354248
0003d0 cf 28 71 bc d6 b8 6e ba a1 c4 8f 3b 1a 96 5e bd
       -0.014719202 -0.0009106522 0.0043874537 -0.054342367
0003e0 93 f2 96 3d 7a 58 36 bd 40 0b cb bb 9b 69 d3 bb
       0.07370486 -0.04451797 -0.0061964095 -0.006451798
0003f0 77 31 10 3c 75 73 64 bc c8 a2 a8 39 ca 8a fd 3c
       0.008800856 -0.013943543 0.00032164739 0.030949969

rnn.bias_ih_l0 f4 [128]
000000 78 f7 74 3d e6 9f 6b 3c 4e 69 92 bd 78 ec 44 bd
       0.059806317 0.0143813845 -0.071489915 -0.048077077
000010 0f 30 6a 3d 39 90 f5 bc 33 c0 74 bd 28 3a 89 3c
       0.05717474 -0.029975997 -0.059753608 0.016751364
000020 7f b5 ad bd 88 50 3f bd b2 fb e5 3c d7 d5 74 3d
       -0.08481883 -0.04670766 0.02807412 0.059774246
000030 ad 3b 2a 3d 2e 99 99 3a 86 15 30 bd c1 75 be bb
       0.041560818 0.0011718625 -0.042989276 -0.005812377
000040 1d 3e af 3d 7d 1a 62 3d 1c 2c fa 3c 24 d4 a6 3d
       0.08556769 0.055201042 0.030538611 0.08145931
000050 ae 35 a1 bc 79 1c 89 bd 22 dd 9c bd 63 c5 3e 3c
       -0.019678917 -0.06694884 -0.07659365 0.01164374
000060 6c 33 0f bd c0 2a ad 3d 91 86 1e 3d e2 aa 95 bd
       -0.03496115 0.084554195 0.03870255 -0.07307984
000070 88 1a 0b bd a1 ae b6 bd ef 79 9d 3c f5 a9 96 3d
       -0.03396085 -0.089200266 0.019223182 0.073566355
000080 7a da 6a 3d 2d 9d 64 bd 89 cb 83 3d 2e ad 07 bd
       0.05733726 -0.055813957 0.064353056 -0.03312414
000090 45 4f 26 3d 53 1d 86 3d 71 c6 22 3d 0c 4f 7a bc
       0.04060294 0.06548562 0.03974003 -0.015277635
0000a0 b9 c1 68 bd 4d 61 87 3d a6 44 94 3d 11 88 8d 3d
       -0.056825373 0.066103555 0.07239656 0.06910718
0000b0 f4 29 e3 3b 21 1f 78 bd 4c f4 80 3c a0 42 63 3c
       0.0069324914 -0.06057656 0.01574149 0.013870865
0000c0 e0 e2 82 3d a7 14 92 39 b8 1b 5b bd 0a 2c 0b 3d
       0.06390929 0.00027862677 -0.05349323 0.033977546
0000d0 90 79 7b 3d 59 44 81 bd 07 c0 09 3c 98 20 64 bd
       0.061395228 -0.063118644 0.008407599 -0.055695146
0000e0 53 c5 0b bd fb ae a4 bc 4b ef 9b bd c5 05 83 3d
       -0.03412373 -0.020102968 -0.07614001 0.06397585
0000f0 15 cb 7d bd 55 c4 9a bd 2b 9c 91 3d f6 9c 80 bd
       -0.061961252 -0.075569786 0.07109865 -0.06279938
000100 92 3b 3e bd 97 5d da 3c 5f 8e f3 bc bf 4a 40 bd
       -0.04644353 0.026655955 -0.029730974 -0.046946283
000110 58 00 9d bd 00 91 8f bd 24 3a 96 3d 05 71 ee 3c
       -0.07666081 -0.070100784 0.07335308 0.029106626
000120 72 36 a0 3d f2 01 0f 3d 82 41 5b bd 31 e0 07 3d
       0.078228846 0.034913965 -0.05352927 0.03317279
000130 de 55 75 3d 6d a2 ef bc 4d 4d 83 3d f0 c4 1d bd
       0.059896342 -0.029252255 0.06411228 -0.038517892
000140 93 12 7d bb 84 bb 31 3d ec 7e 54 3d 3c 4e b5 3c
       -0.0038615807 0.04339172 0.051878855 0.022132032
000150 b3 0b 0e bc 9f 3b 45 3d 50 7b ac 3d 69 54 13 bd
       -0.0086697815 0.048152562 0.084219575 -0.03596917
000160 5f 4a 42 3c ce 62 5e 3d a3 d6 2e 3d f2 7e 98 bd
       0.011858552 0.054293446 0.042685162 -0.07446088
000170 41 0c 1e bd e0 f3 85 bd aa 2a 84 3d a8 c4 aa 3d
       -0.038585905 -0.06540656 0.0645345 0.083382905
000180 81 1d 1e 3c bc da 7f 3d 99 a6 81 3d 9d 46 25 bc
       0.009650589 0.06246446 0.06330604 -0.010087636
000190 a3 24 b5 3d de 6a c6 3c 2c 5a bc 3c 28 02 84 3d
       0.088448785 0.02422088 0.022992216 0.06445724
0001a0 e2 45 fd 3a c7 2c 56 bd bc 06 ee 3c 2c 1c 93 bc
       0.0019323195 -0.052288797 0.029055946 -0.01795777
0001b0 a2 c6 1e 3c d8 4e 70 3d 3a 5f 4f bd 91 5f 27 3d
       0.009690912 0.05866894 -0.050627925 0.040862624
0001c0 3d 0d 1b bd c6 e7 97 bd 6b 58 98 3d 29 eb 85 bd
       -0.037854422 -0.07417254 0.074387394 -0.06538994
0001d0 1d dd 28 3d cb b3 25 bd ef 13 a3 3d 12 42 37 bd
       0.041226495 -0.040454667 0.079627864 -0.044740744
0001e0 e0 c4 8d 3d ad 84 8b 3c 6d 9d 40 3c 72 bf 8d 3d
       0.069223166 0.017031038 0.011756283 0.06921281
0001f0 36 3c 69 bd e7 1c 78 bc bf 95 39 bd aa 21 e1 3c
       -0.056942187 -0.01514361 -0.045308825 0.027481873

rnn.bias_hh_l0 f4 [128]
000000 71 2f 76 bd 01 d8 58 3d 61 82 9f bd 9e 8a a4 3c
       -0.060103837 0.052940372 -0.0778854 0.02008563
000010 a1 89 69 bb e9 de 86 3d 52 3e 8e 3d de bb 68 bd
       -0.0035635012 0.065854855 0.069454804 -0.05681979
000020 1d cc fe bc 3d 34 12 3d 3e d1 09 3d 4b 95 f9 3b
       -0.031103188 0.03569435 0.033646815 0.007616674
000030 82 2e 85 3d 90 8c 6d 3d 9f 73 ad 3d 07 e8 2a 3d
       0.06503011 0.05799538 0.084693186 0.041725185
000040 a0 ab c3 3c 1f 5d e1 bb aa df 43 bc ca 17 2f 3d
       0.023885548 -0.006877556 -0.011955181 0.042747296
000050 4b e4 86 bb 31 f0 6b bd 9e 92 92 bd 31 7e aa 3d
       -0.00411657 -0.05760211 -0.07156871 0.0832485
000060 53 d5 a4 3d 43 93 33 3d 4b 13 30 bd 93 38 4d bc
       0.08048501 0.04384161 -0.04298715 -0.012525695
000070 58 96 12 3d 18 a3 73 3d 68 96 1f bd 73 20 3a 3d
       0.03578791 0.05948171 -0.038961798 0.045441102
000080 9d 27 95 bd ce bc 99 bc 92 a0 f8 bc ca f8 ed bc
       -0.07282946 -0.018766787 -0.030350003 -0.029049296
000090 31 62 11 bb 41 77 a6 3c 84 12 07 bc b6 21 86 3d
       -0.002218377 0.020320537 -0.008244161 0.065493986
0000a0 b3 4a cc bb c1 c4 8a 3d 84 64 49 bd 9d c9 2b 3c
       -0.006234491 0.06775809 -0.049168125 0.01048508
0000b0 a7 eb 93 bc 5c db 96 3c 90 02 93 bd 6f d4 d9 bb
       -0.018056704 0.018415146 -0.07178223 -0.0066476385
0000c0 b5 6d 91 bd fb 16 19 bc 51 7b bb bc 28 25 d0 bc
       -0.07101003 -0.009343858 -0.02288595 -0.025408342
0000d0 a1 25 65 3d 3d 5b 93 bd 65 00 b7 3b 7b 32 79 3d
       0.05594409 -0.07195137 0.005584764 0.060839158
0000e0 58 47 e0 bb 5d 9f 1b 3d 09 2b f1 bc d5 27 79 bd
       -0.0068444423 0.037993778 -0.029439466 -0.060829002
0000f0 f9 4d 84 bc 8a 12 57 bd 82 2c a2 bd 9e 83 a2 bc
       -0.016150462 -0.052507915 -0.079186454 -0.01983815
000100 26 c0 8b bd ae 02 63 bd bb 17 91 3c ba 7a fd bc
       -0.06823759 -0.055422477 0.01771151 -0.03094231
000110 27 93 60 3c 5a ad 76 bc dc 59 26 bd c6 eb 09 3d
       0.013706959 -0.015055979 -0.04061304 0.033672117
000120 ed c0 de 39 a5 71 b6 bb 96 55 8a 3d b4 3e 9b bd
       0.0004248688 -0.0055677467 0.067546055 -0.07580319
000130 75 ba 95 bd e9 91 80 bd 1f b7 0d bd 7b 92 91 3a
       -0.073109545 -0.0627783 -0.034598466 0.0011106277
000140 2c ba e8 bc f4 d4 a2 3b 3d 0f aa bd 46 77 6c bd
       -0.028409086 0.0049692336 -0.08303688 -0.057730936
000150 17 fd a3 3d 02 7f 8a 3d 00 38 a5 bd a5 3b 4d bd
       0.080072574 0.06762506 -0.08067322 -0.05010571
000160 4e ac 9a bd b9 51 70 3d 14 0d 85 3d 67 85 8b 3d
       -0.07552396 0.058671687 0.06496635 0.06812554
000170 62 ec 93 3d 0d 42 e5 bc f9 a2 66 3c e8 e7 9f 3d
       0.07222821 -0.027985597 0.014076942 0.078079045
000180 ca b9 2c 3b 4c 56 9d bd fb f6 d9 bc 8a 1f 15 3c
       0.0026355856 -0.076824754 -0.026607027 0.009101758
000190 2b 3d b4 bc eb e9 0e 3c 64 7e 8a 3d e6 9b c8 3c
       -0.022001823 0.008722763 0.06762388 0.0244884
0001a0 09 2e 2f bb dc 80 d1 bb ff fe 9e 3d 0f 03 89 3d
       -0.002673032 -0.006393535 0.077634804 0.066900365
0001b0 a1 5b 40 bd 03 08 00 3c d0 65 85 3d 90 ab 0d 3d
       -0.046962384 0.00781441 0.0651356 0.034587443
0001c0 6b 91 8f 3d 66 64 15 bd 11 fb 90 3b ea e8 bb 3a
       0.07010158 -0.0364727 0.0044244607 0.0014336382
0001d0 7b 72 bf 3c 65 40 92 3c 41 87 11 3d 26 01 a7 bd
       0.023370018 0.017852971 0.03552938 -0.08154516
0001e0 40 e5 64 3d 4c 66 aa 3d 05 9c 8e bd 7d 27 51 3c
       0.055882692 0.08320293 -0.06963352 0.012765762
0001f0 54 b4 ad 3d 18 16 88 bd 60 4f 15 3d f0 dc 5e 3b
       0.084816605 -0.06644839 0.03645265 0.00340062

rnn.weight_ih_l1 f4 [128, 128]
000000 d0 4a 69 3d 97 80 83 bd 1b 62 b7 bd 3a 1b b0 3c
       0.056956112 -0.06421011 -0.08954259 0.021497358
000010 7d 7a 30 bd 31 bc b0 bd 43 ef 78 3d 7f 39 b2 bd
       -0.043085564 -0.08629645 0.060775053 -0.08702373
000020 8d fa 3f bd 02 5b ab bb f2 a9 98 3d d0 31 0a bd
       -0.046869803 -0.005229355 0.074542895 -0.03373891
000030 94 9c 9f bd 11 de 58 3d b2 d9 a1 bb 65 ee 80 3d
       -0.07793537 0.052946154 -0.0049392814 0.0629547
000040 54 17 d6 bc 4c f7 95 bd 55 bf ee bc 84 94 5d 3d
       -0.02613417 -0.07322559 -0.029143969 0.054096714
000050 63 26 af 3c 7f d0 43 3a 96 77 18 3d c9 06 4b 3d
       0.021380609 0.0007469728 0.03722342 0.049567018
000060 1e 1b 47 bd 68 84 19 3b 13 ea f7 bd b0 ac d3 bd
       -0.048609845 0.0023424868 -0.12105193 -0.10335672
000070 28 c5 c5 3d 50 ad f0 bd 9d ab 4e bd 40 95 3e b9
       0.09656745 -0.11751807 -0.050456632 -0.00018175412
000080 f8 56 69 bd 7d 05 0f 3c 3d ea 33 bb 99 fe aa 3c
       -0.056967705 0.008729336 -0.002745285 0.020873355
000090 af 13 1a bc de cc 65 3d e1 82 fb bc b4 14 a6 3b
       -0.009404107 0.05610358 -0.030702056 0.005068386
0000a0 54 49 78 bd fb 89 85 bc 3f 60 84 bd c3 63 12 bd
       -0.060616806 -0.016301146 -0.0646367 -0.03573967
0000b0 dd 1b 8a bc 73 fe 39 bc ae 1d 97 3d 15 84 d5 3b
       -0.01685899 -0.011352169 0.07378708 0.0065159895
0000c0 25 a5 68 bc 8c 5c 98 3d 9d 7b 08 bd 88 6d c0 bc
       -0.01419953 0.07439527 -0.03332101 -0.023489729
0000d0 16 5a 42 3d 38 07 5c bc c8 41 4c bd 7e b0 b4 3b
       0.047449194 -0.013429455 -0.04986742 0.0055142036
0000e0 a9 4b 62 3d 37 bb 31 3d 35 df 43 3c 58 8e 62 bd
       0.055247936 0.043391433 0.011955072 -0.05531153
0000f0 d7 1a 9e bc 37 af 4a 3d 6f 2b ff bc f6 19 5b 3d
       -0.019299908 0.049483504 -0.03114864 0.053491555
000100 5e 5f a1 3c ac f7 d1 bc 80 81 5a 3c 4b a4 01 bd
       0.019698795 -0.025630794 0.013336539 -0.031650823
000110 11 ff 85 bd 12 5f f8 bc d7 6d e1 bc 82 9a e7 3c
       -0.06542791 -0.03031877 -0.027518196 0.028271917
000120 cd 94 7a 3d 16 f0 8f bd 57 5f e6 3c 96 1b 28 3d
       0.061177064 -0.07028215 0.028121633 0.041041933
000130 f0 60 6a bd fb 29 33 3c 62 d3 bf bc fb 99 86 3d
       -0.057221353 0.010935302 -0.023416225 0.06572338
000140 3d 84 28 bd 14 9e 4f 3d c2 1d 77 3d 5d bf 04 bd
       -0.041141737 0.050687864 0.060331114 -0.03240906
000150 05 47 9f 3d 2a f3 a8 3c ff 90 08 3d 9e ac f3 3c
       0.07777218 0.020623762 0.033341404 0.029745396
000160 c5 ce 7a 3b 56 67 2e 3c 73 a8 83 3d 5f d4 9c bd
       0.0038270217 0.010644754 0.064286135 -0.07657694
000170 c3 90 ae bd a4 3b fb 3c b7 79 b8 3d 06 87 5b 3d
       -0.08523705 0.030668087 0.0900759 0.053595565
000180 b8 cc 88 bd eb a3 97 3c 13 a0 43 bc a1 43 f5 bc
       -0.06679672 0.01851078 -0.01194002 -0.029939475
000190 fb 13 01 bd e2 1d 50 3c 99 ac 2b 3b 75 54 9b 3d
       -0.031513195 0.012702437 0.0026195406 0.07584468
0001a0 8d bc 65 3d b1 14 05 bd bf 2e b6 3d 09 21 f4 ba
       0.05608802 -0.032490436 0.08895635 -0.0018625568
0001b0 80 8b 7d bd bb 2b b3 3d b8 ff 65 bd 99 42 b6 3d
       -0.061900616 0.08748575 -0.056152076 0.08899421
0001c0 ed 72 94 3d 19 14 27 bd 44 8f 71 3c 12 fa 91 3d
       0.07248483 -0.04079065 0.01474363 0.07127775
0001d0 41 b7 2d 3c b8 a5 d8 3c a6 d7 ff bc f2 fa 4a 3d
       0.010602773 0.026446208 -0.031230759 0.049555726
0001e0 16 25 59 3d 5c 1a 58 3d 1d 1b 9d 3b 6f 52 67 bc
       0.053013884 0.052759513 0.004794492 -0.014118775
0001f0 11 04 bf 3c df c4 25 3d 5b 37 9a 3d 5d 27 25 bd
       0.023317369 0.040470954 0.075300895 -0.040320743
000200 d1 cc 5b 3d 65 28 87 bc 0f fd 59 bd f8 27 29 bb
       0.053662125 -0.016498754 -0.05321985 -0.0025811177
000210 84 d6 29 3d 83 03 91 3d 3c 2f 79 3d b6 b2 1b 3d
       0.041464344 0.07080748 0.06083606 0.03801223
000220 c5 85 63 3d a5 2c c0 bd 06 42 53 bd 16 de b6 3d
       0.055547494 -0.09383515 -0.051576637 0.08929078
000230 56 3c b2 bc 6e 3f 9a bd 7b 7f 8d 3d f3 c3 fc 3c
       -0.021757286 -0.075316295 0.069090806 0.030855155
000240 d4 3c 57 3d ab 93 dd bc 19 80 a6 bd 43 13 91 3d
       0.052548245 -0.027047953 -0.081299014 0.07083752
000250 a2 f3 c1 3d 45 df a2 3d 73 b4 59 bc 8f 85 98 3d
       0.094702974 0.079527415 -0.013287651 0.07447349
000260 da 9d a5 bb 81 12 70 bd ff e6 88 3c c5 7a b6 3c
       -0.0050542178 -0.058611397 0.01671171 0.022275338
000270 ac 6c 0c bd c8 9c d1 bd f2 59 a6 3d 6e bc 1c 3d
       -0.034283325 -0.10234982 0.081226245 0.038265638
000280 ce e6 53 3d 3d 5f a7 bb 50 86 1f bd 08 8b cf 3a
       0.051733784 -0.005107789 -0.03894645 0.0015834281
000290 b2 c6 9b bd 6e 74 1e 3d 3e 31 ad bd bc f4 9f 3d
       -0.076062575 0.038685255 -0.08456658 0.07810351
0002a0 53 c6 c3 bc ee 9b 4d 3d ce 67 1a 3d cb d5 53 3d
       -0.02389828 0.050197534 0.037696652 0.05171756
0002b0 ed f1 8c 3d 7c 2f ee bc 10 2e 86 bd 62 02 64 3c
       0.06882081 -0.029075377 -0.065517545 0.013916584
0002c0 6e 1e a9 3d e4 93 3d bd 99 68 96 bc 13 c0 ae bd
       0.08257757 -0.046283618 -0.018360423 -0.08532729
0002d0 11 a6 15 3c 12 fc b7 bd aa b0 7c 3d 84 eb 97 bd
       0.009133832 -0.089836255 0.061691917 -0.07417968
0002e0 a7 13 83 bd 93 ae 93 bd 70 13 26 3d ea 95 58 bd
       -0.06400233 -0.07211032 0.04054588 -0.052877344
0002f0 14 33 ad 3d 7a 8d c1 3c 18 e9 a2 bd 9e e9 91 bd
       0.08457008 0.023627032 -0.07954615 -0.07124637
000300 f5 83 91 3d 7d d8 3e 3c 7e 64 d0 bc 7d b1 88 3d
       0.07105247 0.0116482945 -0.025438543 0.06674478
000310 8a 29 b3 3d db 1f e4 bc ee c2 2e 3c 08 bb c2 bc
       0.08748157 -0.027847221 0.010666592 -0.023770824
000320 de 59 b8 bb 41 b3 75 3d 9a 77 3d 3c 93 61 2b bc
       -0.0056259474 0.059985403 0.01156416 -0.010460275
000330 77 57 8c 3d 97 18 95 bd 42 07 75 3b af 0d ec bc
       0.0685262 -0.07280081 0.003738836 -0.028815119
000340 2f 7c f9 3c 0f c7 ad bc 28 17 c0 bd 3d 40 6f 3d
       0.030454723 -0.021213083 -0.09379417 0.05841087
000350 e5 be 60 bd cb 92 78 3a 52 5f 5a 3d 22 e1 77 3d
       -0.05486955 0.0009482323 0.05331356 0.060517438
000360 7f 52 a3 3d 3b 19 ba 3d 07 69 86 bd 6e 72 a0 bd
       0.07974719 0.090868436 -0.06563001 -0.07834326
000370 17 00 2f 3d e0 77 6f 3a ed 30 ac bd 6a 18 9e bc
       0.042724695 0.0009134989 -0.08407769 -0.01929875
000380 ef 74 38 bc 56 6a 29 3b 5d 6f a4 3c 14 db 03 3d
       -0.011258348 0.0025850735 0.020072633 0.03219135
000390 19 39 40 3d 39 6e f6 bc 36 bc 18 3b 48 03 e0 bc
       0.046929453 -0.030081855 0.0023305542 -0.027345315
0003a0 2b 61 16 bd f5 c0 d4 3b 59 05 af 3d 50 cb 52 bd
       -0.03671376 0.006492729 0.08545942 -0.051463425
0003b0 41 9f 14 bb fc 80 a3 3d 79 08 2b bd da 0c 2d 3d
       -0.002267793 0.07983586 -0.041756127 0.042248584
0003c0 6a 1c 78 39 d9 f6 90 bb da 90 9a bd aa 13 10 3d
       0.00023661708 -0.004423958 -0.075471595 0.035175003
0003d0 12 5e b2 bd 51 23 ae bd b4 f1 03 bd 7f 4a 80 bd
       -0.08709349 -0.0850283 -0.032212928 -0.06264209
0003e0 1c 30 32 bd 42 10 dd bc b4 46 45 bd 44 ab aa 3d
       -0.043502912 -0.026985291 -0.04816313 0.083334476
0003f0 38 48 bf bd af 7d e7 bc a3 72 55 3d 8d 7c 25 3d
       -0.093399465 -0.028258173 0.05211128 0.040401984

rnn.weight_hh_l1 f4 [128, 128]
000000 1e 3d 89 bd 33 a0 84 3c 14 8d 82 3d 1d bd 76 bd
       -0.0670111 0.01618967 0.06374565 -0.060238946
000010 ab 16 57 bc 2b 18 96 bd 40 85 7e bd 7a 5a 9c bd
       -0.013127963 -0.073288284 -0.062138796 -0.076344445
000020 5e 36 81 bd 91 73 88 3c 4b a1 d2 bd 0d 62 5b 3d
       -0.06309198 0.016656669 -0.102846704 0.053560305
000030 41 ce 9a bd cc 8b 07 3d 9b c7 0e 3d c8 ca 2b 3c
       -0.07558871 0.033092305 0.034858327 0.010485359
000040 a2 93 10 bd 8e 4c 8d bd a3 4a b0 bd e1 7c 61 3d
       -0.035297044 -0.06899367 -0.08607986 0.055050734
000050 f4 f5 65 bd b6 93 15 3d 2c 92 a3 bc f1 24 69 bd
       -0.056142762 0.03651782 -0.019967161 -0.056919996
000060 56 5e 65 3d 7a 49 1f bc 2d ac 8c 3b 35 e2 4c bd
       0.05599817 -0.009722108 0.004292986 -0.050020415
000070 66 f4 9a 3d bb dd 26 bd 67 09 d3 ba 4b 17 b5 bd
       0.075661466 -0.040738802 -0.0016100825 -0.088423334
000080 79 f3 a9 bd ac e8 8a 3d 88 bf 9e bc ff 73 1f bc
       -0.08298392 0.0678266 -0.019378439 -0.0097322455
000090 ae 4d f1 3c 37 3e 5e bd af 12 69 bd 54 34 82 bd
       0.029455986 -0.05425855 -0.056902584 -0.06357637
0000a0 cb e0 8d 3d f3 f9 9c bd 83 48 1a 3d f9 29 9f 3d
       0.069276415 -0.076648615 0.03766681 0.077716775
0000b0 29 8a c3 bc dc e1 38 3c f3 88 12 3d 9d f6 50 bb
       -0.02386959 0.011284318 0.035775136 -0.0031885274
0000c0 5e 53 88 3d 01 8d 83 bd cd 56 48 bd 09 ca 81 3c
       0.06656526 -0.06423379 -0.048910905 0.015843408
0000d0 d8 d1 ad bc eb a2 96 3d bd 71 ac bd 99 26 31 bd
       -0.021218225 0.07355293 -0.08420131 -0.0432497
0000e0 ed da 5a bd 07 29 0b bd c8 ba 86 3c 88 ea 5a bd
       -0.05343144 -0.033974674 0.016446486 -0.053446323
0000f0 7e e3 69 3d 91 55 a2 bd b3 6d 5c bd 59 eb 15 bd
       0.05710172 -0.07926477 -0.053815555 -0.0366014
000100 a4 23 6d 3d b9 19 8c bd 02 1a ac 3d e3 07 eb bc
       0.057895318 -0.06840844 0.08403398 -0.028690284
000110 89 64 04 3c 94 00 58 3d 23 59 4c bc 23 fe fb 3c
       0.00808061 0.052734926 -0.012472424 0.03076083
000120 35 e4 fd bc 3f 7f fe 3a 22 5b 02 bd 4d 38 87 3d
       -0.030992607 0.0019416584 -0.031825192 0.066025354
000130 ee d0 04 3d 08 ce 91 3b b6 74 13 bd 54 c6 6d bd
       0.032425813 0.0044496097 -0.035999976 -0.05805047
000140 e5 a4 14 bc 55 38 aa bd d0 ab 32 bd ca fa 87 3d
       -0.009072517 -0.08311526 -0.043620884 0.06639631
000150 9d 94 35 3d d0 e3 a6 3d 83 81 59 3c ca a1 3e 3d
       0.04433118 0.081489205 0.013275507 0.046541013
000160 60 3a 93 bc 9a 53 a3 bd 38 a8 a8 3d 28 33 f8 bc
       -0.017972171 -0.0797493 0.0823521 -0.03029783
000170 a9 b7 ee 3c a1 00 9c 3b b0 5a 6d 3d b8 33 99 3d
       0.02914031 0.004760817 0.057947814 0.07480568
000180 1a da 27 3d 9c 50 a5 bd 9d 23 c0 3d 64 a9 5a bd
       0.040979482 -0.08072016 0.09381793 -0.0533842
000190 16 ae 0d 3d b3 75 a8 bd e5 de 8f 3d 28 a0 35 bd
       0.03458985 -0.08225574 0.07024936 -0.04434219
0001a0 8f fa c9 3b ea 5a 10 bd d2 3e 38 3b 9e fc 82 3d
       0.006163902 -0.035242952 0.0028113616 0.06395839
0001b0 1c cb 17 bd d3 50 34 3d 5e 3b 5a 3c af e6 ee bb
       -0.037058935 0.044022392 0.013319818 -0.007290683
0001c0 1a 28 2e bc e8 80 de 3c 09 ae 36 3d c5 d3 8f 3d
       -0.010629678 0.027161077 0.044599567 0.07022814
0001d0 ec 5f 22 3d 46 1c ff bb d3 c1 1d bd c2 e8 63 bd
       0.03964226 -0.007785353 -0.038514923 -0.055641897
0001e0 6e 5d a5 bd c0 af b4 bd 80 9e 6e 3d be 56 c5 bc
       -0.08074461 -0.08822584 0.058256626 -0.024089213
0001f0 de d1 60 3d 59 c9 a4 3d 04 eb 89 3d 59 cd 95 bd
       0.054887645 0.080462165 0.06734279 -0.073145576
000200 4e bf a1 3d aa 8c da bb c5 9b c1 3a f4 23 91 3b
       0.078978166 -0.0066696005 0.0014771154 0.004429335
000210 58 2d 33 3d 39 34 d1 b8 55 42 81 3d dd a6 b6 3d
       0.043744415 -9.975624e-05 0.0631148 0.089185454
000220 5d 94 e4 bc 36 c6 f1 3c 69 00 5d bd 7e c4 fd 3c
       -0.027902776 0.02951346 -0.05395547 0.030977484
000230 b2 01 ad bd 0d e8 b1 bb 84 ca 34 3c 6f e0 9f 3c
       -0.08447589 -0.005429274 0.011034612 0.019516198
000240 a5 42 91 bd 26 9f 90 3d b1 63 93 3c 9e 16 52 bc
       -0.070927896 0.07061605 0.017991873 -0.012822775
000250 2c 95 26 bd c9 1b 82 bb 97 fe 28 3d b1 db fb bc
       -0.040669605 -0.0039705974 0.04125842 -0.030744405
000260 b0 c8 b9 3d 4c 8c 75 3d e8 d5 9b 3d 0d 1b 45 bd
       0.09071481 0.05994825 0.07609159 -0.0481215
000270 20 3d 4d 3d a8 78 17 3b 8f d9 04 bc 79 7e b3 bd
       0.05010712 0.0023112688 -0.008108511 -0.08764357
000280 fe c3 53 3d b0 5e 77 3d ae 57 5b 3d 7a ec a9 bc
       0.051700585 0.060393035 0.053550415 -0.020742644
000290 5e c7 05 3d 53 2f c9 bc 8a f8 d8 bb 50 ca 76 bc
       0.032660834 -0.024558699 -0.006621425 -0.0150628835
0002a0 1b 9c 0f bd 15 02 c7 bb 2b 32 2b 3a 4e d9 8d bd
       -0.035060983 -0.0060732462 0.0006530608 -0.06926213
0002b0 16 e6 16 3d cc c1 b9 bc 46 4a 6b bd a8 3b 9c bd
       0.03684052 -0.022675417 -0.05744388 -0.07628566
0002c0 b8 c3 93 3c 89 09 31 3d b4 f5 7e 3c 2d 41 ac 3c
       0.018037662 0.043221984 0.01556151 0.021027172
0002d0 68 a8 bc bc 4f e7 ef 3c f8 01 8f ba ce 83 59 bd
       -0.023029521 0.029285101 -0.0010910621 -0.053104214
0002e0 dd 1c ad 3d 90 dc 0c bc 43 60 84 bd b9 a3 91 bc
       0.08452771 -0.008597508 -0.06463673 -0.017778264
0002f0 04 e5 ab bc ae e3 48 3d f6 20 a6 bd 26 98 aa bd
       -0.020983227 0.049045257 -0.081117555 -0.08329801
000300 e3 15 e7 bc cc 86 6b bd e0 9e b6 bd 0d 98 0e 3a
       -0.028208679 -0.0575016 -0.08917022 0.00054395274
000310 12 df a6 bd 81 bf 9e 3d fe 87 1d bd f8 99 1e bd
       -0.08148016 0.0775137 -0.03845977 -0.038721055
000320 9e 6b cc bb 69 07 81 3d 9d 14 79 3d 75 25 0d bd
       -0.006238415 0.063002415 0.060810674 -0.03445955
000330 62 d2 a1 bd c5 72 5a 3d a2 18 b8 3c b5 73 98 bd
       -0.079014555 0.05333211 0.022472683 -0.07443944
000340 71 54 8e bc 2f eb 52 3c 3a 8d 62 bd 23 6c a7 3d
       -0.01737425 0.012873455 -0.055310465 0.08174922
000350 45 3d df 3b cb 57 0d bd 42 d5 65 3d 28 fa 43 ba
       0.006812724 -0.034507554 0.05611158 -0.0007475936
000360 10 41 9c 3d 70 55 02 3d 81 59 79 3c 3a 39 69 3d
       0.07629597 0.03181976 0.015219093 0.05693934
000370 33 5e d3 bc 5b 87 47 bd 38 91 96 3d 5a ff 80 bd
       -0.025801754 -0.04871307 0.07351917 -0.062987044
000380 d2 ea a7 bd ea c0 25 bd ab c1 69 3d 31 a7 af 3d
       -0.08199085 -0.04046718 0.05706946 0.08576811
000390 a0 59 9d 3d c3 cc ad 3d 3d 4a b1 3c 55 57 07 bd
       0.0768311 0.08486321 0.021641845 -0.03304227
0003a0 cc 0f b0 3d 1c 72 80 bd d7 98 19 bd d5 07 25 bd
       0.08596763 -0.06271765 -0.037499275 -0.040290672
0003b0 81 44 74 3d 32 8b 9d bd f0 b8 8f bd 2b 6c 18 3b
       0.059635643 -0.07692565 -0.07017696 0.0023257833
0003c0 89 0b 9d bd d4 93 80 bd ed b5 68 3d e8 b0 73 3c
       -0.07668216 -0.06278196 0.056814123 0.014873721
0003d0 9f 97 dd bc a8 ec 1b bd d0 44 ac 3d f2 60 8c 3a
       -0.027049838 -0.03806749 0.084115624 0.0010710044
0003e0 bb 4f a1 bd 8f c6 95 bd a1 67 96 bd c2 55 a1 bc
       -0.078765355 -0.07313263 -0.073439844 -0.019694213
0003f0 cc 8a 8d 3d c9 36 90 3d b7 ed 75 bd c8 ce 48 3c
       0.06911239 0.070416994 -0.060041156 0.012256332

rnn.bias_ih_l1 f4 [128]
000000 00 cf 44 3d 6c af 8c 3d 13 b8 a4 bd 5b a6 ec bc
       0.048048973 0.068693966 -0.08042922 -0.028887918
000010 8b a9 3c 3d 5b d2 97 bd 29 59 84 3d 3b c9 1b bc
       0.046060126 -0.07413169 0.064623185 -0.009508426
000020 14 82 87 3c ec 6c df bb b3 25 9b bd 3a 2f 10 3d
       0.016541518 -0.0068184044 -0.0757555 0.03520129
000030 e6 33 80 bd ed d2 b8 bd 1d 9b 63 bc 64 94 99 3d
       -0.06259899 -0.09024606 -0.013891962 0.074990064
000040 c6 81 45 3d 34 f2 08 bd 4c 94 d1 bc dc 9e 65 bd
       0.048219465 -0.033434108 -0.025583409 -0.056059703
000050 66 fb 5f bd b2 7c b7 3d ce c8 aa 3d 60 12 6f bd
       -0.05468311 0.089593306 0.08339082 -0.058367133
000060 2a 5e 83 bd b7 2a 52 3c 38 07 c7 3c 32 1a 88 b9
       -0.06414445 0.012827567 0.024295434 -0.00025959458
000070 f1 e5 00 bd 48 bf 79 3a 90 a5 31 3d 95 19 65 3b
       -0.03146929 0.00095270993 0.043370783 0.0034957875
000080 fd d6 b4 bd e5 f4 40 bd 5c d0 a6 bd 01 4f 4a bb
       -0.08830068 -0.04710855 -0.0814521 -0.0030869844
000090 8d eb 1a bd d7 c0 96 bd 47 f2 26 bd fe 5c 6f bc
       -0.037822295 -0.07361 -0.040758397 -0.014609573
0000a0 76 e7 54 3d 49 2a 86 3d 2f 93 81 3d d3 70 aa bd
       0.05197855 0.06551034 0.06326901 -0.08322301
0000b0 76 ff 51 bd 6b 4f 6c 3c 12 84 56 3d 9c fd bb bc
       -0.051269017 0.014423232 0.052372046 -0.022948079
0000c0 c2 2d ee bc 23 20 9e bd 27 49 c0 bc 2c d6 70 3c
       -0.029074553 -0.07720973 -0.023472382 0.0146995
0000d0 00 d0 6d bd 47 76 9b bd f0 28 7d bd 24 98 9d 3d
       -0.058059692 -0.07590919 -0.06180662 0.07695034
0000e0 cf b8 bd bc a9 b8 12 bd b0 aa 29 bb e4 92 21 bd
       -0.023159413 -0.035820637 -0.0025889091 -0.039446726
0000f0 fe b8 d7 bc e6 41 2d 3d dd 4d a7 3c 02 f8 86 bd
       -0.026333328 0.042299174 0.02042287 -0.065902725
000100 14 e3 83 3d 99 b1 52 bd 9b e2 a6 bd a1 e0 e7 bc
       0.06439796 -0.0514389 -0.0814869 -0.028305354
000110 d9 f0 b0 3d 2e 52 71 bd c3 8d a1 bd 4f 8c 96 bc
       0.08639688 -0.058916263 -0.07888367 -0.018377451
000120 cc 18 a8 bd c2 9e 93 3c 30 57 a0 bd 06 4e 5c bd
       -0.08207855 0.018020038 -0.0782913 -0.053785346
000130 e3 39 2e 3c 71 b2 a6 bd 51 ef ad bd 43 7d 26 3d
       0.010633918 -0.08139504 -0.084929116 0.040646803
000140 bc 21 4a 3d 68 2f 90 bc 23 77 de bc 1c 90 30 3c
       0.049348578 -0.01760073 -0.027156418 0.010776546
000150 19 a7 20 bd 5b 3f 8c bd df d5 54 3d aa 74 4d 3d
       -0.039221857 -0.068480216 0.051961776 0.050160088
000160 61 89 87 bd a5 3d c8 3a 43 c2 a1 3d c9 68 a2 bc
       -0.06618 0.001527716 0.078983806 -0.019825356
000170 37 9d 85 bc 40 18 3f 3b 05 b0 1a bd 7a 4f 83 3d
       -0.016310317 0.0029158741 -0.03776552 0.06411643
000180 34 7c 89 3b c5 54 13 bd 81 fd 7c 3d cd e0 b8 bc
       0.0041957144 -0.035969514 0.061765198 -0.02256813
000190 95 09 2a 3d b6 40 74 bc 68 05 45 bb 35 62 9d bb
       0.041513044 -0.014908006 -0.0030063037 -0.004802967
0001a0 8d 9f 96 3d b5 62 53 3d 2e 73 37 bc 49 39 7c 3d
       0.07354651 0.051607806 -0.011196895 0.06157807
0001b0 2d bc 95 bd f1 64 57 bd 72 14 94 bd b3 d3 7a 3b
       -0.07311282 -0.0525865 -0.07230462 0.0038273155
0001c0 f3 85 79 bd c7 fc f5 3c bc 53 58 bd d1 d8 80 bd
       -0.06091876 0.03002776 -0.05281423 -0.062913544
0001d0 7f f1 90 bd 03 8b f0 bc ef 41 b3 bb 1c 84 33 bd
       -0.07077312 -0.029363161 -0.0054705064 -0.04382716
0001e0 22 b8 6b 3d 8a 15 da bc 78 57 a8 bc eb 51 a5 3d
       0.05754865 -0.026621599 -0.02054952 0.08072265
0001f0 12 fb 02 3d df 15 88 bc 7a 94 1c 3d c6 8c 86 3d
       0.03197772 -0.016611991 0.038227536 0.06569819

rnn.bias_hh_l1 f4 [128]
000000 4c 24 17 3d a1 bf e8 3b d3 a4 5c bd f9 da ac 3c
       0.03689985 0.007102922 -0.053868126 0.021100508
000010 0f 57 25 3d 27 ec 99 3c 85 e0 91 3d 89 99 b5 3d
       0.04036623 0.018789364 0.07122902 0.08867175
000020 22 72 4e bd a3 2b 18 bc 7a cd 4a bd 7e 82 64 3d
       -0.050401814 -0.009287748 -0.049512364 0.05578851
000030 37 ee 82 3c 05 58 8e 3c dd e7 82 3d e6 29 90 bd
       0.01598273 0.017375955 0.06391881 -0.070392415
000040 8e b5 34 3d 43 a0 9f bd 08 8d b5 3c db 83 7d 3d
       0.044118457 -0.07794239 0.022161976 0.061893325
000050 a9 10 a1 3d b2 ec 5c 3d 76 62 48 3c 67 7d 4e 3d
       0.07864506 0.053936668 0.012230506 0.05041256
000060 1e 85 95 3d ab 5a 9c 3d 80 ff 7e bd 04 11 8b 3d
       0.07300781 0.07634481 -0.062255383 0.06790355
000070 c0 24 a9 3d c7 86 87 3d 47 17 00 3c 1e a2 b8 3d
       0.08258963 0.066175036 0.00781805 0.090152964
000080 c9 ee 97 3d 75 d2 62 bd c1 ed 08 bd d0 b6 12 bd
       0.074185915 -0.05537649 -0.033429865 -0.035818875
000090 69 c9 68 3d 99 39 39 3d 6f f9 e4 3b bc 0d c7 bd
       0.056832705 0.045220945 0.0069877426 -0.097194165
0000a0 dc 03 77 3d 77 54 c0 bc c8 d1 19 3d c5 1f 2b bc
       0.060306415 -0.023477776 0.03755358 -0.010444586
0000b0 be 02 99 3d 87 30 2e bb 6d 6f 87 3d 84 98 6d 3d
       0.07471226 -0.0026579218 0.0661305 0.05800678
0000c0 75 60 18 bc 93 95 4b bd 68 9e b6 3d 36 81 7a 3d
       -0.009300341 -0.049703192 0.08916932 0.06115838
0000d0 ae 96 8c bd f0 2b a0 bd 33 46 71 bd 3c 6c 4d 3d
       -0.06864677 -0.078208804 -0.058904838 0.05015205
0000e0 70 d1 80 bd 59 ad ab 3d 2b de 09 bb da 22 07 bd
       -0.06289947 0.08382673 -0.0021036963 -0.03299222
0000f0 f2 f2 b6 3c 61 97 95 bc 85 f3 ab 3c 24 4e b5 bc
       0.022332642 -0.01826066 0.020990143 -0.022131987
000100 67 e3 43 bd 5f 95 47 bd 00 1d 04 3d 24 d8 e2 bc
       -0.04782429 -0.048726436 0.03225422 -0.027690955
000110 78 7b 59 bd 84 79 83 3c e9 c0 a6 bd e1 91 b5 3c
       -0.053096265 0.016049154 -0.081422634 0.022164287
000120 3b 5d 12 3d 73 85 5a 3d bf 6c ad 3d 14 8b a9 bd
       0.035733443 0.053349923 0.08468007 -0.0827848
000130 66 b0 72 3d 7b 14 61 3c 30 2c 14 bc db 34 e3 bc
       0.059250258 0.013737793 -0.009043738 -0.027735164
000140 74 a7 18 3d ac 02 e6 bc 4b 84 f9 3c 6d e2 af bd
       0.03726907 -0.028077446 0.03045859 -0.08588109
000150 36 7f 98 3d 45 c9 a5 3d 18 1c 8a 3d f0 7e 74 3c
       0.074461386 0.0809503 0.0674364 0.014922842
000160 03 3a ca bc ad d8 86 3d 93 d6 9c 3d ee 23 4a 3d
       -0.024685865 0.065842964 0.07658114 0.04935067
000170 56 57 86 3d cd 47 e1 bc 99 9c b7 3d ef d4 f6 3b
       0.06559627 -0.027500058 0.089654155 0.007532708
000180 39 27 27 3d e8 8a 40 bd 15 40 a6 3d b5 6b b4 bd
       0.04080889 -0.04700747 0.081176914 -0.08809606
000190 0f 3e 09 3c 58 92 b7 bd 76 6b 68 bd 64 ed 8b 3d
       0.008376612 -0.0896346 -0.056743108 0.06832388
0001a0 97 e8 d4 bc 7b 7b 63 bd 96 1e 7e 3d 1d a0 43 3d
       -0.025989814 -0.055537682 0.062040888 0.047760118
0001b0 c7 f5 9d 3d 8c ba 04 3d 10 1a 2e bd 26 bb 11 3d
       0.07712894 0.032404467 -0.042505324 0.03557887
0001c0 35 0c 06 3d 59 8c 56 3c 72 6b 8d bd 55 42 36 3d
       0.032726485 0.013094985 -0.06905259 0.044496853
0001d0 89 89 19 3d 84 ad 93 3c 11 d0 8f 3d b3 f3 8f bd
       0.03748468 0.018027075 0.070221074 -0.07028904
0001e0 95 a8 93 3d 7a 54 13 3d 9a e4 9c bd cb f4 99 3c
       0.07209889 0.035969235 -0.0766079 0.018793484
0001f0 08 95 83 3d 28 13 5a bd d7 e4 52 bb cc b5 a8 3d
       0.0642491 -0.053240925 -0.0032179856 0.082378

fc.weight f4 [1, 128]
000000 79 3b 32 bd 0f 29 c7 bd 60 4b d8 3b 29 a4 b6 3d
       -0.04351375 -0.09724628 0.0066007823 0.0891803
000010 18 19 68 3d bc ef 21 bd d2 60 37 bd dc ca bd 3c
       0.056664556 -0.03953527 -0.04477007 0.02316802
000020 d8 6c 1d b9 3c ca a1 3d fc aa d3 3c a8 34 bc 3d
       -0.00015013234 0.07899901 0.025838368 0.09189731
000030 e0 6b 2f 3c d8 fc 45 bd 8c e3 bd 3c e6 83 b9 bd
       0.010706872 -0.048336834 0.023179792 -0.09058361
000040 d0 65 b0 bd 02 5a 15 3b 54 8a 12 3d 1d 2c 76 bd
       -0.08613169 0.0022789245 0.03577645 -0.060100663
000050 18 1a 49 3d 53 16 b5 3d fd 11 14 bd 64 88 04 3d
       0.04909715 0.08842149 -0.036149967 0.032356635
000060 ed 6a 08 bd bc cc 9a bd 6e 6a 3e 3c 94 5b 02 bd
       -0.033305097 -0.07558581 0.0116220545 -0.031825617
000070 01 66 a8 bc b3 4c b9 3d 9f 09 f5 39 7b 01 88 3d
       -0.020556452 0.09047832 0.0004673721 0.066409074
000080 18 43 56 3d d3 94 77 3c f3 dd c2 3c 2e 25 a5 3c
       0.05231008 0.015111166 0.023787474 0.02015933
000090 ae 3c 8f bd ba fe 3c bd 78 95 c2 bc 04 a4 5b 3d
       -0.069939956 -0.046141364 -0.023752913 0.053623214
0000a0 d1 00 d8 bc f3 81 f0 3a 96 f4 65 bd 3d e1 a4 bd
       -0.026367577 0.0018349275 -0.05614146 -0.08050773
0000b0 12 58 8f 3c 60 f7 78 3d 84 aa 90 3d ea e1 c4 3c
       0.01749805 0.06078279 0.07063773 0.024033505
0000c0 ef a8 49 bd 3b 17 d0 bc 97 b0 bc 3d d8 f3 4c bc
       -0.049233373 -0.025401702 0.09213369 -0.012509309
0000d0 c6 b2 b0 bd f0 fe 8d bd ce 6c 8a bd df 17 ae 3d
       -0.08627848 -0.06933391 -0.06759034 0.08500647
0000e0 87 b0 39 3d 3e 79 ab bd d9 b1 9e bd b5 1b b6 bd
       0.045334365 -0.083727345 -0.077487655 -0.088920034
0000f0 cc d3 98 3d fa c7 cb bb bb cb 60 3d 05 a9 20 bc
       0.07462272 -0.0062189074 0.054881793 -0.009805922
000100 43 26 a3 bd b2 0d 76 3d c9 d5 d8 bc 19 b5 b4 3d
       -0.07966282 0.060071655 -0.026469128 0.08823604
000110 34 7a b9 3d 8e c8 57 bc de d8 72 3d fc 8e 57 bc
       0.090565115 -0.013170375 0.059288852 -0.013156649
000120 2b 79 4f bd 7b 69 25 3d e5 32 e5 3b 75 6d 90 bd
       -0.050652664 0.040383797 0.0069945925 -0.07052127
000130 e1 03 4d bd 52 e2 a0 3d 78 93 ae 3d 71 6f 3b 3d
       -0.050052527 0.07855667 0.08524221 0.045760576
000140 d8 53 df 3b 29 66 74 3d 1a 04 52 3d 05 35 dc bc
       0.006815415 0.05966774 0.051273443 -0.02688075
000150 f2 a9 8a bc b2 95 83 bd 89 13 c0 bd c5 80 95 bd
       -0.01692674 -0.064250365 -0.09378726 -0.072999515
000160 f8 11 83 3c c2 45 69 3d cb 0a 18 3d 5e a5 88 3d
       0.01599978 0.05695129 0.037119668 0.06672166
000170 96 ff b5 bd 51 1b 7d 3d 8f 42 44 3d c1 fe 62 bd
       -0.0888664 0.06179363 0.047915038 -0.055418734
000180 d7 27 c2 3c f4 bb c6 3b dc a2 1f bd d6 ce 9d bd
       0.023700638 0.006064886 -0.038973674 -0.077054664
000190 e3 3f 87 3d 45 03 5f 3d 04 db 86 bc 15 06 1b 3d
       0.06603982 0.054446477 -0.016461857 0.037847597
0001a0 36 e3 96 bd 79 2f b2 bd 23 2d 8b bd 61 37 0c bd
       -0.07367556 -0.08700461 -0.067957185 -0.0342325
0001b0 1a 0b 87 bd e5 c4 8e bd d5 46 97 bb 92 46 a8 bd
       -0.06593914 -0.069711484 -0.004616598 -0.08216585
0001c0 13 52 b9 bd f6 40 a0 bd 3c 8d d3 3c 5c fe 0f 3d
       -0.090488575 -0.0782489 0.025824182 0.035154685
0001d0 41 39 b6 3d 14 33 e2 3c 4c 96 62 bd b0 7a 9a 3d
       0.08897639 0.027612247 -0.055319116 0.07542932
0001e0 12 7c 85 3d 3c 3a 8a 3d 4e 04 9c bd 08 41 6f 3d
       0.06517805 0.067493886 -0.076180086 0.058411628
0001f0 92 8a b3 bd aa ae 92 3d 46 c9 ca bc ef b5 88 bd
       -0.087666646 0.07162221 -0.024754178 -0.06675326
